rnn_model.pt (torch, 79063 bytes, 6 tensors)

weight_ih_l0 f4 [256, 7]
00000000: 695a a0bb ba16 3c3c d250 c13d 6989 23bd
00000010: ff9b 3f3d eda8 e1bd a26c c13d 9050 93bd
00000020: c602 8a3d fb6c cb3d 55a8 5bbd 7ebe 5fbd
00000030: abe4 d83d 46ad d9bd da77 b23d f157 bdbd
00000040: 4c1d 8d3c c63d 97bd e943 57bd 90c0 883d
00000050: 07d0 89bd 379f 1dbc 364b 2e3d 9826 5dbc
00000060: 0d1f 02bd 0b28 053c 8137 d0bd e1e4 463d
00000070: 8a16 bebd c3ab 8f3c 3365 b7bd 2e83 7cb9
00000080: d47c e83c 65be 8dbd 1af5 213e dd02 bfbd
00000090: 760d 8a3d 7d10 ae3d efd8 b23d ab22 953c
000000a0: 4b03 3f3d 33c5 d23d 25bc c93d 008e b43d
000000b0: fde0 203d d824 9a3c 84b3 483b e065 a9bd
000000c0: 299f 85bd 8a11 8ebd a85c e33d 3191 82bd
000000d0: a441 2dbd df20 fabd e7bb f8bc 2a39 d93d
000000e0: 8a18 c3bd 567f a1bb 14a6 91bd ee90 af3d
000000f0: e7fb 19bd bfd5 cabd 7477 c1bd ca80 81bd
00000100: 6448 92bb e026 1abb c406 8c3d 0a3e 8cbc
00000110: db95 c23d 1297 ca3d 5328 a0ba 897d b73d
00000120: a0d1 8cbd c5f5 f1bc 4a24 5cbd a546 0b3e
00000130: 6685 f9bb 9e52 423d c402 e1bd cb89 fb3b
00000140: 2b6a ac3d 19f0 b13d 6459 043e c1b3 023d
00000150: 0343 d2bd 306e d1bc 14c5 f43d 2f6b 1ebd
00000160: 692c 093d 2564 8dbd f105 fd3d e70a c5bd
00000170: 200f 94bc 94b7 bcbd d7b3 d7bc fba9 47bd
00000180: 83a5 28bd 31bc 073e db9c d63c d7be 0cbd
00000190: fdd6 c83d a5bb 413d 374a 063e 2177 d0bc
000001a0: 1782 0c3c 08aa e1bd 6337 ec3d d86d eebd
000001b0: 087d a5bd 89bc c23d 9af1 aebd d66b 62bd
000001c0: 275d e83d 1875 45bd bfd5 7fbd 5733 60bc
000001d0: 0611 d2bd 4cfb 303d 04ab 413d adad 94bd
000001e0: 10ff d9bd b0d2 ce3d 9f43 8d3d 261c 363d
000001f0: ea3a 2cbd 520c ec3d 706c 45bc ade8 073d
00000200: 5301 c5bd c340 66bd 1831 f1bc fe44 dbbd
00000210: f576 0fbd 4665 a6bd 7446 31bb 5bfe c13d
00000220: b814 bb3d 2ea0 86bd 50d2 b03d a1c9 123d
00000230: 55e2 8d3c 008d ffbc 5362 c5bd 011c 28bd
00000240: cf95 df3d 28eb 363d 106d 1fbd f08e 45bc
00000250: 9549 83bd a36a 97bd c9c2 f13d 22c9 bdbb
00000260: b91c 023e 69d6 0c3d a31d 1e3d 3122 f8bc
00000270: 304c 1abd 5dec 7a3d c9e7 b63d 3d49 a13d
00000280: e48f f8bc 8191 a6bd 7b06 f03d 818f 613d
00000290: c09a 163d ce2a 93bd 47cd 073e 051a fdbc
000002a0: d55b 383d 4caa aa3d d595 f63c 078f c5bd
000002b0: dec9 59bd 87a1 0b3d 3b72 603d ac2c ad3d
000002c0: 97ed bc3d b20b 4ebd 33a7 4e3d 1379 ad3d
000002d0: 71a7 fa3c 3743 b03b 8bbd 983d 1177 c5bd
000002e0: 555f 6ebd 3e41 bbbd b26b 3dbd d659 9c3d
000002f0: a664 a439 21fd 643d 09f8 423d 7fdb 453d
00000300: 2f9e f2bd a157 5d3d b4ba 81bd b3fd febd
00000310: 9039 8d3d b834 d83c 1005 e0bd dfef c0bd
00000320: 8bbe c8bc b2aa 013e 21bb 01bc f6ef e83b
00000330: b3b0 333c 937c 883d cf94 72bd 71ca 913c
00000340: faa9 ad3d 3637 343d ffbd d13d 2f50 a7bd
00000350: d8fc 943d 97a0 ca3b 2d76 683d 6eb2 a93d
00000360: 7d47 9d3d 9265 623d dc3e 7b3d 88d3 29bd
00000370: a570 b93d b4ad a43c 3b88 3f3c a8f1 d23d
00000380: 5823 e7bd 5c22 953d b11f f23d c1c6 64bd
00000390: 52c4 913d 75d2 ffbc 37ad ce3b 414b fe3d
000003a0: c1cc efbd 43a7 97bd c939 6c3d 1118 193d
000003b0: 263f 2fbd b6f4 88bc c713 c2bc b72a 933d
000003c0: 2b91 0a3a de43 a53d 71d6 f33d 4377 8ebd
000003d0: 3756 86bd e0ca cabd 92da 9fbd 2fd7 38bc
000003e0: 1d3c 21bd e3f1 c7bd ddec a9bd b8d1 ae3d
000003f0: 5a67 eebd b6f9 5bbd af68 dc3d f272 ce3d
-0.00489359 0.011480028 0.094392434 -0.039925966 0.04677963 -0.11018548 0.09444548 -0.071931005
0.0673881 0.09932896 -0.05362733 -0.054625027 0.1059049 -0.106287524 0.08714266 -0.09245289
0.017225884 -0.07384829 -0.052555 0.066773534 -0.06729131 -0.009620479 0.042552195 -0.013497971
-0.031767894 0.008127223 -0.101668365 0.04855812 -0.09281643 0.017537957 -0.08954849 -0.00024081461
0.028379835 -0.069210805 0.15816155 -0.09326718 0.06740849 0.08499239 0.08732783 0.018205008
0.046634 0.10291519 0.09850339 0.08816147 0.039277066 0.018816397 0.0030624578 -0.08271384
-0.06524498 -0.06936939 0.11101657 -0.06375349 -0.042298928 -0.12213301 -0.030363036 0.10606606
-0.09526165 -0.0049285097 -0.07111755 0.08572565 -0.03759375 -0.0990405 -0.09446612 -0.06323393
-0.004464196 -0.0023521706 0.06837228 -0.017119426 0.09501239 0.098920956 -0.0012219049 0.08959491
-0.0687592 -0.029536137 -0.053745545 0.13601168 -0.0076147793 0.04744207 -0.109868556 0.0076763383
0.084186874 0.08688373 0.12924725 0.031909708 -0.10266688 -0.025565237 0.11951652 -0.038676437
0.03348962 -0.06903867 0.12354649 -0.0962122 -0.018073618 -0.09214702 -0.026330872 -0.04874609
-0.04117347 0.13255383 0.026197841 -0.034361687 0.09806631 0.047298092 0.13114248 -0.02544743
0.008575938 -0.11018759 0.11534002 -0.11642045 -0.080804884 0.095086165 -0.085421756 -0.05527862
0.113458924 -0.048207372 -0.062459704 -0.013684115 -0.10257153 0.043208405 0.047282234 -0.072596885
-0.106443524 0.10098779 0.06897663 0.04446044 -0.042048372 0.115257874 -0.012049779 0.03318088
-0.09619393 -0.056214105 -0.029442355 -0.107065186 -0.035025556 -0.08124785 -0.002705005 0.094723426
0.09134811 -0.065735206 0.08633864 0.03583682 0.017319838 -0.031195164 -0.096378945 -0.04104233
0.109172456 0.044657856 -0.03892237 -0.012058005 -0.06410519 -0.07393386 0.118047304 -0.005791799
0.1270627 0.034384165 0.038602483 -0.030289741 -0.037670314 0.06126057 0.08930928 0.07875297
-0.03034205 -0.081332214 0.11719986 0.055068497 0.036768675 -0.07185899 0.13261901 -0.030896196
0.045009453 0.08333263 0.030100742 -0.09646421 -0.05317103 0.03408959 0.05479644 0.08455786
0.09225004 -0.050304122 0.050452422 0.08470359 0.03059742 0.0053791064 0.074580275 -0.09641851
-0.058196384 -0.09143303 -0.046245284 0.07634322 0.00031355507 0.055905465 0.047599826 0.04830503
-0.118465774 0.054038648 -0.06334439 -0.12450733 0.06895745 0.026392326 -0.109384656 -0.09420752
-0.02450492 0.12662771 -0.00791815 0.0071086837 0.010967421 0.06664386 -0.059223946 0.017796727
0.08479686 0.043997966 0.10241317 -0.08169591 0.072747886 0.0061836946 0.056753326 0.08285986
0.07679651 0.055272646 0.061339244 -0.041461498 0.09054688 0.02010236 0.011690195 0.102999985
-0.11286038 0.07281944 0.11822451 -0.05585361 0.07117523 -0.031228283 0.00630727 0.12416697
-0.117089756 -0.074049495 0.057672296 0.037376467 -0.042784832 -0.01671825 -0.023691071 0.071858816
0.0005285914 0.08069585 0.11906136 -0.06956341 -0.06559413 -0.099019766 -0.07805361 -0.0112817725
-0.03936397 -0.09762933 -0.08297131 0.085360944 -0.116408065 -0.05370494 0.10762154 0.10080518

weight_hh_l0 f4 [256, 64]
00000000: e63d 593b f712 aebd d349 8dbd dbfd aebc
00000010: f898 babb 526b cbbd 1b32 e43d 02ad 303d
00000020: d11e ac3d faf6 153d e3a9 913d 9cd8 843d
00000030: 5956 ac3d ab83 043d 8500 e53d aa30 a83a
00000040: 7750 fe3d ceac 723d 6071 063b 1668 a63d
00000050: e658 4f3d 3d7f a9bd 347c f0bd fec4 91bd
00000060: 4ac9 a33d a736 0c3d b2f8 c1bd a6a8 57bc
00000070: a03f a13d adf4 f2bc f228 e33c 0784 bb3d
00000080: 8c5d cbbd 8a01 b73d b35f 12bd 67a4 57bc
00000090: 233b 81bd f0e9 94bd dc97 6a3d dcbc 98bd
000000a0: e636 4ebd 1730 1fbd c719 f0bd c783 5abd
000000b0: 5255 213d 6c26 783c 2b05 3e3c 6765 a83c
000000c0: a5bd d73c 9c0b 96bb 2fb5 543a ac6d acbd
000000d0: b87d b2bb a90c 8b3d dba6 733c 0e49 a63b
000000e0: 88d1 d5bd e322 b23d 06a0 e3bd 9634 18bd
000000f0: 95c1 f63d 5e14 ffbd e6de b13d a8b3 193d
00000100: 7277 eabd 1829 c93c b119 b8bd c63e 053d
00000110: 97a2 c03d 5648 9dbc 3e04 05bd 19be bd3c
00000120: 42b0 f0bc efe8 a4bd 4767 a4bd 2e1b cdbc
00000130: 1d3d dd3d 307d 38bd c8de c6bd 9f8f 443d
00000140: e30a 293d 6672 e2bd 2ebb e7bd a488 88bd
00000150: 8607 91bd 11f9 ec3c 2a73 333d 87bc fc3d
00000160: ec95 c2bc dada be3c 280f bebc ba85 753d
00000170: 8c50 023d c65c fc3d 53e4 a23d 38ce fbbd
00000180: ec7b e23d 64f3 6b3d 8729 e03d fbe7 a1bd
00000190: 5262 5c3d 7196 14bd 608c 323d 924e 1c3d
000001a0: 6d4f c5bc 9137 0d3b 269d 3d3d 3275 bcbd
000001b0: a11a f93d db98 c53c 7875 7c3d 29e5 fc3d
000001c0: 89f9 c83d 0dab 953d dd4e ffbd 08aa 833d
000001d0: 1a7d c53d 6573 e8bd e337 243b e5cb 01be
000001e0: d590 df3d 2223 043c 7c08 2abc 5c20 7a3d
000001f0: 4ab3 0bbd d4b9 d23d 9c02 efba 2ba2 8ebc
00000200: 7a40 d5bd d269 a9bd e920 633c c651 183d
00000210: fdbd 9a3d 96be d93b 8ca7 193c d1ca d0bc
00000220: e3f2 92bd 8111 adbd 2ab4 663d 05db f43d
00000230: 540e 0b3d 6a5d 9f3d 3d39 243d 4c88 ac3d
00000240: 1745 eebd f7b5 8d3c 3372 f43d 0602 ebbc
00000250: e7e3 d1bd e673 413d df07 99bc 751c 9ebd
00000260: 44f4 ca3b fd15 edbd 5bae c6bd e3f1 343d
00000270: ed39 46bd 62b2 c83d 7c7d b73d 0f22 f83c
00000280: 43ce afbc 91b3 fa3d 68cb c1bc 8154 c13c
00000290: b711 b23d 4368 fb3d c145 823c 5cb6 003e
000002a0: 2b76 d53c 22b7 aa3c 933e 9f3d 5e9a 013d
000002b0: 71aa e53c e449 d03d b512 a3bd 6492 973d
000002c0: 1a9b 9b3d 3bcd eb3d 696f cdbd 22dc 90bd
000002d0: acb0 5fbd 792e 7cbd c3c6 3e3d 0649 343d
000002e0: 1a45 fe3d a3ce ed3d 0aeb 4fbb cafa dcbd
000002f0: 9d16 353c 236b ffbd 0436 9c3d 6063 f1bd
00000300: 5b61 563d 9c3c c83d cfe2 9dbd 09e1 2ebd
00000310: f408 9fbd 2838 d4bd 679c fbbd 37e0 e8bd
00000320: 8698 f83d ebd0 f6bc fe90 c5bd cdf5 51bd
00000330: ad14 1ebd 8ee4 45bd d4a0 163d 8834 9cbc
00000340: 5c05 ab3d 4128 ec3c 6d22 5dbd 3a59 f2bd
00000350: b629 b23d b41e b03c edea b73d f279 83bd
00000360: d9ba fd3d 8bc9 003e 83ed 1a3c 0e2a c2bc
00000370: 2bf7 553d 9a71 c73d aead b5ba c0b7 b4bd
00000380: 56dc 54bd 3304 4fbc 8048 6cbd 5079 94bd
00000390: f45e eebc 30af e0bd 3c1f ea3d 26c7 cc3d
000003a0: 1264 ec3d e2ea 47bd ad17 9c3c 633d d53d
000003b0: 016e e5bd db88 dcbd e022 16bd aa2b 043d
000003c0: cc10 c23d 8f30 963d 3bf9 7f3c 74e1 9c3d
000003d0: e490 763d f687 3bba fe0d 9dbc 5087 47bd
000003e0: 000c 413b 6418 833d 167e c43d f33d ea3c
000003f0: bf12 f93d c1d7 e4bd 94c4 313d 2700 a93d
0.0033148467 -0.08499711 -0.068988465 -0.021361282 -0.005694505 -0.09932579 0.11142369 0.043133743
0.08404315 0.03661249 0.071124814 0.064866275 0.08414907 0.03235213 0.1118174 0.0012831886
0.12417691 0.05924683 0.0020514354 0.081253216 0.05062189 -0.08276222 -0.1174244 -0.071176514
0.07997377 0.034231808 -0.09471263 -0.0131627675 0.07873464 -0.029657686 0.027729485 0.091560416
-0.09929952 0.089358404 -0.035735797 -0.013161755 -0.063101076 -0.072711825 0.05727373 -0.07457897
-0.050345324 -0.03886422 -0.11723667 -0.05334833 0.03938801 0.015145879 0.011597912 0.020556165
0.026335547 -0.0045790207 0.00081141567 -0.08419356 -0.0054471157 0.06789524 0.014871324 0.0050746268
-0.104403555 0.0869806 -0.111145064 -0.037159525 0.120486416 -0.124550566 0.08685093 0.03752485
-0.11448564 0.024555728 -0.08989275 0.03253057 0.094060116 -0.019199532 -0.03247475 0.023161935
-0.029380921 -0.08052241 -0.08027511 -0.025037374 0.10802672 -0.045041263 -0.09710461 0.04798853
0.041270148 -0.11056976 -0.113149986 -0.06666687 -0.07081513 0.028927358 0.043811 0.12340646
-0.023753129 0.023297716 -0.023200586 0.059941985 0.031815097 0.12322383 0.07953706 -0.122951925
0.110587925 0.057605162 0.10945421 -0.07905575 0.053804703 -0.036276285 0.043590903 0.038160868
-0.024085725 0.0021548013 0.046292447 -0.09202041 0.12163282 0.024120739 0.061635464 0.12348396
0.0981322 0.07308016 -0.12466214 0.06428915 0.09643002 -0.11350135 0.0025057725 -0.12675436
0.109162964 0.008065017 -0.010377999 0.061066017 -0.03410653 0.1028935 -0.0018235031 -0.017411312
-0.104126886 -0.08272137 0.013862827 0.03718736 0.07555769 0.006645034 0.009378325 -0.025487335
-0.07175233 -0.08450604 0.05632416 0.11955837 0.03394921 0.07781489 0.04009365 0.08424434
-0.116342716 0.017298682 0.11935844 -0.028687488 -0.10248547 0.04722967 -0.018680511 -0.077202715
0.0061936695 -0.115764596 -0.097012244 0.044175994 -0.048395086 0.09799649 0.08959481 0.030289678
-0.021460658 0.12241281 -0.023656562 0.023599865 0.08694785 0.12275746 0.015902402 0.12569565
0.026057323 0.020839278 0.07775607 0.031641357 0.028035374 0.101703435 -0.079625525 0.07400969
0.07597943 0.11513754 -0.100310154 -0.07073237 -0.054611847 -0.061567757 0.046576273 0.044014953
0.12415524 0.116116785 -0.0031725788 -0.10790022 0.011052755 -0.124716066 0.0762749 -0.117865324
0.05233894 0.09777185 -0.07709276 -0.04269508 -0.077653795 -0.103622735 -0.12285691 -0.113708906
0.121384665 -0.030128917 -0.09646796 -0.051259805 -0.038593937 -0.04831367 0.03677447 -0.019068018
0.083506316 0.028827788 -0.05398791 -0.11833425 0.08699362 0.021499015 0.089803554 -0.064197436
0.12389154 0.12576883 0.009456041 -0.023701694 0.05223767 0.09738465 -0.0013860965 -0.0882411
-0.05196794 -0.0126352785 -0.05768633 -0.07249701 -0.029098012 -0.10970914 0.11431739 0.09998922
0.115425244 -0.048807986 0.019054258 0.10412099 -0.11202622 -0.107682906 -0.036654353 0.032268204
0.0947586 0.073334806 0.015623386 0.07660189 0.060196772 -0.00071537436 -0.019171711 -0.04871303
0.0029456615 0.064011365 0.095943615 0.028593993 0.12161779 -0.11173964 0.043400362 0.08251982

bias_ih_l0 f4 [256]
00000000: 654e cebd e298 f83d ad74 80bd 45f5 013e
00000010: 3b6f 073d 191e f8bc 3c9e a13d f4f2 0b3d
00000020: 5e82 163d 827a 0dbd 74b4 c4bd 03f8 99bd
00000030: 3e77 a3bd d8b9 003e 6d6c c03d 5e5a e63d
00000040: 847d 663d cb34 183c 4719 28bd 5af3 f03c
00000050: 9da9 83bb 0388 ea3d 457c a13d 9330 5d3d
00000060: 74eb 293d 4892 863d a447 b13d 7df8 b4bd
00000070: b72c 993d 6f06 c53d d65d c13d 63f6 e73d
00000080: 7f5c 4d3d 4b5d b33d bef2 47bd 5121 dd3d
00000090: 0e90 d5bd 9600 4c3d 2863 3d3d 6366 bfbd
000000a0: 6686 b7bd 4df1 0abc 100a 86bd 2236 f13d
000000b0: 417e 603d a80d c3bd 427f 223d c72e f6bd
000000c0: d838 92bd d1a6 8bbd cd49 0d3d aaaf 6cbd
000000d0: c76f cbbb a569 cebd cdf3 b4bd df77 d4bd
000000e0: f06d cdbd d7f0 80bd 2eec a93d 6872 6bbd
000000f0: 5259 553d b0e1 c7bd 4e1d a4bd f338 12bd
00000100: 4720 9d3d 3487 33bd 582b 97bb b14b b03d
00000110: f985 dd3d d25f f83d c3fe eebd 614f bfbd
00000120: 2df9 e3bd 9a6a 433d 47bb 5e3d be11 6abd
00000130: 13fd c53d 9f59 c7bc e823 99bb 7778 f4bd
00000140: d58f 99bd 8d86 9c3d 6ee9 6bbd 6d48 6c3d
00000150: 951e a23b 572a 1abd e987 f4bd 4ab8 71bd
00000160: 35c1 68bd 8fda cb3d 88c7 b33c 71dc 9b3d
00000170: e4d0 2ebd dc54 d9bd 834f 143c 4579 d2bd
00000180: b596 d63d 14a8 84bc 7473 ebbc e347 8dbd
00000190: 8e99 ac3d 24a4 373b bc10 793d ed25 e33d
000001a0: 34ab d63d 3288 e9bd a914 e0bd a949 b1bd
000001b0: ba13 f43d 6311 29bd 518f f93d e59b fa3d
000001c0: ee83 94bd cc9b 98bc 0bf9 35bd e089 a4bd
000001d0: aabe 82bd 4505 1abc 9c8b e4bd d669 e13c
000001e0: b266 c73c 4e74 14bc 2c37 bebc f97f da3c
000001f0: b4bd 6ebb e1ac 923d f363 a3bc ab57 dfbd
00000200: 15af b33d e1de 9abd c0eb 19bc d8d0 a0bd
00000210: 199f f2bb f6bd dfbb b65e a73d e796 b8bd
00000220: 9cee 85bc 5caa 13bb dbf7 74bd 5a92 b63d
00000230: 0a19 8dbd 879c 0f3d 6009 9bbd 7406 fcbc
00000240: bd0e 89bd e260 9cbd 1d31 a2bd d6d0 04bd
00000250: d9b4 05bd ff02 a0bd 5966 16bd c5c4 fbbb
00000260: ba93 2dbd ba13 ac3d 3468 c6bd 125b 71bd
00000270: 1c68 fc3d 294d 093e b2bc c43d c62d de3c
00000280: e8ac cfbd 13de f0bd d5fe 0c3d 587d 9e3d
00000290: 33f3 883c 6a9b 363d 1edd 353d 1df9 e6bd
000002a0: cf8e c73c cd8f b1bd 51d9 b5bd 7a6b 913d
000002b0: 45a4 82bd 85d1 cfbd 6717 dc3d 3c07 f63d
000002c0: 2ef5 acbd 5d9b b3bd 8135 dabd bfda c9bd
000002d0: ddb7 3dbd 34ac a43d 38a4 96bd 0a4c 913c
000002e0: 8171 1d3c 2ce8 b4bd cd19 6dbd ccc5 893d
000002f0: 0bda 3bbd b406 f33d 6cbd 943d 8b64 923c
00000300: fbb6 e7bc abe2 1c3d 277e 4dbd e572 c4bd
00000310: 4db1 393d 8c0e aebc f291 c43a 8b6d c23d
00000320: 137e 853d cad5 dabd 4feb df3d 64a8 ca3d
00000330: 03e1 cabc 456e 53bd 0eed 783d 8e0a 99bd
00000340: cb6a 66bd 6ba4 843d 3e71 62bd d6db 033b
00000350: b1ff 78bd 9360 4c3d ba44 6abd 9f27 f13c
00000360: 36d7 56bd 6576 c1bd 3a6a bbbd a2f7 d33d
00000370: 98bb 19bc ce2a 2b3c 161c d0bd d647 203d
00000380: aea4 d3bb 037c 6ebd a7e9 3ebd 64b2 96bd
00000390: bbb0 d03d ef48 bfbd dc09 143d bcfc f13d
000003a0: a9f1 073c 08d1 a9bd 3608 e83c 50c5 2cbc
000003b0: b428 9fbd 2d75 e93a 3f27 91bd a0ba bcbd
000003c0: 67d5 913d 9137 89bc e636 443d d099 fa3d
000003d0: 0b2d e6bd 0884 7d3d d6f7 c53b 6404 f3bc
000003e0: ea1a cb3d 1cb7 573d db41 653d ce96 c13c
000003f0: 1b31 c73d f9ed 27bd 2260 293d ba41 b2bd
-0.10073546 0.12138535 -0.06272254 0.12691219 0.033065062 -0.03028779 0.07891509 0.034167245
0.03674542 -0.03454066 -0.09604731 -0.075180076 -0.07981728 0.12570894 0.093956806 0.11247705
0.056272045 0.009289931 -0.04103973 0.029412914 -0.004018022 0.114517234 0.07885031 0.054001402
0.04148431 0.0657087 0.086562425 -0.08836458 0.07479232 0.09620368 0.09441726 0.113262914
0.05013704 0.087580286 -0.04881548 0.1079737 -0.10427867 0.049805246 0.04623714 -0.093457006
-0.08961181 -0.008480382 -0.06544888 0.11777903 0.054807905 -0.09524089 0.039672144 -0.12020641
-0.07139748 -0.06818927 0.03449421 -0.057784714 -0.0062083933 -0.10078744 -0.08835564 -0.10374426
-0.100307345 -0.062959366 0.08297001 -0.057482153 0.052087136 -0.09759843 -0.08013402 -0.035698842
0.07672172 -0.04383011 -0.0046133213 0.08608187 0.10816569 0.12127651 -0.11669686 -0.09341312
-0.11131511 0.047709085 0.05437782 -0.057145827 0.09667411 -0.024334727 -0.00467347 -0.11937039
-0.07498137 0.07642851 -0.057595663 0.057686258 0.0049474933 -0.037638035 -0.11939985 -0.059013642
-0.05682488 0.09953796 0.02194573 0.07610405 -0.042679682 -0.10611889 0.00905216 -0.102770366
0.10477964 -0.016193427 -0.028741576 -0.06898477 0.08427726 0.002802142 0.060806975 0.11091218
0.10481873 -0.1140293 -0.109414406 -0.08656628 0.11917825 -0.041276347 0.121855386 0.12236766
-0.07251726 -0.018628977 -0.04442696 -0.0803411 -0.063840225 -0.00940067 -0.11159441 0.027516287
0.024340961 -0.009060932 -0.023219667 0.02667235 -0.003642899 0.0716188 -0.01994512 -0.10905393
0.087736286 -0.07562042 -0.009394586 -0.07852334 -0.00740422 -0.006828065 0.081723616 -0.09013157
-0.01634913 -0.0022531962 -0.059806686 0.08914633 -0.068895414 0.035061385 -0.075701475 -0.030764796
-0.06692264 -0.076356664 -0.07919524 -0.032425724 -0.032643173 -0.078130715 -0.0367187 -0.007683369
-0.04237721 0.084022 -0.09687844 -0.058924742 0.12324545 0.1340834 0.09606303 0.027121436
-0.10140401 -0.11761107 0.034422714 0.07738751 0.016717529 0.04458181 0.044400327 -0.11277983
0.024360089 -0.08670006 -0.088793404 0.07100578 -0.06378988 -0.101473846 0.10746651 0.120130986
-0.08445202 -0.087698676 -0.10654736 -0.09856176 -0.046317924 0.08040658 -0.07355541 0.017736454
0.009609581 -0.08833346 -0.057885934 0.0672718 -0.04586224 0.11866513 0.07262692 0.017870208
-0.028285494 0.038302105 -0.050169136 -0.09592227 0.045335103 -0.02124717 0.0014997108 0.0949355
0.065181874 -0.10685308 0.109335534 0.09895399 -0.024765497 -0.051618833 0.060772948 -0.07472716
-0.05625419 0.06476673 -0.055283777 0.0020120046 -0.06079072 0.049896788 -0.05719445 0.029437838
-0.052451335 -0.0944641 -0.091511205 0.103499666 -0.009383105 0.010447217 -0.10161607 0.039131008
-0.0064588403 -0.058223736 -0.046609547 -0.07358244 0.10189959 -0.09340083 0.036142215 0.118157834
0.008297362 -0.08291823 0.028324228 -0.01054509 -0.077714354 0.001781141 -0.07087564 -0.092152834
0.071207814 -0.016750129 0.047903918 0.12236369 -0.1123906 0.061893493 0.0060415072 -0.02966518
0.09917243 0.05266486 0.055971008 0.02363148 0.09726163 -0.040998433 0.041351445 -0.087039426

bias_hh_l0 f4 [256]
00000000: 145a f3bb f6b4 99bd 7136 d7bd 4a6a ff3c
00000010: d74e abbd 9957 353d 0648 fb3d 7e7f fd3d
00000020: 6349 063d 126c 4a3c 5200 b03d 399c c23c
00000030: 24ac 8ebd 9527 8f3d 1cb3 953d 906f a0bd
00000040: 0486 34bd 37ff 353d c0a9 a5bb 4c68 b83d
00000050: 6541 e13c f663 2d3d 8fe7 b43d 5cff db3d
00000060: 1030 7c3d 13ec fcbc 6d93 573d 2f74 fc3d
00000070: 5f7c a2bd ebbf 1c3d b0ec 923d 8cb2 7f3d
00000080: 4cec cd3d c5a4 a6bd 27a1 abbd b838 c63b
00000090: 8423 47bd 3743 00bd d8bf 6b3d 6f83 403c
000000a0: 72a5 a2bd 321a 0b3d b2b0 dbbd c87b a7bd
000000b0: c402 c7bd 0503 3abd 5610 f4bd 6dfe 9d3d
000000c0: bc8e e2bd 7b5f 1bbd 76fb 10bd 9fe7 083d
000000d0: 40d6 99bd 915a 593c cba5 683c 0bf6 1dbd
000000e0: 8b8a 54bd 0f09 c33d 7ab3 9cbd 70ad 2c3d
000000f0: 16b4 0cbd 5eff ef3d 5c09 d53c 21e6 bd3c
00000100: 09e0 a43d 409c c9bd 7e64 d9bb f5ed dcbd
00000110: 871b ea3d 2ffd 4c3d db5f 823d b7c6 883d
00000120: fdd3 b5bd 3646 f03d 02cb 1f3b 67e3 99bd
00000130: 07d0 f6bd 538f 31bd 1478 823c e212 e53c
00000140: bd98 95bd f7c4 7e3c 436b 913c 4260 4e3d
00000150: 28f0 cfbc edbe 4f3c 2a96 93bc 7ced f4bc
00000160: 02ce a93d 4f5d 8c3d d214 eabd cfda 16bc
00000170: acb5 fabd b514 41bd dba7 8fbd 63ac 883d
00000180: 5bbf d5bd 90cb 3fb9 5ae4 4abd 3b1a 03bd
00000190: e8c0 863d 2712 e13c b2f7 2039 4b9b 633d
000001a0: 58ad be3d 8e37 8c3d 71e3 c8bd 2fa9 3bbd
000001b0: 5ade 3b3d e0e5 b7bd 1c96 d73b 837d dfbd
000001c0: 56dd 53bc 237b 3e3d c32e 5bbd 9442 23bd
000001d0: 5e6e b93b 6a5d fbbc 7aa2 e13d 59bd 3fbd
000001e0: f3c9 84bd 0427 94bd e55e e4bd c315 d5bd
000001f0: e9d0 eb3d fd7b c43d e25c 9fbb c3e6 abbd
00000200: e16c fe3c 9715 503d 944f 78bd 7317 1fbd
00000210: 48d7 d83d c605 7e3c 5828 113d c2ab fcbc
00000220: 0976 de3b 01e1 80bc 4f93 03bd 99f2 4b3d
00000230: 21bc 273c eda1 a33d 4bf5 a43d d472 e83c
00000240: d6d1 a8bd 5ce3 083d 183b 75bd 247a b93d
00000250: 952f ef3d 88aa 94bc fa73 e4bd 5838 4ebd
00000260: 15dc c8bd 9aa8 a73d b2c9 56bb 59a3 c93d
00000270: a4c3 95bc 0f1e 8fbb c4df c5bd 6348 423c
00000280: b667 143d 6190 c13c ecde 9b3d 349e ad3d
00000290: d7d7 843d 3bac b23d 10f0 033e a97c 693d
000002a0: 597f 313d bf75 cdbd 1b85 703c 6434 363d
000002b0: 1593 d4bd e52b e73d ae3c 7e3b cb6f 173c
000002c0: 454b 7b3d 69dc 9abd 5288 89ba e205 883c
000002d0: bc8d eb3c 166b a6bc d065 b83a bbe2 d53d
000002e0: 3300 abbd b293 f43d 0e4a 6abd e0a4 223d
000002f0: d922 1e3d 1486 80bd d161 0d3d f3cb bdbd
00000300: b7cf d3bd 7d85 4dbd 4a09 f3bc c621 323d
00000310: 12ac bb3d e96e 9e3d c7b6 213b e96c d1bd
00000320: fb87 b2bd e456 c4bd 15ff f03d 7416 a83d
00000330: 328e 4fbd 20c0 073e ec5e 92bd ce24 7ebc
00000340: e933 413b f84a 8b3c 3fbe bd3d 78dd 873d
00000350: a63a a23d e536 f8bc d3b3 843d 0025 903a
00000360: f8ef f53d 44bc 44bc b2a0 a43d d3fd 433d
00000370: 6202 633d 05d4 353d 1032 a53d 9424 adbd
00000380: 34d0 b33c 2571 f23d 1244 e7bd 3e7d ce3d
00000390: 554d 87ba 2b5a ef3d cbc2 8dbd 8aec fa3d
000003a0: e9d2 d7bd 92ee ac3d 6aff f239 554f cd3d
000003b0: 5827 ff3d abb1 89bd 5345 343d 5a8d 20bd
000003c0: 9bee dd3d fa8b f83d 502e 0abc 9012 e03c
000003d0: 0567 a73d 34f4 013e fd40 883d 3a57 e83d
000003e0: ec87 973c dc36 6bbd 714d 10bd aa24 d8bc
000003f0: 07ec f2bc 0d41 65bd e021 653c df3d 0d3c
-0.0074265096 -0.07505219 -0.10508431 0.031178612 -0.08364647 0.044272993 0.12269597 0.12377833
0.03278483 0.0123548675 0.08593811 0.023756133 -0.06966427 0.069899715 0.07309553 -0.07833779
-0.04407312 0.044432845 -0.005055636 0.09004268 0.027497003 0.04233166 0.08833229 0.10742065
0.061569273 -0.030874288 0.05263083 0.12326848 -0.07933878 0.038268965 0.07174051 0.062426135
0.10054836 -0.08136896 -0.08380347 0.006049242 -0.048617855 -0.0313141 0.057556003 0.011750086
-0.079417124 0.03396053 -0.10727061 -0.08177906 -0.097173244 -0.045413036 -0.11917178 0.077145435
-0.11062381 -0.037932854 -0.03539606 0.033424016 -0.07511568 0.013266222 0.014199684 -0.038564723
-0.051889937 0.09523212 -0.0765142 0.04215759 -0.03435143 0.11718629 0.02600544 0.023181023
0.08050544 -0.098442554 -0.006634294 -0.10787574 0.11431032 0.050046142 0.06365939 0.06678527
-0.08878324 0.11732142 0.0024382477 -0.07514077 -0.12051397 -0.043349575 0.015926398 0.027963106
-0.07304523 0.01554989 0.017751342 0.050384767 -0.02538307 0.012679798 -0.01801594 -0.029898398
0.08291246 0.06853735 -0.114297524 -0.0092074415 -0.122416824 -0.04713889 -0.07014438 0.06673505
-0.10436889 -0.00018291012 -0.04953418 -0.032007437 0.06579763 0.027474476 0.00015351063 0.05556802
0.093104064 0.06846534 -0.09809006 -0.045815643 0.045866348 -0.08979392 0.0065791737 -0.10912611
-0.012931189 0.04650415 -0.053511392 -0.039858416 0.0056589087 -0.030684192 0.11017318 -0.046811435
-0.06483831 -0.07234004 -0.11150912 -0.10404541 0.11514456 0.095939614 -0.0048633674 -0.08393624
0.031057777 0.05080184 -0.060622767 -0.038840722 0.10587937 0.015504306 0.035438865 -0.03084362
0.006788973 -0.01573229 -0.032122906 0.049791906 0.0102377245 0.07989869 0.080545984 0.028375067
-0.08243148 0.03341995 -0.05987081 0.090564996 0.116789974 -0.018147722 -0.11154933 -0.050346702
-0.09807602 0.08186455 -0.0032774028 0.09845609 -0.018281765 -0.004367597 -0.096618205 0.011858079
0.03623172 0.023628416 0.07610878 0.084774405 0.06486481 0.087242566 0.12884545 0.05700365
0.04333434 -0.10032224 0.014680172 0.044483557 -0.10379616 0.11287669 0.0038793492 0.009242962
0.06135108 -0.07561571 -0.0010492897 0.016604368 0.028754108 -0.020314734 0.0014068428 0.10443636
-0.083496474 0.11942233 -0.05719953 0.03970802 0.038607452 -0.062755734 0.034517113 -0.09267416
-0.10342353 -0.050176132 -0.029667515 0.04348924 0.09163679 0.07735998 0.0024675594 -0.10225851
-0.087173425 -0.095868856 0.11767403 0.082074076 -0.050672717 0.13256884 -0.07147011 -0.015511705
0.0029480404 0.017003521 0.09264802 0.06634039 0.079213426 -0.030299613 0.06479611 0.0010997355
0.12008661 -0.012007777 0.08038463 0.047849488 0.055422194 0.04439165 0.08066189 -0.08454242
0.021949865 0.11837987 -0.1129228 0.10082482 -0.0010322729 0.1168712 -0.069219194 0.122521475
-0.10538275 0.08443941 0.00046348135 0.10024897 0.12458676 -0.067233406 0.044011425 -0.039197303
0.10836526 0.121360734 -0.008433893 0.027352601 0.08173946 0.12690812 0.066530205 0.11344762
0.01849743 -0.057425365 -0.035230104 -0.02638467 -0.029653562 -0.05597024 0.013985127 0.008620708

weight f4 [5, 64]
00000000: c668 18bd 681d 07be db29 393d 925b 273e
00000010: 2c38 c43d c6f9 bd3d dbe3 dfba e420 ecbd
00000020: 3b49 ad3d e7ff 0fbd db57 0f3e fe44 0b3c
00000030: fdc4 bb3d 1510 643e 09ba c53d a20f 3d3c
00000040: 1d7d d2bd 3369 9a3d f92f f2bc a577 cfbb
00000050: ce5b c4bd 761f 65bd 6ce9 e93d cb69 c0bd
00000060: d4c6 27bd 6dc9 69bc ba23 073e 6850 80bc
00000070: 5195 13bd 640d e7bd cd31 94bc 3a8a a63c
00000080: a423 57bd 3724 8dbd 6302 5bbd b979 97bd
00000090: 9322 90ba 1ddd d1bb 50e5 49be 3ab2 4c3c
000000a0: 95ff dfbd afb3 80bc 0b8c 40bd 3a66 ad3d
000000b0: 0add dd3d 196d e5bd 87da e0bd 629c 963d
000000c0: 1f76 7f3d 2037 64bd 093f fbbb c24c 563e
000000d0: 5c39 a8bc 18bc 11be 9179 3bbd ad32 273c
000000e0: 7899 353e 969b 783d f900 20be 30ab 1c3d
000000f0: 6afc 233d 8980 ddbd badd 1b3e 8e51 14bd
00000100: ce41 94bd 2146 73bd eaa3 e6bd 9031 9d3d
00000110: e8ad edbd 248a debd ce81 84bd b501 e23d
00000120: 7c99 ae3c 50e2 b53d 195a 74bd b7ef 8d3c
00000130: d050 e1bd d262 483e 3cae 013d dab0 cd3d
00000140: bffa 853e f5ce 043e 7463 4dbd 7a65 31be
00000150: e10f e3bc f5e7 7e3d a6fb cc3d a6a1 233c
00000160: cada 003e df36 a43d b573 003d 7a59 753d
00000170: 8603 f9bd f4ef 7f3e 2a33 c53d f5f8 9f3c
00000180: f5b9 b2bd 9fef 0cbc 4872 f4bd 18ef 883d
00000190: 88d3 c13d 1935 e03d 32e3 5d3e 0593 df3d
000001a0: c0eb 96bd d742 a5bd 6663 8cbd 2cdb 60bd
000001b0: d9a7 263e 8340 2cbe e235 203d ca78 90bd
000001c0: dac1 68bc d604 27bd e547 113e 033d ebbd
000001d0: 2154 b63c 0f64 663d 452b c73d 2d42 a53e
000001e0: a3d5 50be 45a1 943b d019 ac3d 2dfa 68bd
000001f0: ce3f fe3c 56d4 4a3d e8ea f63d 53c4 173d
00000200: 9979 acbd 7833 0f3e 533a 303d 6786 eebd
00000210: 5502 f93d c08e 25bd a203 d3bd 7185 4cbe
00000220: 1ba3 9dbd 8698 1d3e 0cd9 b1bd afed 393e
00000230: 949c 113d 4199 2dbe f85c ed3d 509d 1d3d
00000240: d42a fbbd 64b2 04bd f7d9 1bbb f0f7 273d
00000250: e210 7c3d e616 323b 16d0 cbbd 0f26 663e
00000260: a6e8 643d 58f1 183d ab34 c6bd 4349 50bd
00000270: ce48 52bd 73a5 5e3e 0d02 27be a73f cdbd
00000280: 5223 14be 87d4 0c3c 7c3a 733c 16e5 283e
00000290: a165 9cbd 35a1 c33c 9512 7b3e 60b5 9dbd
000002a0: 9f7c 8cbc cac0 713d 4cda e2bc 7c41 233e
000002b0: 95db 4ebd d6a1 613e b553 d7bd b666 77bd
000002c0: 7637 c7bd cdc3 f83d 10ec 883d 3a4a a3bd
000002d0: f955 d83d dc0c 123e 3411 093d 43f3 0dbe
000002e0: 4d39 e1bd a302 cfbb a1ae b83d 9578 463d
000002f0: f6cf 9cbd 852c 4dbd d257 873d cd90 1d3d
00000300: 246c 17bc cd7e 103d 87ca 0bbe 9246 d4bd
00000310: 7028 a6bd d086 0b3c ac08 8dbd 5dd0 9f3d
00000320: 5328 463c 9268 89bd d7eb 89bd c42d e63d
00000330: 5525 8b3d 06d1 ef3d 904f a43d 82b4 d0bd
00000340: dcdd 7abd 9a5b 87bd 3da3 eebc a427 72bd
00000350: 815e a4bd 86f9 c33d 1b6b 08be 0219 0c3e
00000360: 977c d63d 01a6 26be eba5 e1bd 062d b03d
00000370: 659d bbbd 4f7e 703c af41 0cbe b468 9c3d
00000380: 7d38 803d 8d5b acbd fa9b 99bd 9ff4 87bd
00000390: 9413 483d 6ab4 acbd 6c87 483d 8015 e2bd
000003a0: 1288 10be a928 12bd 303e 9b3d 2048 4cbd
000003b0: 8eb8 d03d 88b0 d8bd 4d00 833b 16ea f43b
000003c0: 8a48 583d 8073 63bc b6f4 95bd ad17 ba3b
000003d0: 1154 8e3d 6453 dbbd 6739 d8bd 519b da3d
000003e0: 080e 71bc 30b6 ad3d c05f 813d f664 5ebd
000003f0: 4279 b5bd d235 afbd 605f 5e3d 87db 2a3d
-0.037209295 -0.13194811 0.045205932 0.16343525 0.095810264 0.09276156 -0.0017081456 -0.11529711
0.08461233 -0.035156157 0.13998358 0.008500336 0.09168432 0.2227176 0.09654624 0.011539372
-0.1027777 0.075395964 -0.02956389 -0.0063314014 -0.09587823 -0.055938207 0.11421475 -0.093951784
-0.0409611 -0.014269215 0.13197222 -0.01566334 -0.03603107 -0.11281851 -0.018090153 0.020329583
-0.052524224 -0.06891673 -0.053469073 -0.07396264 -0.0010996632 -0.0064045326 -0.19716382 0.012493664
-0.1093742 -0.01571068 -0.047008555 0.08466764 0.108331755 -0.11202449 -0.10979181 0.073540464
0.06236851 -0.055716634 -0.0076674265 0.20927718 -0.020535164 -0.14231908 -0.04577023 0.010204953
0.17734325 0.060695253 -0.15625371 0.038249195 0.040035643 -0.10815532 0.152213 -0.03621059
-0.07239114 -0.059393052 -0.11261733 0.07675469 -0.116054356 -0.10866192 -0.06470071 0.11035482
0.021313421 0.08881056 -0.059656236 0.017326219 -0.11001742 0.19568947 0.031660303 0.100434974
0.26167867 0.12969573 -0.050143674 -0.17323866 -0.027717533 0.06223293 0.10008936 0.00998727
0.12583461 0.08018278 0.031360347 0.059899785 -0.12158875 0.24993879 0.096288994 0.019527892
-0.08726875 -0.008602052 -0.1193586 0.066862285 0.094641745 0.109476276 0.216687 0.109167136
-0.073691845 -0.08069389 -0.06854896 -0.05489652 0.16274966 -0.16821484 0.039113887 -0.07054289
-0.014206374 -0.040776096 0.14187582 -0.114862464 0.022256913 0.056247767 0.0972505 0.3227705
-0.20393996 0.0045358264 0.08403361 -0.05687921 0.031036284 0.049518906 0.120565236 0.037052464
-0.084216304 0.13984478 0.043024372 -0.11646729 0.12158648 -0.04041934 -0.10303427 -0.19972779
-0.076971255 0.15390214 -0.086839765 0.18157075 0.035549715 -0.16952993 0.11589998 0.038480103
-0.12264028 -0.03239669 -0.002378104 0.041007936 0.06153954 0.0027174293 -0.099517986 0.22475456
0.055885933 0.03733954 -0.09678014 -0.050851118 -0.051338963 0.21742801 -0.16309376 -0.10021906
-0.14466599 0.008595592 0.014845487 0.1649364 -0.07636572 0.02388058 0.24518807 -0.0770061
-0.017149268 0.05902175 -0.027691983 0.15942949 -0.05050238 0.22034392 -0.10514013 -0.060400687
-0.09727375 0.12146721 0.0668565 -0.07973142 0.10563273 0.14262718 0.03346367 -0.13862328
-0.109972574 -0.006317453 0.09017683 0.04845484 -0.07656853 -0.050091285 0.06608547 0.03846817
-0.009242091 0.035277177 -0.13651477 -0.10365023 -0.081131816 0.0085160285 -0.0688642 0.07803414
0.012094575 -0.06709398 -0.06734436 0.11239198 0.0679423 0.1170979 0.08022988 -0.10190679
-0.061246738 -0.066092685 -0.029130572 -0.059119835 -0.08025838 0.09569077 -0.13322107 0.13681415
0.104729824 -0.16274263 -0.110179745 0.086023375 -0.0916088 0.014678552 -0.13696931 0.07637158
0.06260774 -0.084158994 -0.07500453 -0.06638455 0.048846796 -0.08432849 0.048957273 -0.11039257
-0.14114407 -0.035683308 0.07580221 -0.04987347 0.10191451 -0.10580546 0.0039978386 0.0074741943
0.052803554 -0.013882518 -0.073220655 0.005679092 0.06949628 -0.10709265 -0.10557824 0.106741555
-0.014712818 0.08482015 0.06317091 -0.054295503 -0.08861019 -0.08555187 0.054290175 0.041713264

bias f4 [5]
00000000: 94ae b7bc 3469 b53d 5873 053e de2a 0e3d
00000010: 2253 273c
-0.022422113 0.088579565 0.13032281 0.03470885 0.0102126915
