rnn_model.pt (torch, 78999 bytes, 6 tensors)

weight_ih_l0 f4 [256, 7]
000000 30 df 4a bc 92 50 e8 3c 7a b2 7f 3d 5f b7 25 3d
       -0.012382314 0.028358731 0.062426068 0.04045808
000010 d7 18 69 3d 3d ca 50 bb 71 79 ed 3d 2c 3e 9b 3d
       0.056908455 -0.0031858825 0.11595429 0.07580218
000020 8e 3d d8 3d 50 a1 f6 3d c3 b8 e6 3d cb 02 61 3d
       0.105586156 0.12042487 0.11265709 0.054934304
000030 ef e5 ca bb df e2 0c 3e cd 76 22 3d 74 34 57 3c
       -0.006191961 0.1375842 0.03966408 0.013135064
000040 c6 fd ea 3d 08 a9 0d 3d f5 39 e3 3c 54 82 a4 bd
       0.11474185 0.03458503 0.027737597 -0.080326706
000050 cc 28 e9 3d dc 58 a9 bd bc 19 70 bd e9 0c d4 bd
       0.113847345 -0.08268902 -0.058618292 -0.10354025
000060 9f 5a a8 bc f6 1b d1 bc e6 83 fe bc d8 fd 9f bd
       -0.020551024 -0.025526028 -0.031068753 -0.07812089
000070 97 bf 03 3e 5f 4b 1b 3e 21 f6 2c 3d 2d 88 a3 3d
       0.12866054 0.1516547 0.042226914 0.07984958
000080 6f 67 3f bc fa e7 3e bd 34 27 af 3d 1e a2 ec 3d
       -0.011682375 -0.04660795 0.08552399 0.11554359
000090 41 8e 77 3d df da 73 3e 99 b6 b6 bd 03 c1 37 3e
       0.0604384 0.23813961 -0.089215465 0.17944722
0000a0 e3 c4 83 bd 5e 95 e0 be d2 72 d8 bd 8e a0 a1 bd
       -0.064340375 -0.43863958 -0.10568775 -0.078919515
0000b0 f4 d1 97 3d 7e dc a9 bd 9f 4d 2d be 99 7c 0f bd
       0.07413092 -0.08294009 -0.16924141 -0.035030935
0000c0 b5 2d ac 3d 58 2a c5 bd 41 6d 6b be 12 be 5f bd
       0.084071554 -0.09627217 -0.22990896 -0.054624625
0000d0 4b c7 2b 3d 25 f7 87 3d 09 98 77 3b 6d 94 9d bd
       0.041938107 0.06638936 0.003777983 -0.076943256
0000e0 8f e0 0a bd 48 1a 80 bb 47 cf 38 3e d8 f8 c3 3c
       -0.033905562 -0.003909383 0.1804782 0.023922369
0000f0 35 52 2d bd 43 e9 c7 3c 94 7a 26 3e e2 ab db 39
       -0.042314727 0.02440322 0.16257697 0.00041898998
000100 2d 31 92 3d c9 5b b0 bd 50 b3 c1 bd 91 95 c3 bd
       0.07138286 -0.08611257 -0.09458029 -0.09550012
000110 1f e2 1d bb ef 88 0f 3e 42 73 04 3c 2e 70 1b 3d
       -0.0024091078 0.1401708 0.00808412 0.03794878
000120 d4 84 25 3d d7 b0 fd bc ff 19 85 bc 78 8b d3 3d
       0.040409878 -0.030968113 -0.016247747 0.10329336
000130 7c 74 9e 3d 7f 1d 9d 3d 01 0e 8c 3d 3c 04 23 3e
       0.077370614 0.076716416 0.068386085 0.15919584
000140 1b 87 ff 3d 5a 10 24 3e 2a a9 7d be 9f 36 07 bd
       0.12476941 0.16021863 -0.24771562 -0.033011075
000150 32 77 15 3e a9 0e a9 3e e5 6d 7d 3b f0 1b 05 be
       0.1459625 0.33018997 0.0038670239 -0.12998939
000160 58 4b cb 3d 5d cb 2f bf 90 ec 5e bc 38 5e 16 bd
       0.0992648 -0.6866968 -0.013606206 -0.036710948
000170 19 76 c6 3d 1f 9f 75 3d c3 55 70 3e 1e 2d 64 bd
       0.09690494 0.059966203 0.23470215 -0.05570709
000180 ae 3d 97 3d 7d 96 d3 be 3c 88 37 bd 7f 3b 84 bd
       0.07384811 -0.4132575 -0.044807658 -0.064566605
000190 0e 7f d3 bd 35 aa bc 3d 18 2a 99 3d 68 bb 97 be
       -0.10326968 0.09212152 0.07478732 -0.29635167
0001a0 15 ec 6b 3e 1c d9 b9 3d 0e 01 3a 3d 17 9e a9 3d
       0.23039277 0.090746135 0.045411162 0.08282106
0001b0 48 66 db bd 5c 77 f6 3c 15 8f 02 3e 61 5e ac bd
       -0.10712868 0.030086212 0.12749894 -0.08416439
0001c0 2d c8 10 3b 22 90 4e 3d ec b2 c6 bd fe ec 3f bd
       0.002209197 0.050430425 -0.097020954 -0.046856873
0001d0 a1 78 13 be 89 bb 37 bc 76 a7 ef 3d eb 94 3d 3d
       -0.14401485 -0.011214145 0.117018625 0.046284597
0001e0 18 f4 d8 bd fa d4 08 3d c8 aa 9f 3d bc 14 fc bd
       -0.10593432 0.033406235 0.07796246 -0.12308642
0001f0 36 0b 99 bd 80 ce 17 3e d8 dc 39 be 3f 41 ed ba
       -0.074728414 0.14824867 -0.18150651 -0.001810111
000200 e2 31 ab bd 1e 86 e4 bb da 57 14 bd 35 da 1e bf
       -0.08359124 -0.006973996 -0.036216594 -0.6205171
000210 ec cf 24 3f 2c db 66 bd e8 97 84 bb f3 d6 0a 3e
       0.64379764 -0.056361362 -0.004046429 0.13558559
000220 71 85 52 bd 7a b9 ea bb b2 ee e6 3d b2 1e c6 3d
       -0.05139679 -0.007163224 0.11275996 0.096738234
000230 89 cd 02 3e ed 91 be bd de cd 26 bd 69 4d b6 3d
       0.12773718 -0.09305177 -0.040723674 0.089014836
000240 a8 73 a8 bc 55 58 ba bd 7d 63 20 be 28 66 d2 3d
       -0.020562962 -0.09098879 -0.15662952 0.10273391
000250 d1 78 0c bc ac 00 ae 3d 8b 97 19 bd 5f 6d 49 ba
       -0.008573727 0.08496222 -0.03749804 -0.0007683839
000260 95 02 a3 bd 59 40 d5 3c 74 eb f8 3d e9 bf 00 3e
       -0.07959477 0.02603166 0.12154284 0.12573208
000270 ce e7 87 3d 0e 82 2a 3d 3d 6a 77 bd ea d7 b2 3d
       0.0663601 0.041627936 -0.06040405 0.087325886
000280 b4 07 9a 3d fa 27 5a 3d 45 c1 f1 bd 3d 53 f5 bd
       0.075210005 0.05326078 -0.11804441 -0.11978767
000290 5e 9f 74 3a e6 67 8f bd 15 d2 ff 3c b9 d3 16 bc
       0.0009331609 -0.07002239 0.031228105 -0.009205752
0002a0 15 8f b9 bd ba 6d 8c 3c 31 c7 bb 3d d9 0d 2a 3e
       -0.09060494 0.017142165 0.09168852 0.16606845
0002b0 a1 9c 37 3c 6b 97 39 bd 4e 0f 1a be 7d 10 6d 3d
       0.011206777 -0.04531042 -0.15044901 0.057877053
0002c0 e2 3b 9b 3d d9 46 14 3e 10 f8 7b b9 88 6a 01 bd
       0.07579781 0.14480151 -0.00024029636 -0.031595737
0002d0 d5 ae f5 3c 33 13 14 3e 5e fe 49 3e 5d b3 d8 3d
       0.029990593 0.14460449 0.1972594 0.10581086
0002e0 b0 5d 4e 3d 23 97 cd 3d 8d 1f 2b 3e 99 e5 02 3d
       0.050382316 0.10038593 0.16711254 0.031957243
0002f0 bc f5 91 be ef b4 87 3d a0 bc be bb 31 2c c0 3d
       -0.28507793 0.06626307 -0.0058208257 0.09383429
000300 a3 0f a7 bd 99 ed 2a 3d 55 78 18 3e 81 d0 7e 3d
       -0.08157279 0.041730497 0.14889653 0.062210564
000310 1f c5 47 3c 4b ad 9b bb b4 85 02 3e 81 f6 2f 3d
       0.012192993 -0.0047508827 0.12746316 0.042959694
000320 1a a4 d8 bd 20 13 0a 3e 9a d9 0d bf bf af 81 bd
       -0.10578175 0.13483858 -0.5541016 -0.06332349
000330 e8 27 c7 3d f0 af ce bd 58 0f 10 3d f7 71 6e bd
       0.097244084 -0.10092151 0.035170883 -0.058214154
000340 52 6b 8f 3d 04 40 50 bd b5 51 15 bc a7 a8 14 3e
       0.070028916 -0.0508423 -0.009113719 0.14517461
000350 63 3a bb 3d b8 6d 3b 3e 2b ef 9d bc d3 c9 c6 bd
       0.09141996 0.18303573 -0.019279083 -0.09706464
000360 85 8c 04 be 7b 39 e8 3d e5 2f af 3d 41 95 3b 3c
       -0.12944229 0.113390885 0.08554057 0.011449159
000370 40 4d fc 3d 68 c2 26 bd d1 7f ac 3d 90 d5 02 3e
       0.12319422 -0.040712744 0.084228165 0.1277678
000380 45 6d ac bd 54 2a c6 3d 65 a8 ad bd c3 77 34 3d
       -0.08419279 0.09676042 -0.08479384 0.044059526
000390 aa ef 11 3c 7b b9 bd bd 53 e3 08 3a e6 08 ab bd
       0.008907238 -0.09263893 0.0005221862 -0.083513066
0003a0 a8 c0 83 bd 22 43 fb bc c5 64 57 bd 97 98 0c 3e
       -0.06433231 -0.03067166 -0.052586336 0.13730083
0003b0 67 fa cc 3d 94 db db 3d fb f9 eb 3c af 6e ed 3d
       0.10008698 0.107352406 0.028805723 0.11593377
0003c0 10 39 9b 3d da 02 a3 bc 2b b2 0f 3e 9c 65 e1 bb
       0.07579243 -0.01989882 0.1403281 -0.006878568
0003d0 32 c4 1e 3e 5a cb ae 3d c6 82 35 3e 3d 94 9c bd
       0.1550453 0.0853488 0.17725667 -0.07645462
0003e0 c9 ce dc 3c e0 23 af bd 29 54 4f 3e 1e 8e 04 be
       0.026954072 -0.085517645 0.20246948 -0.12944838
0003f0 18 31 0a 3d 01 fc 66 3d 2d 4b 51 3d a6 af 81 3d
       0.033738226 0.056392673 0.051097084 0.063323304

weight_hh_l0 f4 [256, 64]
000000 78 00 65 3c 58 ab 97 bd a1 21 80 3c 88 19 63 3c
       0.013977163 -0.07405728 0.015641036 0.013861068
000010 90 12 b0 bc 12 56 d2 3d 5b 08 b4 bd b7 9c 82 3c
       -0.021493226 0.10270323 -0.08790656 0.015943868
000020 77 2e cd bd ef ac b4 bd 33 ae f2 bc 59 3b c9 bd
       -0.10018628 -0.08822047 -0.02962408 -0.09825773
000030 f8 3f 01 3e 67 1a fa bd b1 34 d0 3c 88 65 d4 3d
       0.12622058 -0.12212067 0.02541575 0.10370928
000040 05 bc 00 be da 31 c9 3c ae 23 ad 3d f6 e0 02 be
       -0.12571724 0.024559904 0.08454071 -0.12781128
000050 d6 17 69 3d 78 1d 93 3d ad 90 73 bb 51 ad 16 3d
       0.056907497 0.07183355 -0.003716509 0.03678638
000060 ac 72 cc bd e3 5c 7f bd 3a fb ff 3c 98 e8 a9 bd
       -0.099828094 -0.062344443 0.031247724 -0.08296317
000070 a0 77 a1 3d 15 be f9 3c 08 8e ec bd 9b 53 7e 3c
       0.07884145 0.030486146 -0.11550528 0.015522863
000080 61 32 45 3d 26 c1 cc bd 85 b2 bf 3d f0 88 8b 3d
       0.04814375 -0.09997778 0.09360222 0.06813228
000090 c3 55 c6 3d 9e 24 7c bc e1 aa cc bd 16 74 43 bd
       0.096843265 -0.01538959 -0.0999353 -0.04771813
0000a0 d7 ed 95 3d 8b d1 fa 3d 6c 0e e2 bd 33 7e 56 bd
       0.07320755 0.122469984 -0.11037907 -0.052366447
0000b0 57 92 ea bc 13 35 e9 3c 43 06 a6 3d 21 d9 ed 3d
       -0.028634233 0.02846769 0.08106663 0.1161368
0000c0 59 d5 64 3d 69 63 83 bc fa 5a 26 3c 5a f4 93 bc
       0.055867527 -0.016038613 0.010153526 -0.018060852
0000d0 aa ab 18 bd be 8d 6f 3d 9d 12 85 3d 36 66 e0 bd
       -0.037273087 0.058484785 0.06497691 -0.10956995
0000e0 f6 3e 8c bd ae 48 2f bb bd 8c da bd ee fe 32 3d
       -0.06847946 -0.0026746201 -0.10671375 0.04370015
0000f0 09 8f d4 3c 56 43 56 bd 14 e1 d1 bd 4a e7 93 bd
       0.02594711 -0.05231031 -0.10248008 -0.07221849
000100 82 bd 88 bd 8e cd aa bc d8 c4 30 bc ef e2 62 bb
       -0.06676771 -0.02084997 -0.010789119 -0.0034620126
000110 a6 28 12 3d c2 b0 18 bd d3 8c 1f bc aa 5f 01 3d
       0.035683297 -0.037277944 -0.009738165 0.031585373
000120 40 2b 26 bd 1c 62 dd bd e0 af 9d bd 0c 5d c2 bd
       -0.04056859 -0.108097285 -0.07699561 -0.094904035
000130 7d f0 5a bd 5a ad e2 bd 75 7f ef 3d 65 71 dd 3d
       -0.053452004 -0.110682204 0.116942324 0.10812644
000140 54 c0 b8 bd ca 4e 5b 3d b8 23 b2 bc 4c aa f4 bd
       -0.09021059 0.053541936 -0.021745548 -0.11946544
000150 0c b6 e6 3b b3 89 9f bd 8b 17 6a bc 7b dc d2 bd
       0.0070407446 -0.07789936 -0.01428784 -0.102959596
000160 42 94 fc 3d 6b 3a 6b 3b df cb e6 bd 89 5a da bd
       0.123329654 0.0035892974 -0.11269354 -0.106617995
000170 7a bb f0 bd 3d 0b b4 3d c0 8b d9 3d b6 5a 08 bd
       -0.11754508 0.08791206 0.10622358 -0.033289634
000180 60 8f 05 bd af 74 f1 bc df 72 15 3b 93 9b 34 3d
       -0.032607436 -0.029474584 0.0022804064 0.04409368
000190 a9 57 73 3d 5a 5b 8a 3d f3 71 36 3d 7e 34 98 3d
       0.05940977 0.06755705 0.044542264 0.07431887
0001a0 d5 67 84 3d 43 07 c6 3d f0 02 80 3d ce d4 ce bd
       0.06465117 0.09669354 0.0625056 -0.10099183
0001b0 44 1a 6c 3d 68 a3 e3 3c 70 2d fa bd f1 34 6c 3d
       0.057642236 0.02778788 -0.12215698 0.057667676
0001c0 9c 58 84 3d a3 fb b5 3d 9f d0 d4 bb f9 f8 80 bd
       0.064622134 0.088858865 -0.006494596 -0.06297488
0001d0 cf d6 d2 bc 60 27 49 3d 39 de b0 3d c9 94 c0 bd
       -0.025737194 0.049109817 0.086361356 -0.094033785
0001e0 0b 78 8d bd 57 74 92 bd c8 cc 0d bd 79 4f 1f 3c
       -0.06907662 -0.07151096 -0.034619123 0.009723538
0001f0 ef b1 01 3d 32 86 8d 3c cd fa 28 3d 1f 32 cf 3c
       0.03166383 0.017275903 0.041254807 0.025292454
000200 3e 95 ff 3c 77 19 ac bd 99 3a d8 bc 5e 58 b1 bd
       0.031199094 -0.084032945 -0.026395129 -0.08659433
000210 31 cc f4 3d d4 f8 93 3d d8 9f a3 bd c3 a9 a6 3d
       0.11953009 0.072251946 -0.07989472 0.08137848
000220 fa 71 59 bd f0 a8 7d bd 16 d7 58 bd bc 54 df bd
       -0.053087212 -0.06192869 -0.052939497 -0.10904834
000230 fd c1 fa 3d 87 8b cf bd a7 6c e8 3d 9d c2 d4 bd
       0.122440316 -0.101340346 0.11348849 -0.10388682
000240 fa 5b bc bd ab c4 93 3d e2 c2 b8 3d 4b 56 a7 bd
       -0.09197231 0.07215246 0.09021546 -0.08170756
000250 4a 32 98 bd 49 85 ed 3d 47 b7 dc bd 46 10 19 3d
       -0.07431467 0.11597688 -0.10777145 0.037369035
000260 c9 6d b8 3d fd 7f 4c bd 41 59 ad bd d3 fd e1 3d
       0.09005315 -0.049926747 -0.084642895 0.11034741
000270 9c 5b cd bd 6d d5 8d 3d 09 35 6d bc 05 4e 2f 3d
       -0.10027239 0.06925473 -0.014477977 0.042799015
000280 00 ec 0e 3b 40 89 87 3a 2d 81 3d 3d 1c 03 8d 3d
       0.0021808147 0.0010340586 0.04626577 0.06885359
000290 66 0f f4 3d c9 e5 b8 bd ca 29 81 3d fe 1f d9 bd
       0.119169995 -0.09028203 0.06306799 -0.10601805
0002a0 18 4b 3a 3d ff 9e e5 3d 76 56 e0 bd df 5e df 3d
       0.04548177 0.11211967 -0.10953991 0.10906767
0002b0 8c 6f e9 bd cb 44 0d 3d 76 b6 a9 bd 5d 12 86 3d
       -0.11398229 0.034489434 -0.08286755 0.06546471
0002c0 e5 26 44 bd 10 bf dc bd b1 17 09 bc 88 be e6 bd
       -0.047888655 -0.1077863 -0.008367465 -0.1126681
0002d0 3a 6e e3 bd fd b1 91 bd 93 6a 40 3c 0f e3 b5 3d
       -0.111050084 -0.07114027 0.011744159 0.088811986
0002e0 46 53 d7 3b fd b6 86 bc 0b 4e d9 bd 0a f3 9c 3d
       0.0065712063 -0.016444677 -0.10610589 0.076635435
0002f0 a2 e7 44 bd 61 a9 2b 3d 38 8b f7 3d 9b 0f 7e bd
       -0.048072465 0.04190958 0.12087101 -0.0620266
000300 d6 ed 85 bd 2d 97 df 3d 05 34 bd 3d 98 f8 84 3d
       -0.06539504 0.10917506 0.092384376 0.06492728
000310 aa e0 9d bd ca c9 f3 bd a9 e4 c9 bd 9c 91 90 ba
       -0.07708867 -0.119037226 -0.098580666 -0.0011029723
000320 3e de 0f 3c c9 d9 ce 3d 65 4e a3 3d f8 90 96 3c
       0.008781014 0.10100133 0.07973937 0.018379673
000330 06 6d cd 3d d5 fc 87 bd 96 2c b9 bd 31 f5 66 3d
       0.1003056 -0.06640021 -0.09041707 0.056386176
000340 be d9 13 be 1a a1 e0 3d 91 2c 11 be ab 8c ff 3d
       -0.14438531 0.10968228 -0.14177157 0.12478002
000350 5a d2 01 be 17 83 ff 3d c3 8d e2 3d a9 e7 99 bc
       -0.12677899 0.12476175 0.11062195 -0.018787222
000360 66 c7 03 bb eb 03 95 bd 40 55 d5 3c d0 89 4a 3d
       -0.0020107864 -0.07276138 0.026041627 0.049447834
000370 2a f6 ec 3d 8d 5e 3d bc bc 3e ad bd 0c 20 90 bc
       0.115703896 -0.011558187 -0.08459231 -0.017593406
000380 e3 cd 05 3d b2 7a 87 3d 39 bd 06 3e d8 19 e6 bd
       0.032667052 0.06615199 0.1315812 -0.11235398
000390 2d a0 0b be 68 c1 82 bc 6a 23 3c bc 3a af 8e 3c
       -0.13635321 -0.015961364 -0.011483053 0.017417539
0003a0 28 91 af bd c8 69 1b bc 52 ca 6e bd e3 e2 43 bd
       -0.08572608 -0.009485669 -0.058298416 -0.047823798
0003b0 d0 e7 60 bc 86 c2 b1 3d 9e 8c 95 bd 9a 51 7f 3d
       -0.013727143 0.086796805 -0.07302211 0.06233368
0003c0 cc 89 02 bd 13 1b 95 bd 86 07 a3 bd 76 39 16 bd
       -0.031869695 -0.072805546 -0.07960419 -0.036675893
0003d0 37 5f c1 bd 65 4e 40 3d 7d a0 9b 3c e8 68 dc 3d
       -0.09441989 0.046949763 0.018997425 0.10762197
0003e0 df 88 86 3c ad 55 dd bd 3c 76 b3 3d af ba d7 bb
       0.016422687 -0.10807357 0.08762786 -0.0065835337
0003f0 52 af 81 bc 0e 6f 30 3d 7c e4 dd 3d 45 a8 41 3d
       -0.01583067 0.04307466 0.108345956 0.047279615

bias_ih_l0 f4 [256]
000000 56 ca e8 3d 0e f4 54 bd 09 6d 24 bc 0e b8 37 bd
       0.113667175 -0.05199056 -0.010035762 -0.044853263
000010 ea 34 86 bd 1d aa 0b 3d 9f 54 b4 bd 0e 20 5b 3d
       -0.06553061 0.03409778 -0.08805203 0.053497367
000020 21 41 bd bd 77 3f 82 3d d7 6b cd 3c e8 de 9e bc
       -0.09240938 0.06359761 0.025075836 -0.0193934
000030 99 b4 98 3d ab ca 24 3d f4 f8 06 3d 09 42 c9 bd
       0.07456321 0.04023234 0.032952264 -0.09827048
000040 18 9b 5b 3c 4a 47 84 3c 1b 15 59 3d a8 e7 c1 bd
       0.013403676 0.016147275 0.052998643 -0.09468013
000050 31 64 f5 3d 22 bc a1 3d 45 c1 09 bd b9 9f c4 3b
       0.119820006 0.078972116 -0.03363158 0.0060004857
000060 1a 08 80 bd 40 29 a2 3d 45 3f 29 3d 23 10 df 3d
       -0.06251545 0.07918024 0.041320104 0.1089175
000070 b6 1d 2c 3b e3 48 90 bd 88 81 a8 3d 8b 82 0c 3d
       0.0026262826 -0.07045152 0.08227831 0.034304183
000080 17 2e 1f 3d ad f3 8c 3d 2e 32 8c bb cc fc 77 3d
       0.038862314 0.06882415 -0.004278443 0.06054382
000090 9f 00 06 bd 2a 95 24 bd 26 04 79 3d 65 f4 94 bd
       -0.032715436 -0.040181316 0.060794972 -0.07273177
0000a0 de fc f9 3d 01 16 73 bd ef 1b 70 37 df 05 ce 3d
       0.12206434 -0.059347156 1.43116185e-05 0.100597136
0000b0 83 7b 84 3d 16 82 cb 3d d3 46 10 3e 42 2c 0f 3e
       0.064688705 0.09936921 0.14089517 0.13981727
0000c0 3f 65 3e 3d 3d 6e 1a bc e7 40 80 3e a6 ce d3 bd
       0.046483275 -0.009425697 0.25049517 -0.103421494
0000d0 b1 2c 33 3e a4 a5 07 bc ab 02 69 bd e4 17 98 bd
       0.17497517 -0.008279238 -0.05688731 -0.07426432
0000e0 14 99 c6 3d 21 b7 07 bd 6e 54 b9 bd ab 38 0c 3e
       0.09697166 -0.03313363 -0.09049307 0.13693492
0000f0 ae f6 36 bd d2 6c ca 3d 7e 40 1a 3e a4 28 7e bc
       -0.044668846 0.09884037 0.15063664 -0.015512619
000100 cd d8 86 3d fc 38 5b 3d ad e6 91 bd c7 b0 a8 3c
       0.0658432 0.05352114 -0.07124076 0.020592107
000110 b3 8c 86 3c c4 42 19 3e ab d3 3d bd 3c d4 d8 3c
       0.016424512 0.14966875 -0.04634444 0.026468389
000120 32 eb 33 3d 3e 17 a3 3d ed b9 c0 bd 97 d2 d3 bc
       0.04392547 0.079634175 -0.094104625 -0.025857253
000130 51 79 34 3c 33 40 62 bd b9 5e 0c 3b ef 81 c1 bd
       0.011015252 -0.055237006 0.0021418764 -0.09448611
000140 05 88 86 3d 3f 90 d6 3b 0b 1e 0c be 80 3d b3 bd
       0.065689124 0.006547957 -0.13683335 -0.087519646
000150 69 e2 0c bd 30 2e 9a 3d b0 1f e7 bc 96 90 65 3d
       -0.03439561 0.07528341 -0.028213352 0.05604609
000160 86 33 e7 3d cd f5 0c be 4f 73 be bd 5b 95 9b bd
       0.11289124 -0.1376564 -0.09299337 -0.07596847
000170 61 7d 17 3e 59 9e b2 bd 75 4b 51 3d fe 17 c3 bd
       0.14793922 -0.08721609 0.051097352 -0.095260605
000180 d8 99 b3 3c a6 78 40 bc 08 a9 f1 3d 76 59 92 bd
       0.021923944 -0.011747515 0.11799818 -0.071459696
000190 47 c2 e5 3d d8 9e a4 bc ca 36 22 bd 1e 95 c4 3c
       0.11218696 -0.020095274 -0.039603032 0.023996886
0001a0 82 55 2b bd 68 49 ad 3d 73 45 cd 3d c2 ce d3 3d
       -0.041829593 0.08461267 0.10023012 0.1034217
0001b0 69 12 86 3b 64 c3 5f bc b5 ed f0 3d a8 6d 43 bd
       0.00409155 -0.013657425 0.11764089 -0.047712
0001c0 05 3f 46 3d 1e a2 f5 bd 6b 91 ee 3d 67 20 ee bc
       0.048399944 -0.11993812 0.1164883 -0.029068185
0001d0 7c 33 3e 3d eb 7f 4c 3d c5 94 ab 3c 3a 80 c0 3d
       0.046435818 0.04992668 0.020944962 0.09399457
0001e0 bc 72 c5 bd e6 7a cb bd 75 b5 fe 3d 31 4e 83 bc
       -0.096410245 -0.099355504 0.12436954 -0.016028496
0001f0 2a 62 8c 3d db 3b d9 3d 9b aa eb 3c 24 88 80 bc
       0.06854661 0.1060712 0.028767874 -0.015689917
000200 7d d3 55 bd b1 ec 2a 3e ce e0 f5 bd 3b 74 93 3c
       -0.052203644 0.16691853 -0.12005769 0.017999759
000210 ba 3a a4 3c c6 14 a3 bd 31 88 89 3b fc 5f 23 3d
       0.020047534 -0.079629466 0.0041971435 0.03988646
000220 e1 c6 fd 3d ba e9 3d bc 61 d4 9e 3d c2 f5 eb 3c
       0.12391449 -0.011591369 0.07755352 0.02880371
000230 ef f6 15 3e 25 bf a6 bd cf 2e 2e bd ea 88 0a bc
       0.14644979 -0.08141927 -0.04252511 -0.008455494
000240 dc 0b 83 3d d0 1f f6 3d 9d 45 d8 3e dc 9c a5 3d
       0.06398746 0.120177865 0.4224061 0.08086559
000250 67 13 be bd ed 18 91 bc 5a 82 f0 3d f5 67 c1 3d
       -0.092810445 -0.01771208 0.117436126 0.09443656
000260 e9 cd fd bd 64 96 d5 bb f6 32 03 3e df c9 15 3d
       -0.1239279 -0.006518172 0.12812409 0.036569472
000270 ee f1 ab 3b 18 52 7b 3b 59 c1 8d bd b5 f3 3f bd
       0.005247346 0.0038348492 -0.06921644 -0.046863277
000280 d3 33 22 bd 5a 26 7b 3d 23 0b 9b bd 92 85 42 bd
       -0.039600205 0.06131587 -0.075704835 -0.047490664
000290 fa fa f8 bd dd 31 1d 3e ae bc 0c be 08 bc f9 3d
       -0.12157245 0.15351053 -0.1374385 0.12194067
0002a0 73 2b df 3b c0 f8 ec 39 fd 22 37 3e aa fc 87 bd
       0.0068105995 0.0004519876 0.1788444 -0.06639989
0002b0 d1 4f 9a bd d8 42 c3 3d 3b 96 26 be db 34 f2 bb
       -0.07534755 0.09534234 -0.16268246 -0.007391555
0002c0 b3 90 12 bd 1e cf e2 bd 47 6e c2 be 05 5d da bc
       -0.035782527 -0.11074661 -0.3797476 -0.026655683
0002d0 5e b5 55 be ac e3 b9 3e 7f e7 16 3d 4c 31 56 bd
       -0.20869967 0.36306512 0.036841866 -0.052293107
0002e0 70 6e 29 be a0 ec 61 3d dd ef 58 bd fa 99 af bd
       -0.16546035 0.055157304 -0.052963126 -0.085742906
0002f0 74 ee 11 3d 40 c1 9d bd 39 81 9c bd 55 e1 0a 3e
       0.035627797 -0.07702875 -0.07641835 0.1356252
000300 74 e1 14 bd 34 d0 e6 3d 9b 96 03 3e 48 a4 71 3d
       -0.03634782 0.1127018 0.1285042 0.05899456
000310 43 db bd bd 5d f1 11 3e ff 42 6e ba da 02 cc 3d
       -0.092703365 0.14252229 -0.00090889627 0.099614814
000320 de 80 19 bd 86 d3 05 bc 1b 82 58 3d fe af 7c bd
       -0.037476413 -0.008168107 0.052858453 -0.061691277
000330 44 76 5d bd 6b b7 24 3e 6d ff 8d bd 61 77 a8 3d
       -0.054067865 0.16085593 -0.06933484 0.08225895
000340 ad c0 d1 3d 3d 8d 05 3e 13 cd 97 3d cd 52 20 bc
       0.10241828 0.1304216 0.07412162 -0.009785366
000350 8e 15 2d bd d1 e9 38 bd 53 3c 93 bd bd db 51 bc
       -0.042256884 -0.04514486 -0.0718924 -0.012808737
000360 fc 22 87 3d e7 fe 6a bd 83 09 1d 3d d2 0b c7 3d
       0.065984696 -0.057372 0.03833915 0.097190514
000370 e1 23 9f bc d7 4a b9 bd 55 54 05 3e bf 05 7e 3d
       -0.019426288 -0.09047478 0.13020451 0.0620172
000380 45 2b df bd 10 29 cb bd c6 0a 90 3c f4 8f e1 3d
       -0.10896925 -0.099199414 0.017583262 0.11013785
000390 22 bb 7c bd dd 47 61 bc 0c fe 72 3d 9c 85 03 3e
       -0.0617019 -0.013750044 0.05932431 0.12843937
0003a0 e5 91 04 3e 7a 67 43 bc 10 5f 0e 3e f9 5f e2 3d
       0.1294628 -0.011926526 0.13903451 0.110534616
0003b0 b8 04 34 bc 9e 6f 08 3d 70 45 a4 3d f4 32 6b bc
       -0.010987453 0.03330957 0.08021057 -0.01435541
0003c0 a7 c6 bc bc c9 99 14 bd 13 a2 ca 3d 58 85 d7 3d
       -0.023043944 -0.036279473 0.098941945 0.1052348
0003d0 ed a2 58 bd 6b 99 aa 3d 6c 26 08 3d 01 47 be bc
       -0.052889753 0.083300434 0.033239767 -0.023227217
0003e0 5d 48 30 bd c4 59 b1 3d 59 d3 25 3e 39 26 c6 3d
       -0.04303776 0.086596996 0.16193904 0.09675259
0003f0 7a 07 0c 3e 16 f5 88 bd eb 9a 19 3e 07 a2 c0 3d
       0.13674727 -0.066873714 0.15000503 0.09405904

bias_hh_l0 f4 [256]
000000 65 23 ef bd 49 18 29 3b 54 a7 64 3c 91 1b 91 bd
       -0.11676673 0.0025801829 0.01395591 -0.07085336
000010 c0 3f d0 bd f2 15 88 bd 9e ea 99 bd c7 e7 0a bc
       -0.10168409 -0.06644811 -0.07515453 -0.008478112
000020 90 fc b6 bd a9 de 60 bd 62 7d 69 3d 6b 13 e8 3c
       -0.08934891 -0.054899845 0.05700434 0.028329572
000030 8f f6 06 3e fd bc 2e 3e cc e0 c0 3d e3 17 5a 3c
       0.13179992 0.17064281 0.094178766 0.013311359
000040 d1 4e 94 3d d3 5e c6 bd dd c2 80 bd a5 f6 25 bd
       0.072415955 -0.09686055 -0.06287167 -0.04051842
000050 21 ef ce bc 66 c5 e3 3d 0d df cf bc 75 7f dd bd
       -0.02526051 0.11121635 -0.025374914 -0.10815326
000060 8b e2 c8 3c 54 7a 4f bb d6 f2 3c bd d6 3c b3 3d
       0.024522087 -0.0031658607 -0.046130024 0.08751838
000070 31 e9 18 3e 49 11 b6 bc f6 00 d3 3d fb 6f bd bd
       0.14932705 -0.02222504 0.10302918 -0.09249874
000080 87 9a af 3d 50 54 6f bd 5f 07 53 bc 10 65 26 3d
       0.085743956 -0.058430016 -0.012880175 0.040623724
000090 92 52 c2 3d a3 89 16 bd 9c f0 90 bd 91 e3 e7 bd
       0.09488405 -0.036752354 -0.070771426 -0.11322702
0000a0 15 8b 2d bd 64 7f 9a bd 32 29 e4 3c 85 d6 98 3d
       -0.042368967 -0.07543829 0.027851675 0.07462791
0000b0 f3 c0 95 bd 8d bf 8a 3d ae 3a 06 3e 7b 75 f0 3d
       -0.07312193 0.06774817 0.13108322 0.117411576
0000c0 a4 81 57 3d 97 9b ec 3c c3 96 88 3e 7b 85 0c 3d
       0.05261387 0.028882785 0.26677522 0.034306984
0000d0 4a 8a 10 3e 9c 2c 8f 3d 49 d7 eb bd a6 71 b4 3d
       0.14115253 0.069909304 -0.11515672 0.08810739
0000e0 1b 91 dc 3c ec fd 2e 3d 70 88 05 3e 3e 3e 1f bc
       0.02692466 0.042722628 0.13040328 -0.00971943
0000f0 8f 1f bf bd a6 08 39 3c a3 73 23 3d f4 7c 9a bd
       -0.09332191 0.011293566 0.0399052 -0.07543364
000100 a8 c8 15 3d 22 44 ad bd bf 31 31 3d d1 78 cd bd
       0.036568314 -0.08460261 0.043260332 -0.100328095
000110 2a a4 2c bb 74 3d 22 3e 08 b5 d8 3d ef 1e ac bd
       -0.0026342967 0.15843755 0.10581404 -0.084043376
000120 a0 a7 6a bb d8 af 27 3d 4f d0 18 bd cb 7f ac bc
       -0.0035805479 0.040939182 -0.037308034 -0.02105703
000130 82 cc 27 bc 86 57 71 bd fe a9 a8 39 85 84 84 bc
       -0.01024163 -0.05892136 0.0003217011 -0.016176471
000140 c7 5a ed 3d 3c 16 0e 3e 32 4f c6 3c e2 1e 5f 3c
       0.1158958 0.13875669 0.024207685 0.013618203
000150 aa c4 bb bc 63 61 e5 3a b2 9a 13 3e d3 e9 e5 3d
       -0.022920925 0.0017500337 0.1441448 0.11226239
000160 94 93 e2 3c c9 a2 0b be f8 bf 93 bc 32 fc 0e 3e
       0.027658261 -0.13636316 -0.018035874 0.13963392
000170 02 a7 1d bd 9b cf 4f bd ed 8c 0f 3e fd 57 4c 3c
       -0.03848935 -0.050735097 0.14018603 0.01247215
000180 36 4c 7b 3d 9f 0d 60 3d aa fe d7 bd ca ce de 3d
       0.061351977 0.05470049 -0.1054662 0.10879286
000190 ad 50 b9 bd d7 fb a5 3d 1f 81 18 3b ca c1 bd 3d
       -0.09048591 0.08104675 0.0023270322 0.09265478
0001a0 49 22 13 3d 3d e8 34 3d d9 16 1b bd 61 fd 0a 3e
       0.03592137 0.044166792 -0.037863586 0.13573219
0001b0 5b 22 da 3d 94 47 ef 3d 1b 21 c6 3d 5e a9 f6 3d
       0.10651084 0.11683574 0.09674283 0.12044023
0001c0 5f 4d a5 bd 9e 96 93 bd e1 2f f1 bc e2 2b 9d 3d
       -0.08071398 -0.07206462 -0.029441776 0.076743856
0001d0 84 86 86 bd c8 81 96 bd 87 13 8e 3d 13 b6 ae 3d
       -0.065686256 -0.073489726 0.06937318 0.08530822
0001e0 92 c6 ed 3d bd 93 9e bd 95 75 44 3d 58 fb 0a 3e
       0.1161014 -0.077430226 0.047963697 0.13572443
0001f0 da 80 b3 3c b1 b6 c7 3d 3c 2a 23 3e 54 b6 b4 bc
       0.021912027 0.097516425 0.1593408 -0.022059597
000200 17 63 01 3c db 3c 0c 3e f7 1b 24 3c 5f f6 a0 3d
       0.00789716 0.1369509 0.010016433 0.078594916
000210 7d dd c3 3c c0 b5 53 bd 65 e2 80 3d f5 a3 66 3d
       0.023909325 -0.051687002 0.06293181 0.056308705
000220 6e 34 c1 3b 5a 0f 69 bd fc 82 01 bd cb f7 a6 3d
       0.0058961427 -0.056899406 -0.031619057 0.081527315
000230 42 95 86 b9 ad 99 e2 bb 5d 7a 9c bd c9 27 9e bd
       -0.00025669677 -0.0069152922 -0.076405264 -0.07722432
000240 b2 7a 03 3c d4 e1 c0 bd 90 28 f6 3e c4 71 a4 bd
       0.008024858 -0.09418073 0.48077822 -0.080295116
000250 cc 4c 52 bd 66 27 15 3e bf c7 00 3e ed 49 5f bd
       -0.05134277 0.1456581 0.12576197 -0.05451386
000260 9b f6 8c bd b2 b9 05 bd 95 86 7f 3e 87 67 6d 3c
       -0.06882974 -0.032647796 0.24953683 0.014490015
000270 ec b0 19 3e 37 8c 3c bd 85 57 ae 3d bf 28 c6 3d
       0.15008897 -0.046032157 0.08512787 0.096757405
000280 48 4d cd bd 01 82 0b 3e 59 45 2b 3d 62 0b e1 bd
       -0.10024506 0.13623811 0.041814182 -0.10988499
000290 b1 b2 a7 bd 96 ee 86 3d 9d 05 0f 3d 38 25 cc 3c
       -0.081883796 0.065884754 0.034917463 0.024920091
0002a0 bc 82 60 bb 3f 76 4a 3d 53 6d f5 bc c3 74 07 be
       -0.0034257611 0.049429175 -0.029959356 -0.13228135
0002b0 2d fd b5 bd e2 59 b8 bb e4 53 8b bc 6b 3b f2 3d
       -0.0888618 -0.0056259492 -0.017007776 0.11827739
0002c0 ad 59 b8 bd e2 1d 3e bd fb 35 a4 be 05 05 46 bd
       -0.09001479 -0.046415217 -0.32072434 -0.04834463
0002d0 2f f2 41 be 4d 93 b0 3e f7 1c c9 bd 70 18 75 bd
       -0.18940042 0.34487382 -0.09819978 -0.05983776
0002e0 9e 59 f8 bd 96 05 29 bd cd 74 0d be aa 0c 22 bd
       -0.12126468 -0.041265093 -0.13814087 -0.03956286
0002f0 5f ea 38 3d d0 64 ff 3d 2f ed 8c bd 45 b3 e5 3d
       0.04514539 0.124704 -0.06881177 0.112158336
000300 85 f1 18 bc 6f cb d8 3d 8d 60 25 3d 00 70 8b 3d
       -0.0093349265 0.10585677 0.04037528 0.06808472
000310 72 7b 92 3d 74 f7 18 3e c5 de da bc e4 35 a7 bd
       0.071524516 0.14938146 -0.026717553 -0.08164576
000320 6d ee 81 bd 18 be 2e bd dd 76 fb bc c6 05 4c bc
       -0.06344304 -0.042661756 -0.030696327 -0.012452548
000330 b3 44 dc bc 2e 6c 0d bc 01 d3 c6 3d c3 83 10 3e
       -0.026888227 -0.008631749 0.097082146 0.14112763
000340 9b 9c 88 bd e9 63 b6 3c a0 0a 67 bd 28 04 d9 bc
       -0.06670495 0.022264438 -0.056406617 -0.02649124
000350 48 68 b6 3d 70 04 f9 bc f0 64 02 3e 92 38 58 3d
       0.08906609 -0.030397624 0.12733817 0.052788325
000360 37 72 98 3d 1d 16 86 bd fd 66 7a bd 47 40 1b bd
       0.0744366 -0.065471865 -0.061133374 -0.037903097
000370 c2 df 0b 3e 74 5e a7 bd 39 de 0b 3a 68 d9 a5 3d
       0.13659576 -0.081723124 0.0005335543 0.080981076
000380 3d 66 db bd 9e cf e9 3c 41 f7 03 3e cd 28 fe 3d
       -0.1071286 0.028541382 0.12887289 0.12410126
000390 79 6f c6 3d bd 8d 15 b9 22 b4 bc bd c7 2e 57 3d
       0.096892305 -0.00014262549 -0.09214045 0.052534845
0003a0 60 ad 24 3c 7c a8 cb 3d e3 87 8a 3d ac a2 0a bd
       0.010051101 0.09944245 0.067641996 -0.033846542
0003b0 bd d8 dc 3d 11 3a 78 3d da 9f 3d 3e 25 fe 0d bc
       0.10783527 0.06060225 0.1851801 -0.00866655
0003c0 35 66 4e 3d 64 54 21 3d e6 ce 73 bc ce 28 be 3d
       0.05039044 0.03938712 -0.014880871 0.092851266
0003d0 89 7f 02 3c 39 45 74 bd 98 8d d2 bd 5a 27 03 bd
       0.007964977 -0.05963633 -0.10280913 -0.03201995
0003e0 8b 32 8f 3d 9b 61 c4 bd 99 88 ba 3d 96 be a5 bd
       0.06992062 -0.09588929 0.09108085 -0.08092992
0003f0 50 59 84 bd 11 90 d3 3c 50 de c7 3c 00 d3 85 bb
       -0.064623475 0.025825532 0.024397999 -0.004083991

weight f4 [5, 64]
000000 fa 5e 15 bf 76 22 0f bf 9a c7 1a 3e 4a 43 27 3e
       -0.5834805 -0.5591196 0.15115204 0.16334262
000010 de 48 e9 bc e2 61 7d bd d0 e6 3a be 71 45 eb 3c
       -0.028477129 -0.061860926 -0.1825211 0.028719636
000020 1f d8 6c be d0 45 18 bd 4f 35 7f be 85 81 5f 3e
       -0.23129319 -0.037175953 -0.2492268 0.21826752
000030 81 86 a6 bf e7 c1 8f 3e 95 cd aa be 4f f4 66 3e
       -1.3009797 0.28077623 -0.33359972 0.22554134
000040 5c 06 05 3e bf 93 1c 3b 9e a4 93 bf 2d 72 22 3d
       0.12990707 0.0023891774 -1.1534612 0.039659668
000050 3a 08 06 3e 3d e8 91 bd 5b 18 e5 be d7 19 dc bd
       0.13089076 -0.07124374 -0.44745144 -0.10747116
000060 cf 0e 42 3d ff 6a 0a 3f 89 38 1f bf ca 87 62 3e
       0.047377404 0.54069513 -0.6219564 0.22122112
000070 f9 64 26 3e a4 33 7a bd 6e 7f 99 be 0b b2 a9 3d
       0.16249456 -0.061084405 -0.29980034 0.08285912
000080 f4 64 23 bc be 15 5d be c8 fa 09 3f a8 03 c3 be
       -0.0099728 -0.21590325 0.53898287 -0.38088727
000090 59 79 2d 3e 4b 7d 62 bf ca 05 d9 be c1 a6 ae be
       0.16940822 -0.8847243 -0.4238723 -0.34111598
0000a0 78 5b 0b bf 61 40 54 bd 58 66 b1 be 64 af 16 bd
       -0.54436445 -0.05181921 -0.34648395 -0.03678836
0000b0 29 96 79 3d 84 f1 8f bd 3b e7 b8 3d b9 c2 0c be
       0.06093422 -0.07028487 0.09028479 -0.13746156
0000c0 71 bc 7d bd a4 0f c0 3e cb 87 8b 3e b2 01 5f 3e
       -0.06194729 0.37511933 0.2725204 0.2177799
0000d0 53 de a1 bd a8 28 e0 be 4b 4b 30 3e d9 d2 14 be
       -0.07903733 -0.43781018 0.17216222 -0.14533557
0000e0 9b 75 cb be dd 54 80 bd 39 b5 2b be 20 21 0e 3e
       -0.39738163 -0.062661864 -0.1676835 0.13879824
0000f0 97 f7 1e be da ba 06 3c cb 46 a9 3d 48 e8 a8 be
       -0.15524136 0.00822326 0.08265456 -0.32989717
000100 3a a4 b3 3f 73 de 9f 3e 42 b0 4f be b3 2d 39 bd
       1.4034493 0.31224403 -0.20282081 -0.045209598
000110 d3 50 95 be dc 97 2c bd 9b 8f fc 3d dd b0 34 3e
       -0.29163226 -0.042137012 0.12332078 0.17645593
000120 03 fb 5a 3d 82 5f 55 3c 74 86 85 3e f3 b8 1e 3f
       0.05346204 0.013023259 0.26079142 0.6200096
000130 f0 a1 e9 be 09 c1 87 3e 58 53 4d bd 30 16 58 3d
       -0.4563136 0.26514462 -0.05012831 0.052755535
000140 e9 f8 a1 bd ae d0 0a 3e 80 0c 6a be 42 a3 ac 3d
       -0.07908804 0.13556167 -0.22856331 0.084295765
000150 46 06 cc 3d 7a 80 ae 3d 35 2c de 3e 9c c5 80 3d
       0.09962134 0.08520599 0.43393102 0.06287691
000160 25 67 43 3e 66 08 23 bf eb b2 0c 3f 71 bd 87 bd
       0.19082315 -0.6368469 0.5496051 -0.0662793
000170 2f 42 06 bf ee ea e2 3d 4d fb 96 3e d4 2d 20 3c
       -0.5244474 0.110799655 0.29488602 0.009776551
000180 c1 b1 93 3c e1 ae ac 3d 39 8f 1c bf c5 7e 95 3e
       0.018029096 0.08431793 -0.6115604 0.2919828
000190 2c 40 84 be 27 08 53 3e ad 55 a6 3e 19 a6 60 bf
       -0.2583021 0.20608579 0.3248724 -0.87753445
0001a0 e9 46 02 bd 1a b4 f1 bd 91 02 b0 be 6b 87 60 bc
       -0.031805906 -0.1180193 -0.34376958 -0.013704161
0001b0 fe c5 2d be e9 df 93 3e 43 b4 9c 3e ab c4 07 3e
       -0.1697006 0.28881767 0.3060628 0.13258617
0001c0 ec 36 30 be a3 0d b3 3e ca 6d 75 3f e3 a2 b5 bd
       -0.17208451 0.34971341 0.9587065 -0.08868959
0001d0 3d 54 d5 be 2f 9b 42 3f 3a a7 54 be 97 3e 87 3e
       -0.4166583 0.7601804 -0.20766917 0.2641494
0001e0 5b b9 88 3f d5 0d d1 bc ad 31 7c 3e dd b4 34 3e
       1.0681566 -0.025519291 0.24628325 0.17647119
0001f0 b0 de c4 3d ec d7 4c bd c3 e5 94 be 84 4e 0d bf
       0.09612787 -0.050010607 -0.29081544 -0.5519793
000200 3f 1d 7e be e8 6d be 3e 10 19 25 3e 24 54 cb bd
       -0.24815844 0.37193227 0.16122842 -0.09928158
000210 a5 17 ac 3d 03 b3 b5 3e 4b fc 17 3c 47 b7 20 3e
       0.08402947 0.35488138 0.00927646 0.15694915
000220 d6 9e 1f be 16 1d 5b bd f5 8d e6 bd f7 07 81 bd
       -0.15587935 -0.053494535 -0.11257545 -0.06300347
000230 20 ce 5a 3d 5c a3 ce be d5 76 39 be eb 85 6b bc
       0.053419232 -0.40359008 -0.18111737 -0.01437519
000240 91 c4 c7 3d 49 ee c5 be 5b c0 84 be e3 71 24 be
       0.09754289 -0.3865836 -0.25928006 -0.1605907
000250 62 12 0c 3e 77 5a 4f 3d e5 94 07 3d 4b e1 b5 3d
       0.13678887 0.050623383 0.03310098 0.08880862
000260 7b 67 62 3e 4a b4 1d 3f 11 c9 7e 3e 39 60 a8 be
       0.22109787 0.61603224 0.24881388 -0.32885912
000270 a1 44 fb be d3 fd c2 bd 94 e9 21 be d0 e0 3b 3c
       -0.49075797 -0.095210694 -0.15811759 0.011467174
000280 a8 5b eb 3b b9 a7 12 3e d9 b1 4b bf 5a ea 11 3f
       0.007182557 0.14321794 -0.7956825 0.5699822
000290 d0 be c6 bc b9 0f cd be ff 44 81 3b d2 61 39 be
       -0.024260908 -0.40051058 0.0039449926 -0.18103722
0002a0 6f e8 1b be 7e 80 28 bd 28 77 3e be 49 f6 b6 3e
       -0.15225385 -0.041138165 -0.18600142 0.35734776
0002b0 55 b0 ed 3d 88 95 8b bc c2 c4 8f 3e 6f 8f df bd
       0.11605898 -0.017039075 0.28079802 -0.1091603
0002c0 03 7e f6 3e aa eb b1 bf 1a 42 68 bf 9e 3b 04 be
       0.48143014 -1.3900044 -0.9072586 -0.12913367
0002d0 ec 39 04 3f c1 be 66 3e 34 d6 88 bd 57 f1 09 3d
       0.5165088 0.22533704 -0.06681481 0.033677425
0002e0 77 fb 45 be 72 a5 c8 3d 7e 61 8c be 1a 9d bc be
       -0.19334207 0.09797181 -0.2741813 -0.3683861
0002f0 f1 6a 0b be 0a 85 4c bc e6 cd 9b be 36 18 52 3f
       -0.13615014 -0.012482891 -0.30430526 0.8206819
000300 45 de b6 be a6 8f de 3e 38 d8 82 bd b1 3a b7 3e
       -0.35716453 0.4346897 -0.06388897 0.35786965
000310 88 90 c0 3c 09 6b 21 bf d2 f7 d8 3d 7d b2 1c 3e
       0.023506418 -0.6305395 0.10594143 0.15302463
000320 55 c4 8a 3e 20 ae 24 be 9e f7 b4 bd 17 c0 83 bd
       0.27102914 -0.16082048 -0.08836292 -0.064331226
000330 16 87 df 3e 40 67 bc be 0c 69 14 be fa bc dd be
       0.4365775 -0.36797523 -0.14493197 -0.4330824
000340 95 b4 23 bd 1a 0d 27 3e 92 a0 fd bd 2b 1f 8f bb
       -0.03996714 0.16313592 -0.12384142 -0.004367729
000350 f5 5a 88 be 5a 34 09 3e a1 f1 8f 3e 4d 44 f9 3c
       -0.26631895 0.13398877 0.28114036 0.030428076
000360 c8 fb d7 be d1 b8 81 3e da 02 a5 3e 6a 82 ec 3d
       -0.4218428 0.25336316 0.32228738 0.11548312
000370 69 bb 54 3f 50 3f e7 3d d2 5d bb 3e c2 31 f7 3c
       0.83098465 0.11291373 0.36595017 0.030175094
000380 cf 22 ff bd 40 2d 0b 3d f5 31 3b 3f 24 ea 81 3e
       -0.12457811 0.0339787 0.73123103 0.25373948
000390 76 ba 36 3e a8 b2 e8 3e cb 5c 14 3e 9f fe 04 3f
       0.17844567 0.45448804 0.14488523 0.5195102
0003a0 35 3e a8 3c 5f 89 f5 bd e9 f4 46 3f 3c 2d 6a be
       0.020537475 -0.11989092 0.77717453 -0.22868818
0003b0 e9 29 c9 bc 31 e7 cd 3d b4 9c 2f bf 3f a9 70 3e
       -0.024556117 0.10053862 -0.68598485 0.23502062
0003c0 46 2f c5 be ec 34 ab 3e 50 69 15 bf 0c db 0b be
       -0.3851263 0.33438814 -0.5836382 -0.13657779
0003d0 f1 d2 d2 be 11 dc f1 3e ce c0 e7 3d 2d fb bd bd
       -0.4117656 0.4723821 0.113160715 -0.092764236
0003e0 cb 38 b4 be 9c 15 7d be 85 59 13 be fd a2 97 3d
       -0.3519958 -0.24715275 -0.14389618 0.074041344
0003f0 db 02 8c 3e da 23 ea 3d bb ac 15 3f 87 ae b6 3e
       0.2734593 0.114326194 0.5846669 0.3568003

bias f4 [5]
000000 81 1e 80 bd 05 f1 28 3d 41 2f 69 be f2 6f 08 3f
       -0.06255818 0.04124548 -0.22771932 0.53295815
000010 c7 33 c8 bd
       -0.09775501
