rnn_model.pt (torch, 78743 bytes, 6 tensors)

weight_ih_l0 f4 [256, 7]
00000000: 718f 613e fd30 4d3e c7a8 c23d a5ec 133e
00000010: 6daa 143d c082 ff3d 168a be3d 2433 ff3d
00000020: fbf8 a23d e403 303d 3b07 333e 5e9d 25bd
00000030: c28b 0fbd 1b3a 58bd f0ad 3dbc 4245 84bd
00000040: fc25 f43c 375f 81bd 43d2 053e 7ee7 163e
00000050: be53 aa3d 21f5 ce3c dd14 ba3d dfd8 1a3d
00000060: 3204 b43d c227 113d 6f4c 273d bfac 8e3e
00000070: 6713 863a 8e53 c03d e8f7 2e3d ac24 ac3b
00000080: e74a 52bd c3fa 633c ee92 d73c a3db 393e
00000090: e1ba 313e 0544 1a3e 0886 b63c a36f c8bd
000000a0: 8265 953d 2d65 3a3e 2a29 66bc a27d e53d
000000b0: 943a 253c ebcf b03d 0b47 3b3c d4ca 4c3d
000000c0: 89c1 5d3e a7b5 6a3e fd1e f53d 74b4 ae3d
000000d0: ea25 263e 70bc 87bc 03e3 0dbc ee2a 813e
000000e0: f2b2 083e 0598 153b 18b2 1e3d 3be0 bf3d
000000f0: 6a43 713c 5015 bcbc 1e0c 993e 56a3 803d
00000100: 804d 963c 4c30 113d 0ec4 cf3c dace e0bc
00000110: c54e 423b 2822 5b3e bef5 ce3d 95b8 983e
00000120: f819 593e fb97 7f3e da66 e3bc 8c45 e43d
00000130: 1d65 5c3e 0809 2bbd d779 523e 2e1e a8bc
00000140: 76a5 0d3d f54f 073c e0c6 e7bd ede6 693e
00000150: 47fd 2d3e fabf 7b3e 0f4a 063e 99b5 993e
00000160: 7385 0d3e a87a c83d d331 4a3e ca24 0f3e
00000170: ee9f f33d 1ff4 6a3b ad75 78bc 2384 bdbd
00000180: 54c7 9fbd c1be b53d f897 d83d 4f8a d03c
00000190: aee6 ed3d da95 183e cc19 ba3d d01b 3a3e
000001a0: a606 7d3e af72 2b3e df3e 253e 965e 603c
000001b0: 6479 313e a255 c0ba 9929 e23d 23e8 6a3e
000001c0: 8f18 44bd e123 b53c 4400 a53d 70be eebc
000001d0: a064 013e 114a e03d 70f2 95bd 15cb 343d
000001e0: a156 863d e819 943d aa7a 713e 0ee8 1a3d
000001f0: 9d8b df3b f0b7 4e3e 8f5e 2c3d 392e a7bc
00000200: 9985 303e 9a01 3b3d be78 283e cefa fb3d
00000210: a789 38be a70f 263e 8e11 623e 533b 973c
00000220: f4e6 f63d 39c5 6dbd 0697 a03d a0ae 803e
00000230: 557c c53d 8823 3b3e b549 363d 3a79 383e
00000240: bffb a83d 38a9 1b3d 5406 693e 2c8d e4bb
00000250: 2483 093d 1987 f33d d344 313e eefc 2e3d
00000260: 86cf 083d d34d 363e 62bb de3d 2e58 813e
00000270: a52c 563e 821c 423e 42f8 153e d111 0a3e
00000280: 6a2e 943d 4461 0f3e f89b 513e 1388 643e
00000290: 19e4 3c3e e27a 263d f769 ca3d 3b2f 393e
000002a0: 4846 2b3d 9713 eebb 4ee0 b03d 993c febc
000002b0: 18fb 843d ed29 d1bd 29ab 08be 6e89 11bd
000002c0: cc91 133e bbc2 253d 97d6 363e 74a3 173e
000002d0: ddf8 383e 67dc 24be be49 823e 1598 773e
000002e0: 3996 933e 3bed f13d 487a 033e abc7 423d
000002f0: 41a8 753e 0043 6d3d 1696 2f3e 4b35 d2bc
00000300: cf1d 0e3e 7683 86bd f497 7ebd a865 c53d
00000310: cb54 33bb f0bc dc3d d82c 9a3d 1ff2 0d3e
00000320: 1825 82bd d80e b5bc 8955 733e d346 96bc
00000330: a825 f83b eea5 0a3e 7d6b 6bbc cfc1 51bb
00000340: ab6f 953d b502 883e 72ce 693e bea1 4f3d
00000350: 90e7 2c3e 33da 4c3e a1d8 b93d d1fa 463d
00000360: 47ef 3e3e e438 1d3e 089e 173e ebec 043e
00000370: 9cdd f73d ec82 303e 7221 6d3e a7e6 c13e
00000380: 45df 1bbd 9342 173e 876e d9bc ca26 383d
00000390: 93ca 4b3d 10ed 943d 0aae 4b3e 93bf 793e
000003a0: 328c 203e b19f 8c3e 67c5 3d3e faf4 0f3d
000003b0: bd70 893e 5c04 553e 0b75 e53d 3090 9e3d
000003c0: 1fee 283e 8f21 f53c 3aea e43c f327 5f3d
000003d0: 0d7c fc3d f577 0b3d 513f 223e 3cf5 9d3d
000003e0: a8e6 133e 5c78 8a3d 5281 ea3c ad29 703e
000003f0: 70d5 693e c9dc 723e f1ff 7e3e e73a 943e
0.22027375 0.20038219 0.09504848 0.14445741 0.036295343 0.124761105 0.093036816 0.12460926
0.079576455 0.04297246 0.17483227 -0.04043328 -0.035045393 -0.05278979 -0.011577114 -0.064585224
0.029803269 -0.06316989 0.1306849 0.14736745 0.08316754 0.025263371 0.090860106 0.03780448
0.08789863 0.035438307 0.040844377 0.2786617 0.0010229171 0.09390937 0.04271689 0.005253395
-0.051340964 0.013914767 0.026315179 0.18150191 0.17356445 0.1506501 0.022280708 -0.09786918
0.07294752 0.18202658 -0.0140479 0.11205603 0.010084767 0.08633407 0.011430512 0.04999812
0.21655859 0.22920857 0.11968801 0.085305125 0.162254 -0.016569346 -0.008660081 0.25228065
0.13349512 0.0022826206 0.038744062 0.093689404 0.014725545 -0.022959381 0.29892057 0.06281154
0.018347502 0.03544645 0.02536204 -0.027442385 0.0029649 0.21399748 0.10105465 0.29828325
0.21201313 0.2496032 -0.027759004 0.111460775 0.21522947 -0.04175666 0.2055429 -0.020522203
0.034581624 0.008258809 -0.11317229 0.22841997 0.16991149 0.24584952 0.13114189 0.3002136
0.13820438 0.0978902 0.19745569 0.13978878 0.118957385 0.0035851074 -0.015164775 -0.09253719
-0.07801691 0.08874274 0.10575861 0.025456576 0.11616264 0.14900914 0.090869516 0.18174672
0.24709567 0.16742967 0.16137265 0.013694426 0.17331463 -0.0014673958 0.110430904 0.22940116
-0.047874983 0.022111835 0.08056691 -0.029143542 0.12636042 0.10951627 -0.07321632 0.044138987
0.06559492 0.07231504 0.23581949 0.03781896 0.006822063 0.20187354 0.042082366 -0.020407783
0.17238463 0.045655824 0.1645231 0.123036966 -0.1802126 0.16216908 0.22077009 0.018460905
0.120557696 -0.058049414 0.078413054 0.25133228 0.09642855 0.18275273 0.044503886 0.18014994
0.08251142 0.038003176 0.2275632 -0.006974837 0.03357233 0.11891002 0.1731141 0.04272168
0.033401035 0.17803125 0.10875584 0.25262588 0.20915468 0.18956187 0.14645484 0.13483359
0.07235415 0.14001948 0.20469654 0.22317533 0.18446387 0.040644534 0.098834924 0.18084423
0.041815072 -0.007265519 0.08636533 -0.031034755 0.06493205 -0.10213075 -0.13346542 -0.035531454
0.14411086 0.040468913 0.17855297 0.14808446 0.18063684 -0.16099702 0.25446886 0.24179108
0.28825548 0.11812826 0.12839615 0.0475537 0.23989965 0.057925224 0.17147097 -0.025660178
0.13878559 -0.06568043 -0.062156633 0.0963853 -0.0027363773 0.107782245 0.075280845 0.13861893
-0.06354731 -0.022101805 0.23763098 -0.018344318 0.0075728483 0.1353986 -0.014368889 -0.0032006388
0.072966896 0.26564565 0.22832659 0.05069136 0.16885209 0.20005111 0.09074522 0.04857904
0.18645965 0.15353733 0.14806378 0.12981002 0.121028155 0.17237443 0.2315729 0.37871286
-0.038054723 0.1477149 -0.026541961 0.044958867 0.049753737 0.072717786 0.1989061 0.24389486
0.1567848 0.27465585 0.18532334 0.035145737 0.26843825 0.20802444 0.11203965 0.07742345
0.16497086 0.029923229 0.02794372 0.054481458 0.12328348 0.034049947 0.15844466 0.0771279
0.14443457 0.06761238 0.028626118 0.23453398 0.22835326 0.23717035 0.24902321 0.2895119

weight_hh_l0 f4 [256, 64]
00000000: 9e36 e03d a4b4 a43d 233f 233d 1873 aa3c
00000010: 52e5 543d d9fd e7bd f9c8 3cbd e1ae f23d
00000020: 0da0 dcbd 254d a6bb 9b94 00be 1ddd 8b3d
00000030: d662 f2bd 0c6a 343d 7f39 a9bd a2d9 c73b
00000040: 3c45 33bd c1c0 043d ef3c 9fbd 07dc 5abd
00000050: c02b 4b3d 904e d539 342c 4c3d 8731 053e
00000060: 8120 bb3d 6cbb 673d b87a c03d 4af6 b13c
00000070: e64b b53c 0ea4 36bd 974f 8fbd ea90 233d
00000080: ab8f 02bd 6548 cfbc 3b54 c03c 9c15 02be
00000090: 08b9 58bd a9fb e63d 2b74 143d 881a 5abd
000000a0: fa7c 0bbd d6c6 a8bd a6cd 0fbd 2405 9c3d
000000b0: 9a90 3fbd 8d0a 9e3b f2b6 863d 0885 3f3d
000000c0: 6885 51bd 0f43 d6bd 7f5b 33bd b8bc 65bd
000000d0: 2e8d ff3b f31e 7e3d 9593 003e 58b1 f53b
000000e0: d060 063e 008a 44bc cfc3 8d3c df8c 70bb
000000f0: f656 eb3d 1c78 06be 520a bdbd b6f4 82bd
00000100: 3d16 813d 9256 b43d 395a 263d 8aba 65bd
00000110: 7a65 aebd a175 cbbd 701f d83d 91c9 4fbd
00000120: fe44 05bb 16c9 b0bd 5912 083c 5807 7abd
00000130: e017 653d 44bf d3bd 032e 913d 6016 9b3d
00000140: 279a 07bd 3b3f 90bc 43f4 93bd ab75 8fbd
00000150: 6aea f9bd 85d6 09bd 9ebe 95bd 0557 b13d
00000160: 453a 2a3d a991 e93d 054e db3d bddf debd
00000170: 7b69 b6bd 2bb7 90bd 1a4a 7dbd e22b 69bd
00000180: bb68 653d cde2 a83d 7845 31bc 88d3 463b
00000190: 7093 763d c4eb 75bd a929 92bd 8358 64bd
000001a0: 4ce6 0a3d 619a bc3d 6fef 503a b27a babc
000001b0: c5cf 4fbb ee3b fcbd c95a 6abd bffb c7bd
000001c0: 758a 1d3d de8a 903d db10 e8bd d314 5f3d
000001d0: 8541 babd 72b2 b1bb aaee d1bd 5202 57bd
000001e0: b3e5 3bbd 22f4 89bd 5bac 98bd 7f81 463d
000001f0: 0256 3d3d 4c55 09bd 23e1 f33d 01bf 43bd
00000200: 32cc 91bc dca5 ae3d 37c9 6b3d 4ade fc3d
00000210: 0a36 3b3c 9480 9e3d 2734 cc3d ac90 b73d
00000220: 7f52 fdbc b6eb b5bc a141 e6bc e59e fbbc
00000230: 4e3a db3d 52a5 84bd 6c3f b93c 99e2 9fbd
00000240: 4a82 9c3a cee2 b4bd ece1 33bd 1198 d3bd
00000250: 3ff6 83bd d407 b63d 6c4b c2bd ec3b 25bc
00000260: 9142 ed3d 4671 b43c 23a9 a83d cecc c7bd
00000270: 8417 cc3c bb64 813d 7ec6 d93d 72cb 0a3e
00000280: 64e1 4abd 78f6 453d abca a83d 4f42 9f3d
00000290: 29dc acbd 99ec 40bd 9adf 833d c58a 63bd
000002a0: ef1c 863d f40d 5b3d 75bc aabd b7ef 953d
000002b0: 48fd 0a3d 7d19 013d f636 953d d15f 8c3d
000002c0: 5cb8 c63d 0104 efbc 0be0 16be 5cce 9d3b
000002d0: b76c c9bd 6a71 d33d 1359 d13d 4b60 edbd
000002e0: 6883 a0bd 2e24 173b 6f10 69bd ccf2 e3bd
000002f0: 8fe8 073d b27f c3bd 8efa 79bd 9691 fc3d
00000300: 5de6 c4bd fa76 ad3d 70ba 8a3d 6f52 9cbd
00000310: b6dc ecbd 86f1 d63c 0e7e 6aba c559 883c
00000320: d339 c53d cca6 cc3d eecf f3bd b68c b2bd
00000330: 3f2f a5bb 50fd eb3d f909 ccbd 7707 c13b
00000340: a355 38bd 8f7e cabd 489b 74bd d0cf 01be
00000350: 99a9 83bd 1937 96bb 7b5e aebc dca4 733d
00000360: 90fe 633c fd8d e23d a4ac 3c3d f3e5 cebd
00000370: 7129 8c3a 994e 363d 1afe c4bd 1e1f 4cbc
00000380: 0fed 923d 9311 82bc 683b 39bd 758e 48bd
00000390: ae94 473d f2a3 7dbd e7d2 e33b a523 c03c
000003a0: 6297 a73d bb04 9d3d 4687 85bd 3b5b f7bc
000003b0: 50c0 10bd 654e f33d 0ef7 09bd 297c f4ba
000003c0: 46bb 313d c976 de3d 7d46 96bd 65f3 3cbd
000003d0: 516d 96bd 75b4 4a3d 0e73 963d 70f5 c8bd
000003e0: b476 c53d a418 513c 57ba d83c c54c 733c
000003f0: 7d68 02be 19f8 bf3c ea4e cabd 1698 a8bd
0.109479174 0.08042267 0.039855134 0.020806834 0.05197651 -0.113277145 -0.0460901 0.11849762
-0.10772715 -0.0050751143 -0.12556688 0.068292834 -0.11835258 0.044046447 -0.0826292 0.006098942
-0.0437672 0.032410387 -0.07775294 -0.05343249 0.04960227 0.0004068506 0.049846843 0.13007174
0.09137059 0.056575224 0.09398407 0.021723885 0.022130918 -0.04459005 -0.069976024 0.039933123
-0.031875294 -0.025303075 0.023477664 -0.12703556 -0.052910835 0.11278469 0.0362436 -0.05324796
-0.034054734 -0.0824105 -0.03510823 0.07618168 -0.046768762 0.004823035 0.06577863 0.046757728
-0.051152617 -0.10462009 -0.04378843 -0.05608818 0.0077988124 0.062041234 0.12556298 0.0074979477
0.13122869 -0.011995792 0.017305283 -0.003670506 0.11491196 -0.13131756 -0.09230484 -0.06394331
0.0630307 0.088055745 0.040613387 -0.0560861 -0.08515449 -0.09934545 0.10552871 -0.050729338
-0.0020335312 -0.08632104 0.008305156 -0.06104216 0.055930972 -0.103392154 0.07088854 0.07572627
-0.033105996 -0.017608276 -0.072243236 -0.07004865 -0.12202914 -0.033651847 -0.07311748 0.08659176
0.041559476 0.114047356 0.107082404 -0.108825184 -0.089068376 -0.070661865 -0.061838247 -0.056926616
0.056008082 0.08246384 -0.010819785 0.0030338485 0.0601992 -0.060039297 -0.07136852 -0.055748474
0.033911034 0.09209133 0.00079702487 -0.022763584 -0.0031709534 -0.12316118 -0.057215486 -0.09764814
0.03846212 0.07057737 -0.1133134 0.05446322 -0.09094528 -0.0054228837 -0.102506 -0.052492447
-0.045873355 -0.06736018 -0.07454749 0.04846334 0.0462246 -0.03352861 0.11908176 -0.047789577
-0.017797563 0.08527729 0.05756494 0.12347086 0.011426458 0.07739368 0.09970885 0.08963141
-0.030923126 -0.022207122 -0.028107466 -0.030715415 0.1070448 -0.06476845 0.02261325 -0.07806892
0.0011940685 -0.08832322 -0.043916628 -0.10331739 -0.06443452 0.08888212 -0.09487042 -0.010085087
0.11584962 0.02202667 0.08235385 -0.0975586 0.024913557 0.06318041 0.106335625 0.1355417
-0.049531356 0.048330754 0.08241781 0.07776319 -0.0844043 -0.047100637 0.06439133 -0.055552263
0.065484874 0.053480104 -0.083367266 0.073211126 0.033932954 0.03151845 0.072858736 0.06854213
0.097031325 -0.029176714 -0.14733903 0.0048158597 -0.09835189 0.103243664 0.10222068 -0.11590632
-0.07837564 0.0023062336 -0.056900438 -0.11130294 0.03318077 -0.0954584 -0.061029963 0.12332456
-0.09614251 0.084699586 0.067738414 -0.076329105 -0.11565535 0.026238214 -0.0008945175 0.016644368
0.0963017 0.099927515 -0.11904894 -0.08718245 -0.0050410326 0.11522925 -0.0996284 0.0058907825
-0.045003545 -0.098874204 -0.0597184 -0.1267693 -0.064288326 -0.004584205 -0.021285286 0.059483394
0.013915673 0.11062238 0.04606308 -0.10102453 0.0010693503 0.04450855 -0.096187785 -0.012458591
0.071741216 -0.01587752 -0.04522267 -0.048963983 0.048725776 -0.06192393 0.0069526318 0.023454497
0.08183171 0.07666918 -0.06519942 -0.03019487 -0.035339653 0.11880187 -0.033682875 -0.0018652725
0.04339149 0.108625 -0.07337663 -0.046130557 -0.07345069 0.049488503 0.07346164 -0.098124385
0.096417814 0.012762222 0.026456041 0.014849846 -0.12735172 0.023433732 -0.09878333 -0.08232133

bias_ih_l0 f4 [256]
00000000: f013 b1bc 4563 40bd b0ff dc3d bd01 0e3e
00000010: 6803 b43c 69b5 49bd 55ef 0dbd 70f2 84bd
00000020: db37 ee3d 3b6d 0c3c a263 1a3e 0b3c f43d
00000030: 1c99 673b 8201 dcbc 3f9a 6c3c bb4d 163e
00000040: cfef 62bd 6fff 4a3d 0c83 3e3d dc31 093e
00000050: 1952 083e e8c4 c83c 8d3c e3bc 2b58 823d
00000060: 1078 1dbd 5d14 ddbc c056 ff3d a5d4 ce3d
00000070: ba50 ca3d 6147 0b3d 2d4f a2bb 5cd7 243e
00000080: 1716 a43d b34a 163e 4d78 b13d 526a 60bd
00000090: fe00 b1bb d2ce e23d 2ca7 c9bd d4e6 f33d
000000a0: e170 183c 5d0c 5c3d 5261 d83d d1a3 72bc
000000b0: e9b4 babb 0ffd 1abd 6b40 7bbd a811 b13d
000000c0: 9844 1dbd cd25 083e c487 543d 2c41 6bbd
000000d0: 492d a1bd b3ab 8b3d 62c4 493d e7c1 c03c
000000e0: 5212 97bd 28b4 09bd 2af4 a33d ca88 5b3d
000000f0: 77b7 b83d 9f11 b8bd fbcf 8dbd 47ae 7c3d
00000100: 1596 cd3d 9ed3 77bd 9613 5cbd ba25 dfba
00000110: fb03 553d 3440 a83d 2e85 c43d a698 a93d
00000120: d929 213d 1c44 a93c f55f ee3d 8746 913d
00000130: 9bd6 2abd c5ea 103d 44af 0b3e 6c3a 51bd
00000140: de79 abbd 2023 753b baaa 33bd efe2 d93d
00000150: 1c7d 9c3c 85b6 9a3c 8c65 a8bd 4899 ac3b
00000160: 4d94 aa3d 5696 c43d ce01 f6bd 0de9 d93d
00000170: 5c89 0b3e 9252 d1bc 3d39 04bc a5e2 1dbd
00000180: 49e1 a93d de11 67bd 5921 3bbd 67f9 a1bd
00000190: b7f3 9bbd 7a94 ae3d a34c aabb 44ab c6bd
000001a0: ec89 7e3d 248a ce3c 2766 ccbd 3e40 b33d
000001b0: ea03 a33d d0ff 67bd 638c a9bd 4d34 52bc
000001c0: 521b ef3a f40b aa3c f453 073d c764 1bbd
000001d0: 1bed 2f3d c992 c9bd 9d9d 6ebd 0c70 e03d
000001e0: 042b 2f3d 7944 f3bd 189f fdbd f116 febd
000001f0: 65a6 db3d 1914 793d 5576 963c 5f9e cebd
00000200: 0eb1 32bd e827 973d cdae 663d 21b2 2fbd
00000210: c91a 23bc cb7d 83be 2f7c cbbe 4d16 da3e
00000220: 55f8 1a3e df77 94be b01c 133e aab7 febc
00000230: 5c68 50be 4d13 06bd bc47 1cbd f83f 32bd
00000240: 05ea cf3d e521 57bd 3edd 82bd f89d 79bd
00000250: 3ddf 4cbe 1659 acbe ab0b 123e 7ec8 b43e
00000260: b046 e13d 5bd7 083e 6476 8c3e 03a0 c73d
00000270: 9016 0b3f 4b7d fbbe 7d07 e9bc 0658 26be
00000280: 1cec a1be e24a 613e 5a9a c33d 9302 bebe
00000290: 02f7 cf3d 74e3 e0bd d29e 163e a138 e43d
000002a0: c648 49bd 7f4d 61be 057b 493d a83e e4bd
000002b0: fd4b cc3d a280 a2bd 7789 cb3d 0577 2f3e
000002c0: 01a0 b83d 2281 debd 39fa 69bd a79a c3bd
000002d0: 5152 0c3f 2a9d 79bd e0d9 d0bd a367 bf3d
000002e0: 27ca 6d3d b35a ffbc 931f 503d aac4 b83d
000002f0: 4ccc f83c 58de b3be 0831 1abe b352 5a3e
00000300: 3f2a 8c3d 844e 153d 4266 9ebc 0f62 713d
00000310: 3990 aebc cbca e13d f69a b8bc 8e81 123e
00000320: 8da1 e93d c735 243e e976 a03d 904e 343e
00000330: d4d0 133e 8f03 b4bd e55d 2bbd 5a88 12bd
00000340: bcd5 1dbc 3e8c 99bd 4240 acbc 7710 dd3c
00000350: c8c3 123e 72d0 95bc 6d32 033e 287a ff3d
00000360: 86a5 82bd 5967 2f3e 72c4 f93d 4a5d a3bd
00000370: 2a68 ae3d 183b 6dbd fc8c 153e 283b f93d
00000380: 255d dfbc 1bbd 37ba ade3 82bd 96e3 e8bd
00000390: 1366 8d3d c080 c5bc fd22 513d 8a3d b93d
000003a0: eb65 a6bc dd06 2fbd 55aa 223d d5a9 a53d
000003b0: d51a 8abd 3972 e23d fcfe 093d c4c3 173e
000003c0: 8d3f adbc fd2f b03d e404 89bd f6d1 e2ba
000003d0: f989 ae3d d424 123e 7f59 c73c 7e6f 94bd
000003e0: 2ba5 d33d e5e6 723c 32e9 8b3d c943 b2bd
000003f0: 98c4 59bb 8e5e c93d 1e52 013e cfd3 17bb
-0.021615952 -0.04696967 0.10790956 0.1386785 0.02197428 -0.04924527 -0.034652073 -0.06491554
0.11631747 0.008570964 0.1507707 0.11925515 0.0035339063 -0.026856188 0.014441072 0.1467809
-0.05540448 0.049560007 0.046511695 0.13397926 0.13312568 0.024507955 -0.027738834 0.06364473
-0.03844458 -0.026987249 0.12467718 0.100991525 0.098786786 0.03400362 -0.004953286 0.16097778
0.08012026 0.14676933 0.08665524 -0.054788895 -0.0054017296 0.11074604 -0.09846339 0.11909261
0.009304256 0.053722728 0.105654374 -0.014809565 -0.0056978357 -0.03783899 -0.06134073 0.08645946
-0.038395494 0.1329567 0.05188729 -0.0574352 -0.078699656 0.068198584 0.04925955 0.02352996
-0.07376541 -0.033619076 0.08005555 0.05359725 0.09019368 -0.08987736 -0.06924435 0.06168964
0.100383915 -0.06050455 -0.053729616 -0.0017024793 0.05200575 0.08215371 0.095957145 0.082810685
0.03934655 0.02066236 0.11639396 0.0709353 -0.04170857 0.035380144 0.13641077 -0.051081106
-0.08372854 0.003740497 -0.04386399 0.10638987 0.019102626 0.01888586 -0.082224935 0.005267296
0.083290674 0.09598987 -0.12012063 0.10640154 0.13626617 -0.025552068 -0.008070287 -0.038546223
0.08294923 -0.056413524 -0.0456861 -0.07908898 -0.07614844 0.085244134 -0.005197124 -0.09700635
0.06214325 0.025212355 -0.099804215 0.087524876 0.07959731 -0.056640446 -0.0827873 -0.012829852
0.0018242395 0.020757653 0.03303905 -0.037937906 0.04295073 -0.0984245 -0.05825578 0.10958871
0.042765632 -0.118782945 -0.1238386 -0.124067195 0.107250966 0.060810182 0.018366972 -0.10088801
-0.043625884 0.073806584 0.056319047 -0.042894486 -0.009955117 -0.2568191 -0.39743182 0.4259514
0.15133794 -0.28997704 0.14366412 -0.031093437 -0.2035231 -0.03273325 -0.03815435 -0.043518037
0.101520576 -0.05252256 -0.06389855 -0.060941666 -0.20007034 -0.33661717 0.14262263 0.35309213
0.10999811 0.13363402 0.27434075 0.09747317 0.543313 -0.49119028 -0.028445954 -0.16244516
-0.3162545 0.22001222 0.095509246 -0.3711134 0.10154535 -0.10980883 0.14709023 0.111436136
-0.049141668 -0.22002219 0.049189586 -0.11144763 0.09975431 -0.07934691 0.09938329 0.17135246
0.09014893 -0.10864474 -0.057123397 -0.09550982 0.54813105 -0.0609409 -0.10197806 0.09345939
0.058054116 -0.031171178 0.05081136 0.09021886 0.030370854 -0.35130572 -0.15057766 0.2132061
0.06843995 0.03645183 -0.01933587 0.058931407 -0.021309005 0.11025008 -0.022534829 0.14307234
0.114077665 0.1603614 0.0783518 0.17608094 0.1443513 -0.08789741 -0.04183759 -0.035774566
-0.009633478 -0.07497452 -0.021026734 0.02698539 0.14332497 -0.018287871 0.12812205 0.12474471
-0.06379227 0.17129268 0.12195672 -0.07976778 0.085159615 -0.057917684 0.14604563 0.12169486
-0.027266094 -0.0007009075 -0.06391082 -0.113715336 0.06904235 -0.024109244 0.051058758 0.09044941
-0.02031227 -0.042731155 0.039713223 0.080890335 -0.06743399 0.110569425 0.033690438 0.14820772
-0.021148467 0.08602903 -0.06690386 -0.0017305005 0.0852241 0.14271861 0.024334667 -0.07247828
0.10334238 0.014825557 0.06831588 -0.08704335 -0.0033228751 0.09832488 0.12628981 -0.002316702

bias_hh_l0 f4 [256]
00000000: 18ef 4c3d c736 28bd 5157 0a3d fcf1 163e
00000010: 1468 013e 8a17 563c f1f8 03bd 1553 84bd
00000020: 9412 ce3b b5ff 7bbc 9625 153d bcf4 cc3d
00000030: 463e 2b3d d99d ab3b 5621 aa3c 9314 8bbd
00000040: 1a65 4cbd 4389 be3d 4c48 63bd e4e7 953d
00000050: 565b 113e 194d bdbd 0c35 f7bb 0d51 f5bc
00000060: fd49 863d 9b09 05bd 5ea2 cfbc 42e4 173e
00000070: 52bf c43d 4e85 b83d 2301 d63c 16b2 c73d
00000080: ef9c abbc f16f 0b3e 2f57 8bbb 2a73 9d3d
00000090: 6fcf 2c3e 3739 463d 9e82 96bc a0b3 a93d
000000a0: 0782 003e b767 553d 99e1 973d b470 7b3d
000000b0: eb9a afbd fceb 813c f52b 5bbd a18c ab3d
000000c0: 485f f0bc 05bb 383b 345c 3e3d c79c f63d
000000d0: c753 da3d b6f5 403d cff2 0d3e 6079 91bd
000000e0: 6620 cc3d 554c e03d bcde 89bd 8788 9d3d
000000f0: 5c74 233e ed92 a9bb 0b2f ce3d 874e a53d
00000100: e0a8 d4bc 687d 6abd 3c92 92bd 475d 59bd
00000110: e2cd c83d 0c5f 8c3d 898c 9cbd ad72 c83d
00000120: b6e8 6b3d d5e5 0b3e 9d22 003e e815 dbbc
00000130: 2854 d33d 334a dc3d d024 cabc 8352 9e3d
00000140: c906 7c3d 6a68 19bd 81a9 323d 348e 60bd
00000150: 9f1b c7bd 5ea4 063d 8f1b b33d d34e 4b3d
00000160: 8530 e33d 30f6 753d e9b9 d8bd fc54 e3bd
00000170: 565f 56bc 0102 983d 3719 d3bc b8fd f73d
00000180: 6303 123e 5a1f 21bc c87f e23d 62c1 4f3d
00000190: 4a64 9cbd a974 48bd 1435 b13d 51bc b0bd
000001a0: 563f b1bd a369 e83d d4e6 b33d 162e c83d
000001b0: 005d d3bd 8849 55bd 7764 383d 2dca 5ebd
000001c0: cb00 873d 9620 f43d 43ec b1bd 9af2 d13d
000001d0: 40c0 f0bc 95a8 a33d fd9d e3bb 8d99 e73d
000001e0: 35dd 853d 4320 e73d 1049 d33d 5b98 91bd
000001f0: dfb4 513d d171 843d 61cd 5abc 3ec9 3abd
00000200: 99e1 4ebd d506 8e3d 31f1 8e3c b11e d9bb
00000210: 72b8 5f3d 102c aebe 1fc0 fabe 065d b83e
00000220: 9b00 193c e4c1 8ebe 22fc 0e3e 233e cf3c
00000230: bb65 45be 5368 0bbd a66f c13d 21bf 413c
00000240: 79d8 d23d 7710 c7bc 8299 443d 7e2e d23d
00000250: efff 37be 87db a5be c69e cc3c 0ef2 223e
00000260: ca05 aa3d 35e2 973c 3e46 8e3e 5c35 f53d
00000270: 41db e93e 2a9e dbbe 15f3 9bbd 446a 05be
00000280: 1322 5fbe 0869 843d c06a 07bd 762b c4be
00000290: 6be5 ee3d 795f ceba 3d40 71bb cb56 b13d
000002a0: 2fee 97bd ebfb 4fbe 7aa4 fa3d 9d76 0f3d
000002b0: 2373 703c 0241 d9bd 3685 7f3d cc6a ac3d
000002c0: 2c5a 75bd 4c9c 973d 6bd3 66bd 192d 27be
000002d0: 2c8a 0d3f f088 1c3d f963 f1bd 39f5 f63c
000002e0: e6bb 52bb 2735 43bb 6e0d d73d aa03 bb3d
000002f0: a654 8e3c ce34 acbe 144c b8bd b511 8e3e
00000300: 65b9 b2ba 1222 7c3d c169 a8bd e892 013e
00000310: b556 58bc f0e2 ef3b cd9b eb3d bda4 9cbc
00000320: f6a8 12bd cf61 9a3d b894 323e d05f c13d
00000330: a1e3 173e 0e6e 9ebc ccd7 653d ae72 133e
00000340: 425d 39bd f8d1 253e b706 953d ddc6 183e
00000350: 5e27 cf3d 9e01 1b3e 7400 b5bc a0c8 233d
00000360: 2fdc 153e bf16 143d 309d 183b a24f a1bd
00000370: ca79 5d3b 3fe6 9ebd 728a 943c a87f 663c
00000380: ddac 0c3d d8c4 06bc 4346 223e 9131 edbd
00000390: ac22 fb3d 8e40 183d 937e 7dbd 1fb1 643c
000003a0: eef4 9abd 7ded 4fbd a94f 153e 7bde fa3c
000003b0: 6c3f e23d e664 ba3d d990 3fbd fbe0 9e3c
000003c0: 6131 1c3d 79e7 933d 3c29 f03d fc82 da3c
000003d0: 064c d8bd 20d1 023e 642f be3c c395 ccbc
000003e0: 91ca ed3d ce69 94bc 47b9 9dbd 2cb4 a93d
000003f0: f414 c2bc 4491 c03d b5b3 173e 80fb 223d
0.050032705 -0.041067865 0.033774678 0.14740747 0.12637359 0.013067136 -0.03221983 -0.06461159
0.006288836 -0.0153807895 0.036412798 0.10007617 0.041807435 0.0052373228 0.020767849 -0.067910336
-0.049901105 0.09303524 -0.05548887 0.0731962 0.14194998 -0.09243221 -0.0075441655 -0.029945875
0.06557081 -0.032479864 -0.025345977 0.14833167 0.09606804 0.09009801 0.026123589 0.09750764
-0.020948855 0.13616921 -0.0042523365 0.076879814 0.16876005 0.048394408 -0.01837283 0.08286214
0.12549601 0.052100863 0.07416076 0.06138678 -0.0857447 0.015859596 -0.053508718 0.08376432
-0.029342309 0.0028187644 0.04647465 0.12041622 0.106605105 0.04710933 0.13862155 -0.071032286
0.09967117 0.10952059 -0.06731936 0.07692056 0.15962356 -0.0051749856 0.100675665 0.080716185
-0.025959432 -0.057248503 -0.07156798 -0.05306747 0.09804894 0.06854066 -0.076439925 0.09787498
0.057594977 0.13661893 0.12513204 -0.026743844 0.10318786 0.1075634 -0.024675757 0.077305816
0.06152991 -0.037453093 0.043618683 -0.054823115 -0.09722065 0.032871597 0.08745491 0.04963572
0.11093239 0.060049236 -0.105823345 -0.11100194 -0.013084253 0.07422257 -0.02576886 0.1210894
0.14259104 -0.009834135 0.110595286 0.050721534 -0.07636316 -0.04893938 0.08652702 -0.086296685
-0.086546585 0.113482736 0.08784261 0.09774415 -0.10320473 -0.052072078 0.045017686 -0.05439203
0.06591948 0.11920278 -0.086876415 0.10251351 -0.029388547 0.07991139 -0.006946324 0.11308584
0.065363325 0.1128545 0.1031667 -0.071091376 0.051197883 0.06467021 -0.01335463 -0.045602076
-0.050508115 0.06934897 0.017448993 -0.006625973 0.05461926 -0.34017992 -0.48974702 0.3600847
0.009338523 -0.27882302 0.13963369 0.025298184 -0.19277088 -0.03403504 0.094451234 0.011825354
0.10295195 -0.024299843 0.04799796 0.10262774 -0.17968725 -0.3239405 0.024978053 0.15912649
0.083018854 0.018540481 0.27787966 0.11973068 0.4567509 -0.42894107 -0.076147236 -0.13028818
-0.21790342 0.064653456 -0.03306079 -0.38314408 0.11664852 -0.0015745006 -0.003681197 0.086591326
-0.07418477 -0.20310943 0.12238403 0.035025228 0.014675888 -0.106081024 0.0623829 0.084188074
-0.059900448 0.07402858 -0.056353968 -0.16325797 0.5528896 0.03821653 -0.117866464 0.030146228
-0.0032155453 -0.002978632 0.105006084 0.09131558 0.017374348 -0.33634037 -0.08998886 0.27747884
-0.0013635574 0.06155593 -0.08223296 0.12653697 -0.013204266 0.007320754 0.11504326 -0.019121522
-0.035805665 0.07538187 0.17439544 0.09442103 0.14832927 -0.019339588 0.056114003 0.14399216
-0.045254953 0.16193378 0.072766714 0.1491961 0.101149306 0.15137336 -0.022094943 0.039986253
0.14634775 0.036154505 0.002328705 -0.07876517 0.0033794516 -0.0775876 0.018132422 0.014068522
0.034344543 -0.008225642 0.15847115 -0.1158172 0.122624725 0.03717094 -0.06188829 0.013958245
-0.07566248 -0.050763596 0.14581169 0.030623665 0.11047253 0.09101276 -0.046768997 0.019394388
0.03813303 0.07221884 0.11726615 0.026673786 -0.10561375 0.12775087 0.023215957 -0.024973756
0.11610902 -0.018116858 -0.077013545 0.08286318 -0.023691632 0.09402707 0.14814647 0.03979063

weight f4 [4, 64]
00000000: 5acc f9be ffce e0ba 19ae 8bbe 05de 7dbe
00000010: be2c a83d eabd 95be 6af6 283e f350 43be
00000020: 3af5 c9be ea87 d2be 96f6 66bf 1a6a e6be
00000030: 601a 9b3f c6f4 ee3b 9285 08bf facb 7e3e
00000040: 6574 343e ae85 c6be 9521 8bbc 38d6 1e3f
00000050: 394a 1e3f 111e 4dbe 7aad 2ebe d0a1 52be
00000060: 0b8a 19be 11b2 3ebf d38d 60bf 0e3b 7fbd
00000070: 98d1 e8bd 3b6d 843e 0995 1abf 21eb 9ebf
00000080: 2955 13bd 5af3 efbf e9a8 09bc de9b 813e
00000090: 4096 11be 5e93 e73c 619f 22bd 365f 65bf
000000a0: 61b5 1abc dd06 093f 6753 633d 45e9 273d
000000b0: b870 c9be 3964 b7bc df39 2f3e 486c cabe
000000c0: 14ce 83be fdd3 95bc 4d30 f13e ee03 07be
000000d0: a467 3cbe 426e a1bf a3da d83e 618a ba3e
000000e0: ae27 ddbd 3249 13bd f757 873e 3c6a 693b
000000f0: e650 5cbe a863 843e fb3d 743f 8c01 953e
00000100: 6713 413c 6874 123d adb2 0b3e 07b4 6f3c
00000110: 5087 c0bd ce44 1a3e 83ba 8e3e 1152 52bf
00000120: 5b22 58bd df80 9d3d 3fc4 25bf 6dd7 0f3d
00000130: 9f0d 5fbf 7fe1 243e e174 34be 4096 afbe
00000140: 0633 0ebd f2b5 87ba 0b93 3abe 7cc6 b8be
00000150: c54f 583f ecb7 27be e615 ef3e 1a1a f23d
00000160: f4db a7bc 70d9 95be 4540 903e 5124 4a3e
00000170: 0a38 62bf 9772 f33e ad90 0c3d 0f06 a73f
00000180: 435f 2d3f 484f b53f c38c 053d a2db 8a3f
00000190: 560f 113f fbaa 48bc 35b6 643e 6a2d 4b3f
000001a0: de4d 20be 9678 dcbe cec8 913e 3792 0e3e
000001b0: 7d04 4c3e d93c 1cbe 0269 1ebf 219e 2fbf
000001c0: 47bb be3e d80f 6cbe 53bc 14bf 3dca 9abe
000001d0: 5ac0 44bf f38e b13d a663 733f b0cc dabe
000001e0: 5124 303f 3538 0e3e 32a5 8ebe d8b5 8fbd
000001f0: 1098 5fbd 3dd8 6ebd f8f4 323e 8b05 bb3d
00000200: 0fae 133f 3a02 7cbd 4c71 703c f881 7a3e
00000210: dd6e 063b 4bb7 33bf 30de bdbe 109a 6e3f
00000220: 169d 94be 6b67 3bbf 790b 8d3f 7ee4 343d
00000230: 27b6 24be 098f 3b3d cfab 113f 4cbd f7bc
00000240: 5aa2 ef3c 0d9c b73e 0415 0a3d 0b1e efbd
00000250: 2ae1 2dbf 5186 0ebe be0a 95be f9b4 803f
00000260: b92b 3c3d eef6 143f 0076 963f 3a38 4abe
00000270: 9f74 873d fb7d 0cbe dde7 563e 3667 56bf
00000280: c589 48bf e437 183e 7c1f bd3d 49eb e9be
00000290: ef21 ecbe 27a3 c9bd 2487 763c ec12 923d
000002a0: 1a54 1c3e 546e acbe e871 23be 65dc 0d3c
000002b0: d191 493e b005 5d3e 77f0 513e 585d f03e
000002c0: b4e3 35be c448 0a3e cc42 bd3e eb68 263e
000002d0: 11b8 82bb 1fa7 203f d01e 1dbf 7520 9a3d
000002e0: 1592 dcbe f1b7 e0bd 6118 bd3e 21a9 8a3c
000002f0: 8c54 033e 1254 5ebf 8b43 a8be f190 893c
00000300: cf63 943d f4f2 5fbe 968b 6a3e bf28 a6bc
00000310: 2101 763d f51b 493f b60c b1be 11b2 c93e
00000320: 0dbe 193f e4a3 5f3f 26c7 cb3e 0a05 f83d
00000330: feb5 d5be 9c37 a3be ca4a b23e 5483 87be
00000340: 852f b9bd 3a45 8f3e 4a09 a73e 4094 81be
00000350: c108 55bf 5e5d 103f 7ebe 4cbd fc95 53bf
00000360: 276e b33d d63f 623e 6f9b dfbe b510 87bd
00000370: 8455 7c3f 5b22 c8be b482 003f ea1c 403f
00000380: 0791 d83e 10ba cd3d 75d9 d7bd aa9c 5cbf
00000390: 2aa6 13be a218 923e 2a05 13be 305c 423e
000003a0: d639 de3d 2a05 ae3e a90e 293d 517d 35be
000003b0: e4a6 4d3d cad6 a93d cd80 363e a865 d63e
000003c0: bd62 913c 30d4 573e 26c1 bdbd ae18 263e
000003d0: b3d3 543f 0ca3 f73e 7abb 48bf bf9e 303d
000003e0: 044b ec3c 5931 a53d 201c 39be 9222 89bd
000003f0: def2 7d3d 8f7b 1f3f 307f f9be 6771 03bf
-0.4878872 -0.0017151533 -0.27281263 -0.24791725 0.08211659 -0.29246455 0.1650025 -0.19073848
-0.39444906 -0.4111932 -0.9022001 -0.45002824 1.2117424 0.007292363 -0.5332881 0.24882498
0.17622526 -0.38773865 -0.016983787 0.6204562 0.61832005 -0.20031 -0.17058364 -0.20569539
-0.14994065 -0.7449046 -0.87716407 -0.06231218 -0.11368102 0.25864586 -0.6038366 -1.2415506
-0.035969887 -1.874614 -0.008402088 0.2531423 -0.14217472 0.028268512 -0.039702777 -0.89598405
-0.009442658 0.535261 0.05549946 0.040993948 -0.3934381 -0.022386657 0.1711192 -0.39535737
-0.25743163 -0.01828956 0.47107163 -0.13185093 -0.18398911 -1.2611773 0.42354307 0.364337
-0.10798584 -0.035958476 0.264343 0.00356163 -0.21515235 0.25857282 0.95407075 0.29102743
0.011784411 0.035755545 0.13642378 0.014630324 -0.09400809 0.1506531 0.27876672 -0.82156473
-0.05276714 0.07690596 -0.6475257 0.035117555 -0.8713016 0.16101645 -0.17622711 -0.3429432
-0.03471663 -0.0010353907 -0.18220155 -0.36088932 0.8449672 -0.16378754 0.46696395 0.11821385
-0.020490624 -0.29267454 0.28174034 0.19740416 -0.8836676 0.47548363 0.03431766 1.3048724
0.6772348 1.416482 0.032604944 1.0848277 0.56664026 -0.012247796 0.22335131 0.7936617
-0.15654704 -0.4306075 0.28473514 0.13922964 0.19923587 -0.15257587 -0.6187898 -0.6860066
0.37252256 -0.23052919 -0.5809986 -0.3023242 -0.76856005 0.086698435 0.95073926 -0.4273429
0.68805414 0.13888629 -0.2786041 -0.07017106 -0.054588377 -0.05831169 0.1747626 0.091319166
0.5768747 -0.06152556 0.01467545 0.24463642 0.0020512857 -0.7020156 -0.37083578 0.9320383
-0.29026097 -0.7320468 1.1019126 0.04416322 -0.1608511 0.045790706 0.56902784 -0.030241631
0.02925222 0.35861245 0.03371145 -0.11675652 -0.679217 -0.13918425 -0.29109758 1.0055228
0.045940135 0.58189285 1.1754761 -0.19748011 0.066140406 -0.13719933 0.20986886 -0.8375124
-0.7833522 0.1486507 0.09234521 -0.4568732 -0.4611964 -0.09845572 0.0150468685 0.07132515
0.15266457 -0.33677924 -0.1596142 0.008658503 0.19684531 0.21584201 0.20501886 0.46946216
-0.17762643 0.1350432 0.36965024 0.1625096 -0.0039892276 0.62755007 -0.6137514 0.07525722
-0.43080202 -0.10972584 0.36932662 0.01692635 0.12825221 -0.8684703 -0.3286403 0.016792746
0.072455995 -0.21870023 0.2290481 -0.020283101 0.06005967 0.78558284 -0.3458001 0.39393666
0.6005562 0.8735945 0.39800376 0.12110336 -0.41740412 -0.31878364 0.34822685 -0.26467383
-0.09042267 0.27982503 0.32624274 -0.25308418 -0.8321648 0.5639247 -0.049986355 -0.82650733
0.08761244 0.22094664 -0.43673274 -0.065949835 0.98567986 -0.3908871 0.5019944 0.7504412
0.42298147 0.10045254 -0.105395235 -0.8617655 -0.14418855 0.28534418 -0.14357439 0.18980479
0.10850875 0.33988315 0.041273747 -0.17723586 0.050207987 0.08292921 0.17822571 0.41874433
0.017747277 0.21077037 -0.09265356 0.16220352 0.8313553 0.48366582 -0.78411067 0.043120142
0.028844364 0.08066053 -0.18077135 -0.06696047 0.061999194 0.6229791 -0.4872985 -0.51344913

bias f4 [4]
00000000: 9d21 0a3e dd3c 023f 0dc9 12bf a0fe 7fbe
0.13489385 0.5087412 -0.5733803 -0.24999475
