transformer_model_1.pt (torch, 355157 bytes, 150 tensors)

in_proj_weight f4 [21, 7]
00000000: 4339 03bf f848 8bbe 5daf 46be abd3 4c3d
00000010: 8b96 27be cbef c03d 78d5 1a3e 5e14 953e
00000020: c528 893e 6646 f0bd eff3 47be e8a1 b73d
00000030: 4eeb c23c 3c5d cebe c6e2 86bd 3b86 b63e
00000040: 3122 78be 776a 933e 5901 c1be da62 cf3e
00000050: 550b 15be 3a91 4f3e b68e 81be 2ca1 bcbe
00000060: 294d 28bd 24ed a8be 464b d13e 2008 08bd
00000070: b131 903e cec2 093e 5b97 063d 1ce6 0dbe
00000080: 82ff d3bd 96dd 8abe 1475 0cbf 4f74 eebd
00000090: 7367 203d db42 14be 6dd7 abbe 98f4 47be
000000a0: a52d 703e 8e73 d83e d765 243e 01b6 83be
000000b0: 41c7 c73e e4c2 7a3e 2506 dfbe 1b38 663d
000000c0: bf3c 3c3e 02a0 7b3e 0c86 b5be 2497 503e
000000d0: 08c6 41bc fe77 4a3e 625c 3bbe 8ccd 593e
000000e0: f277 36be 941b 88bd 5a15 afbe 27b7 993d
000000f0: 6c84 873e 8b49 2c3e 4358 d43d 85f5 c33c
00000100: afef 8e3e 1032 b13e cf14 603e d441 9e3e
00000110: 85a4 913d 3c98 a43e 1f01 153d 8e0c eb3e
00000120: 5263 b2be 9937 8c3e 8e06 cf3d ebfa 0c3e
00000130: 0b27 aabe 3c2c 2fbe 06d3 933e 236d 7ebe
00000140: e8c3 cf3e 30ce 3e3e c5d9 d23e 9da0 f5be
00000150: aff8 9d3d 3f62 f53c 3c96 4fbe 88c8 17be
00000160: 10c4 e3be 4abd f93d 252d f23e 5664 d2be
00000170: f2f5 afbe 79dd 93be d0ba e03d fd5b ae3d
00000180: cd57 613e 51fa e13e 7710 3dbe b875 a7be
00000190: 1fef 07bd e119 c53e 0510 f6be 0a4f 20bf
000001a0: 560b 6c3e 2dd1 6f3e e5bf 97be fe89 623e
000001b0: 3d56 1abe c2a6 a63d e41c a93e 411e aebe
000001c0: 0dcb 17be 6374 5d3d c0d8 74be b66e 523c
000001d0: 66e3 4cbe 2c18 d0be bf8d 5cbe 4752 1a3e
000001e0: 3c5b f7be 08b8 143e d342 3cbe e983 50bd
000001f0: deee 30be 376b c13e 9b32 133e c309 4cbe
00000200: 5f85 2a3d 9c1e 2d3f c10e 7bbe 5fca c6bd
00000210: 644f d2be 0630 993e 4e4f 973e 96df c6bc
00000220: 9c9e 933d d82b 8a3c bc0e 133e 42ce 08bf
00000230: c2c2 4fbb 18d5 043e 78c6 b4be da58 bd3e
00000240: 160a 8d3e 1cce 5a3d 63fc 373d
-0.5125925 -0.27204108 -0.19402833 0.05000655 -0.16366021 0.09420737 0.15120494 0.291171
0.26788917 -0.117321774 -0.19526647 0.08966428 0.023793843 -0.40305507 -0.06586222 0.35649285
-0.24231793 0.28792164 -0.3769634 0.40505105 -0.14555104 0.20270243 -0.25304192 -0.36841714
-0.04108921 -0.32993424 0.40877742 -0.033210874 0.28162912 0.13453218 0.032859188 -0.13857311
-0.103514686 -0.27122182 -0.5486615 -0.11643278 0.039161157 -0.14478628 -0.33562794 -0.19526899
0.23454912 0.4227566 0.16054474 -0.25724795 0.39019206 0.24488407 -0.43559375 0.05620585
0.18382548 0.24572757 -0.35453832 0.20370156 -0.0118269995 0.19772336 -0.1829696 0.21269816
-0.17819193 -0.06645885 -0.34195977 0.07505637 0.26468217 0.1682493 0.10368397 0.023920784
0.2791724 0.34608507 0.21882938 0.30909598 0.07111458 0.32147396 0.036378022 0.45908016
-0.348414 0.27386168 0.10108672 0.13767593 -0.33232912 -0.17106718 0.28871936 -0.2484632
0.40579152 0.18633342 0.4118177 -0.479741 0.07713448 0.029954074 -0.20272154 -0.1482259
-0.4448552 0.12194307 0.47300068 -0.41092175 -0.3436733 -0.28879908 0.10973132 0.08513639
0.2200615 0.4413629 -0.18463312 -0.32707 -0.033187028 0.38496307 -0.48059097 -0.62620604
0.230512 0.23419638 -0.2963859 0.22122952 -0.1507196 0.08137275 0.33029854 -0.34007457
-0.14823551 0.054066073 -0.23910809 0.012843778 -0.2000862 -0.40643442 -0.21538447 0.15070449
-0.48311794 0.14523327 -0.18384866 -0.05090705 -0.1727862 0.3777711 0.14374773 -0.19925599
0.0416311 0.6762483 -0.24517347 -0.09706568 -0.41076195 0.2991945 0.29552692 -0.024276536
0.07207987 0.01686661 0.1436109 -0.53439724 -0.0031701778 0.12971914 -0.3530767 0.3698185
0.27546757 0.053419217 0.04491843

in_proj_bias f4 [21]
00000000: 11a9 e6bc 37ab cb3c 331e c1bd f3ba 94bd
00000010: f200 193d 4b35 84be 8497 7d3c c840 c730
00000020: 14b6 dd30 c000 19b0 c386 9baf e715 d430
00000030: 0085 1fb0 6398 c32f 4db6 a9bd 091f 3cbd
00000040: 61a9 9d3d 0f84 dd3d 59c7 7d3d fd26 fa3d
00000050: df5e 023d
-0.028156789 0.024861915 -0.09429588 -0.0726222 0.037354417 -0.2582191 0.015478019 1.4497568e-09
1.6131616e-09 -5.566214e-10 -2.829009e-10 1.5431255e-09 -5.803287e-10 3.557857e-10 -0.08286724 -0.045928035
0.07698322 0.10816204 0.06195769 0.12214468 0.031828757

weight f4 [7, 7]
00000000: 1e74 0fbd 2e1d b63e 7d23 eebe c7ec f4be
00000010: f826 42be 19e4 6cbe d7a4 c5be 5813 f8be
00000020: b50d 953e 40d2 2e3e 2021 623e 08e1 d1be
00000030: b0dd e33e 857c 18bd 1918 dbbe 6b8f bd3e
00000040: 4d3e 193e 03ea c03e 469a 0f3f 6936 9e3e
00000050: e591 a23e d954 6d3e 95d5 75be 6414 a23e
00000060: dcad d1be 862d 173d e916 d6be 16cb 20bf
00000070: adea 20bf dffc 0ebf 3c1d 3ebe 5d66 003f
00000080: 2bca 2c3f 1877 243f 31f8 dcbe a91a 20bf
00000090: b9aa b3be e79e 7fbe 999f 053e abf6 093e
000000a0: 39ea 973e ed47 bcbe 61c4 f3bd f11a fa3e
000000b0: c836 9ebe c08e 3c3e 7c2f 013f 51ce c83d
000000c0: d6a2 593d
-0.035022847 0.35569137 -0.4651145 -0.47836897 -0.18960178 -0.23133887 -0.38602325 -0.48452258
0.2911202 0.17072392 0.22082949 -0.40991998 0.44505072 -0.037228126 -0.42791823 0.37023482
0.14965172 0.37678537 0.5609478 0.30900887 0.31751934 0.23176898 -0.24007256 0.31656182
-0.40952957 0.03690865 -0.41814354 -0.62809885 -0.62858087 -0.558546 -0.1856584 0.50156194
0.67495984 0.6424422 -0.43158105 -0.6254068 -0.3509119 -0.2496296 0.13049163 0.13473003
0.29670885 -0.36773625 -0.11902691 0.4884868 -0.3090117 0.1841383 0.5046308 0.09804977
0.053133808

bias f4 [7]
00000000: ad4f 7fbc c656 543d f2bc dd3d dba7 4dbd
00000010: 580b 083e 7bba cebd 2421 0dbe
-0.015582961 0.051840566 0.10827054 -0.050208908 0.13285577 -0.10094162 -0.13782173

weight f4 [512, 7]
00000000: 7d46 ab3d 2e33 803d dee3 0c3d 8dbc d6bd
00000010: c88c 4a3c f411 9fbd 28b0 a03c 472c 96bd
00000020: 6e4c 963c cad1 ddbd 3e74 643d bfe7 b03d
00000030: d04a 863d 62e4 e0bc c01c 363d 1e20 28bd
00000040: 28af dcbc d46f c43d 0cfc 083d a4f9 373d
00000050: c633 873d 1528 53bb eb61 ff3d cbc5 483d
00000060: 0bce e8bd 03a7 7bbd d1f3 aa3d 925f c23c
00000070: 14d3 603c 1b25 d8ba f2b8 a8bc 04ca 82bd
00000080: e2a4 b53b cd62 5ebc 5966 c73d ec21 90bb
00000090: 2eec b83d 0b99 b2bd d495 d5bd acf5 c9bd
000000a0: e04a 5dbd 2ac1 4b3d 4c23 edbd 8b3e 42bd
000000b0: 65f2 b2bd 8d11 4fbd 1aff dc3d a8fb 5dbc
000000c0: d47f 2dbd 02a4 c23d 86d2 91bd 2208 903d
000000d0: 96f8 423c ce60 70bd ff61 82bd c964 09bc
000000e0: 8f4e 563d e999 e33c eba0 c3bd 4f23 d23c
000000f0: fddf d13d aefc 3cbd 8408 d63c b212 7d3c
00000100: 3236 c13d c634 ce3d 94be 883d 5154 e5ba
00000110: 16aa 6c3d 2baf d1bd f842 f7bc bb52 153d
00000120: bfce 83ba 72b1 dcbd fce5 973c e1d6 6fbd
00000130: c31f d0bd 9d7a 54bb ba65 a1bd c801 953b
00000140: f9a1 d13a aa7b 2bbd 739e cfbd 7217 6ebd
00000150: b442 7ebd 758d a1bd 071c e0bd 35e5 bebd
00000160: 7b5c 493b cd62 ce3c c3b9 e3bc b9bb d63c
00000170: 1cf6 d83b e8bd b1bd 1926 8fbc 69f4 c53d
00000180: 55b1 993d a781 183d 7937 393d 7731 94bd
00000190: a489 a3bd 62bb c43c 5051 a9bc ea9b 6dbb
000001a0: ea3c d03c b128 d1bd 7d79 11bc 0aeb 71bd
000001b0: 6675 ccbd 53c5 913d 3df5 d13d 7f75 4fbd
000001c0: 571d a3bc 1ce7 4abd 2d99 993d c33c 8a3c
000001d0: 0418 c73d 880c 53bd 145b 273d 977a 6e3d
000001e0: ce98 bbbd 3230 6bbd 717f e1bd 60f4 2bbd
000001f0: e19a a43d df4c e1bd 5dd4 c8bd df44 bebd
00000200: 21e6 84bd 021f 75bd d7bd 02bd 30c5 97bd
00000210: dc81 54bd 909b 95bd f0b3 b0bc a913 513d
00000220: 6d8d 223c 0a96 ba3d 8e0d 91bd e044 0ebd
00000230: 94a6 90bd 4d15 a33d 130e 573d d971 58ba
00000240: d660 813c ca67 9fbd 8374 f8b7 8700 b03d
00000250: a888 cc3c 8d06 a03c 8875 a13d b255 bb3c
00000260: 42d9 d43b 06ee bebd 5097 5cbd a955 823d
00000270: 7250 d8bd 1259 f7bc ea09 5dbd f728 2dbd
00000280: 60a4 b13d 6fcd 9cbd 2040 bf3b a775 a63d
00000290: e3b0 973d 1674 fdbc 9ae1 95bc dbba d83c
000002a0: 6e10 ba3d a453 84bc 4aa3 cf3d 1654 073c
000002b0: debc c23b 496f b3bd 2bd1 2ebb cc5c 893c
000002c0: 12c5 6cbd 407a 8d3b 7e25 babd 4dd6 87bd
000002d0: 4e5a 2abd e8b0 073c 69ef 11bd cf2a e93c
000002e0: e0df 4b3d fa3c 9d3c b1d8 b6bd 61db 48bc
000002f0: 0e9b 4fbd 6f16 88bc 5e0d b93c 5d30 cabd
00000300: 8fa7 b7bd 8efc 59bd da44 6eba 6504 7a3d
00000310: 7653 b8bd 088b bdbc 55ec bfbd 36a1 553b
00000320: 008f 753c 71d4 d3bd 9254 d2bd 6460 c0bd
00000330: 81f1 acbd 8415 d2bb be74 043d 5254 193d
00000340: 18b6 073b c65b 9d3d 1415 d23c 20fb 80bd
00000350: 089d d93d 98bf 383d bd2c 803c 3626 2ebd
00000360: d6ab dfbc 6a1f 03bd 8e63 bcbc f0e6 2b3d
00000370: 4d92 3c3d dbdc 903c 37b3 92bd c011 39bd
00000380: d34d 5ebd e84e 553d 18d3 503d 4b33 0ebd
00000390: fa24 9c3d fcc9 dcbd 9f3e 6d3d 4794 033d
000003a0: 9cdb 823c da78 913d 8e11 2e3b b3ed 10bd
000003b0: f6f6 b63d e1eb 1fbc 381c 9c3d 5088 843d
000003c0: e233 b23d e19b 053d 492f e6bd d52d aa3d
000003d0: 2a3b 923d ca26 a9bd 2b3c 363d 9fc7 d2ba
000003e0: d2c2 6cbd 8137 1bbd f567 efbb 1e73 31bc
000003f0: 645a d5bb b7a7 04bd 809d 8b3d 3985 803d
0.08363054 0.06259762 0.034397 -0.10485182 0.012362666 -0.07767096 0.019615248 -0.07332664
0.018346991 -0.1083103 0.05577492 0.08637952 0.06557238 -0.027452651 0.044461012 -0.041046254
-0.02693899 0.09591642 0.033443496 0.04491581 0.06601672 -0.0032219936 0.12469848 0.049016755
-0.113674246 -0.06143857 0.083472855 0.023727212 0.0137222 -0.001649055 -0.020596001 -0.06386188
0.005543337 -0.013573361 0.09736318 -0.004398575 0.09029423 -0.08720597 -0.10428968 -0.09861311
-0.054026484 0.049744762 -0.11578998 -0.047422927 -0.08737639 -0.050553847 0.10790844 -0.013548769
-0.042358235 0.09503938 -0.07120232 0.07032801 0.011900088 -0.05868607 -0.063663475 -0.008385845
0.052321013 0.027783351 -0.09552177 0.025651602 0.102478005 -0.04613941 0.026127107 0.015446352
0.09434165 0.100686595 0.06676975 -0.0017496442 0.057779394 -0.10238489 -0.0301833 0.03645585
-0.0010056122 -0.107760325 0.018542282 -0.058554534 -0.10162308 -0.0032421716 -0.07880731 0.0045473315
0.0015993706 -0.041865982 -0.10137644 -0.058127828 -0.06207533 -0.07888309 -0.10942846 -0.093210615
0.0030725289 0.025193596 -0.027798539 0.02621256 0.0066211354 -0.086788 -0.017474221 0.09665758
0.075045265 0.03723302 0.04521892 -0.07235997 -0.07985237 0.024015132 -0.020668656 -0.0036256262
0.025419671 -0.102128394 -0.008879063 -0.05906204 -0.099833295 0.07117715 0.102518536 -0.050649162
-0.019911451 -0.04953681 0.07499919 0.016874677 0.097213775 -0.051525623 0.040858343 0.05822238
-0.091600046 -0.05741901 -0.11010636 -0.0419811 0.08037353 -0.1100099 -0.0980613 -0.0929048
-0.06489206 -0.059844024 -0.031919327 -0.074106574 -0.051881656 -0.07305062 -0.021570176 0.05104414
0.009921414 0.09110649 -0.070826635 -0.034733653 -0.07063022 0.07963047 0.052503657 -0.0008256711
0.015793245 -0.07783468 -2.9618159e-05 0.085938506 0.024967507 0.019534374 0.078837454 0.022868011
0.0064956257 -0.09322743 -0.05385524 0.06363995 -0.10562219 -0.03019384 -0.053964533 -0.042275395
0.0867393 -0.07656371 0.0058365017 0.08127909 0.07406785 -0.030939143 -0.018296052 0.026456287
0.09085165 -0.016153164 0.10138567 0.008259794 0.005942925 -0.0876146 -0.0026674967 0.016767882
-0.05780513 0.004317552 -0.09089182 -0.066326715 -0.041590028 0.008281924 -0.03562871 0.028462796
0.04977405 0.019194115 -0.08928049 -0.012259335 -0.05068498 -0.01661226 0.022589382 -0.09872506
-0.08967506 -0.05321937 -0.0009089239 0.061039347 -0.09000294 -0.023137584 -0.09371249 0.003259731
0.014987707 -0.10343254 -0.10270037 -0.09393385 -0.08444501 -0.0064112563 0.032337897 0.03743393
0.0020707902 0.0768352 0.025644816 -0.06297898 0.106256545 0.045104593 0.015646333 -0.04251691
-0.027303617 -0.03201238 -0.02299669 0.041968286 0.04603796 0.017683437 -0.07163089 -0.045182943
-0.054273438 0.052077204 0.050982565 -0.034716886 0.0762424 -0.10780713 0.05792105 0.03212383
0.015973859 0.07103129 0.0026560756 -0.035382938 0.08933823 -0.009760828 0.0762257 0.06471312
0.08701302 0.03261936 -0.11239488 0.08309523 0.07140191 -0.082593516 0.044490974 -0.001608122
-0.057802983 -0.03789473 -0.007306094 -0.010830669 -0.0065110195 -0.032386508 0.0681715 0.0627541

bias f4 [512]
00000000: 3544 c73d 7c1e dc3d d0f1 b5be 08a3 3dbe
00000010: 9763 02be f519 bfbd f4cd 243e c6da 74be
00000020: f913 91bd 7290 40be a9e3 92be 05f1 033b
00000030: ce47 9f3e cc56 5dbc dd98 f9bd 7f10 8dbe
00000040: ea15 a53b 698b a53e db31 c7bb 7523 88be
00000050: ef45 b7be 678f 543d 4746 e73d 3387 93be
00000060: 473a 09be 268e a4be 01d3 733e 1f65 b4be
00000070: fef7 a9be fe2a 9cbe 7fdc d7bd 6f33 173d
00000080: 0aa5 5b3e 0215 6e3e 38a1 17be 7c33 413d
00000090: 13dd 71bd 05da a1be 2e5a f2bd c3df 9e3e
000000a0: 5573 153d c238 7c3d f308 0c3e 09ec ba3c
000000b0: 2a83 f63d 7109 613e a09d 373c f46b 8abe
000000c0: e39e 273e 2f1e cb3d 566b 7d3e a9ea bebd
000000d0: c85d 17be c82a c5bc 97ed 6bbe 18cf bb3e
000000e0: 5514 b93e 5d66 9a3e 2964 5d3d 01ba 883e
000000f0: 201f 243e 3218 3c3d 8838 2cbe b47d 843e
00000100: 8a58 103e 50e3 e43d 3d3a aabe 40b6 80be
00000110: 7e8e 5e3e de0f 1ebe b846 7bbe f125 a6be
00000120: fa5e 67be 5232 88be 418b 80be 5653 24bd
00000130: f019 0f3e 4a7b 0bbd 04bd 213d 6021 15be
00000140: 26a4 ba3e f9d2 813d 02b4 ff3d 90bd babc
00000150: 5df6 ae3e d6b6 75be d167 a33e 3b65 96bd
00000160: 4582 6ebe 1686 5cbe 83a3 94be 1ec7 8a3e
00000170: e9ba 273b 0453 0a3e 738b 3dbe 3d7e 403e
00000180: ddf6 683e 28d9 b03d c7f3 79be ad87 9abe
00000190: 5c05 3a3e 0279 623e 484c 1d3d e35a 153e
000001a0: acf9 1cbe 6154 c1be 12b6 863c 541a 06be
000001b0: bb25 ba3e f634 adbe c57c 00bd 6d4c 5e3e
000001c0: b400 d53d 1cf7 7abe 775b f0bc 24ba 3a3d
000001d0: cad7 32be d55e 993e 0dd0 61be 5b40 e3bd
000001e0: 9014 a93e 77bf a43e 286a aa3e 6b93 72bd
000001f0: 4a3f 683e 1178 a93e 35b0 8ebe a574 9e3c
00000200: a0e4 823e 831a b93e 1946 59be 2430 48be
00000210: 348c db3c c461 b73e 46ba 653e 5c84 a53d
00000220: 5c57 82be bf56 273e ea52 d43d 8817 05be
00000230: c9b5 343b 8126 e13d b8bb 44be cbbf 813e
00000240: c30f 923e cd81 16be 8cf4 723e c1de 4bbe
00000250: 70d8 533d ea25 8c3e af1c 9f3e 12c5 133e
00000260: 4762 823d b873 3f3e 7425 c3bd 349c 05be
00000270: 97a7 9a3e 3ab5 aebc f451 3b3d 1d93 3c3e
00000280: af0b 38bc 2738 e0bc 06cb a83e 123e 83be
00000290: a89f b8be dc52 b1be 070f ba3e 6a5e 0f3e
000002a0: 4d64 383e 5215 bebe faf3 50be a098 b0be
000002b0: 893c 803e 7137 1b3e 2e3c 193c fc50 8e3e
000002c0: 6bb7 943e b13d 5ebe ec2c 48be acd5 8fbb
000002d0: 86b4 b9be 3273 bb3d 5607 b9bd d563 9c3d
000002e0: ffb4 653e 38d3 963e d633 72be aec9 be3d
000002f0: f0f6 693e 303b 583e fa66 3f3d 8ee7 87be
00000300: e0e1 983c 5369 063e d5b9 33bd 751f 61be
00000310: 88d9 2b3e 44cf 59bd 708f 8c3e e290 74bd
00000320: 9e19 753d bdd0 65be e60e 813d 2883 923c
00000330: 9d11 bf3e 7bfc 8b3d e406 cd3d 75cd 49be
00000340: a52d 9f3e 23d9 3ebe 1cd2 7cbe a429 3e3e
00000350: b64e 42be 29b6 353e ff21 30bd 17e1 873e
00000360: da01 113d bd5f 883e 044b 5fbc b823 8e3c
00000370: 7ef0 a23e faa1 a0be 1798 043d baa9 033d
00000380: 2761 d4bd 9fd8 a03c 1aab 463e 904a be3e
00000390: ea57 18be f0a9 79be 9025 7abe 5466 dabd
000003a0: 6fd9 a8be e99d 483e a06c 80bd 43e6 b03c
000003b0: dd90 483e b888 833e 60a6 6bbe 264a 9ebe
000003c0: 2a66 093e 6cc7 703e e2c1 a03e 825e 803e
000003d0: 2e11 023d 59c5 f0bd 347d 4e3e fccf 3fbe
000003e0: 9cb3 e4bd d36e 20be a3d6 17bd d549 5cbe
000003f0: 91fa 9b3e 4196 afbe fe8e b03d 1768 38be
0.09729806 0.10748002 -0.3553605 -0.18519223 -0.12733303 -0.09331123 0.1609419 -0.2391158
-0.070838876 -0.18805102 -0.28689316 0.0020132673 0.3110947 -0.0135094635 -0.121873595 -0.27551648
0.0050380128 0.32332924 -0.0060789413 -0.26589552 -0.35795543 0.05189457 0.11292701 -0.28814086
-0.13401137 -0.321397 0.2381096 -0.352334 -0.33197016 -0.3050155 -0.10540103 0.036914285
0.21449676 0.23250201 -0.14807594 0.04716824 -0.059048723 -0.31611648 -0.11833607 0.31030092
0.036486942 0.061577566 0.13675289 0.022817628 0.12036736 0.21976258 0.011207014 -0.27035487
0.16369204 0.099178664 0.24747977 -0.093221016 -0.14781868 -0.024068251 -0.23039852 0.36681437
0.36148325 0.30156222 0.0540506 0.2670441 0.16027498 0.045921512 -0.1681844 0.25877154
0.14096275 0.11176169 -0.33247557 -0.25139046 0.21734044 -0.1543574 -0.24538696 -0.32450822
-0.22594824 -0.2660089 -0.25106242 -0.040118538 0.13974738 -0.034053124 0.0394869 -0.14563513
0.3645336 0.06339068 0.12485506 -0.022795469 0.34172335 -0.23995528 0.31915143 -0.07343527
-0.23291881 -0.21535525 -0.29031 0.2710504 0.0025593585 0.1350823 -0.18510227 0.18798156
0.22750421 0.08635169 -0.244094 -0.30181637 0.18166107 0.22116473 0.038402826 0.14585452
-0.15329617 -0.37759688 0.01644424 -0.13095981 0.3635691 -0.33829468 -0.03136899 0.21708842
0.10400525 -0.24508327 -0.029340489 0.045587674 -0.1746513 0.29955164 -0.22052021 -0.11096259
0.330235 0.32177326 0.33284116 -0.05922262 0.22680393 0.33099416 -0.2786881 0.01934273
0.25565052 0.3615304 -0.21218146 -0.19549614 0.026800252 0.35816777 0.22434339 0.08081886
-0.25457275 0.16341685 0.10367377 -0.12997258 0.0027574173 0.10993672 -0.19212234 0.2534164
0.2852765 -0.14697953 0.237261 -0.19909193 0.051720083 0.27372676 0.3107657 0.14430645
0.06366401 0.18696487 -0.09528628 -0.13047868 0.30205986 -0.02132665 0.045732453 0.18415494
-0.011233254 -0.027370526 0.32967395 -0.25633293 -0.36059308 -0.3463353 0.3633959 0.1400086
0.18007012 -0.3712564 -0.2040557 -0.34491444 0.25046185 0.15157868 0.009352727 0.2779616
0.29046187 -0.21703221 -0.19548386 -0.0043894853 -0.3627054 0.09152831 -0.09034602 0.07636229
0.22432326 0.29458022 -0.23652586 0.09315811 0.22848105 0.21116328 0.046729065 -0.2654385
0.018662393 0.13126116 -0.043878395 -0.21984656 0.167822 -0.05317618 0.27453184 -0.059708484
0.059838884 -0.22442909 0.0630167 0.017884806 0.37318125 0.06835266 0.1001108 -0.19707282
0.31089512 -0.18637519 -0.24689525 0.18570572 -0.18975338 0.1774527 -0.04300117 0.26538917
0.035402156 0.26635543 -0.013628725 0.017351016 0.31824106 -0.31373578 0.032371607 0.032144286
-0.10370093 0.019634543 0.19401208 0.37166262 -0.14877287 -0.24381232 -0.24428391 -0.10664049
-0.3297839 0.19591488 -0.062707186 0.021594172 0.19586511 0.25690246 -0.23012686 -0.30915946
0.13417879 0.23513573 0.3139792 0.25072104 0.031754665 -0.11756391 0.20164949 -0.18731683
-0.1116707 -0.15667276 -0.037069928 -0.2151254 0.30464604 -0.34294322 0.086210236 -0.18008457

weight f4 [7, 512]
00000000: 36e6 8b3d 130b 49bd 06a1 d83d b2b1 d23d
00000010: 11df a23d e49d 293d 875e 4e3d 2ae2 16bb
00000020: 9209 bfbd d53c 9abd a028 c43c 4b40 bd3d
00000030: f030 58bc 8c9b b3bd c4b9 8bbc f922 59bb
00000040: 61c8 8ebd 3db8 203d 6c05 753d b795 b23d
00000050: 53b6 383d f150 c3bd 1018 223b 6a65 d9bd
00000060: dd68 0d3d 3884 abbc 976d 8cbd e0db 473c
00000070: ad2a d73d 9908 413c b69c c33d d63e b2bd
00000080: 7f1b 5fbc 896b e13c 32ec be3d 4cae 43bc
00000090: 839f ba3c 5320 0c3c a4a9 06bc b0ab 9bbd
000000a0: 2e18 ce3c d488 9f3d 009d 2dbd 5041 a9bd
000000b0: efbc 78bd 60bf d83d d7b3 24bc 98cb d73c
000000c0: 6b20 a33d c88e 5dbd 1cce ab3d d656 e0bd
000000d0: fbaa 493d ded7 2bbd 5806 efbc 4f3b e83d
000000e0: 80b8 e03c 02bf d53c f32f e33d 54ee 87bc
000000f0: 6a1a b53d 5aca 4ebd 5c08 a9bd 3b8e 8d3c
00000100: 5aa8 bd3b 8005 c3bd 5703 d13c e445 1c3c
00000110: 8d71 e9bc 94ce 53bc 1c39 7c3d 0087 4b3a
00000120: dd5c cb3c da30 d03d 0343 a8bd ed3b c33d
00000130: fe3a a8bd b191 073d 8d37 923c 2937 cf3d
00000140: 3e5a 533d 11fa 583c 4dea 183d f504 a93d
00000150: 222c 283d f502 8a3d 8163 8d3d bd87 41bd
00000160: 0b1d 9cbd 7a6e 09bd 15d9 573c 810f 5f3d
00000170: ee20 83bd b09e f6bb 9634 b03d 0163 11bd
00000180: 12df a73d ffa4 c9bd 6421 ed3c be5e d73d
00000190: 08e1 a1bd 8309 98bc ddae 4b3d 7bcb 2ebd
000001a0: 5e54 07bc 718b b33d c62e 62bd 4543 1f3c
000001b0: 1987 49bd 7cbe b1bd e318 bdbc 9bb7 bb3d
000001c0: 4bb8 09bc fe81 db3d a9f5 41bd e009 8b3d
000001d0: 762f aabd 99cc 92bd 14d0 383c 4e13 cd3b
000001e0: 1bba 6b3d 5de4 a23d 2d7f aabc 2fac d63b
000001f0: c7a0 613d 7be7 763d f474 763b 2823 0a3d
00000200: f2d3 063d c534 59bd 3d51 c1bd 7264 b43d
00000210: 44c6 16bc aea5 613d f67f dc3c 38e9 873d
00000220: fe97 89bd 59dd a13d 668b dc3d 1ef6 cc3d
00000230: c927 743d 7251 7abd 26a9 c0bd 0447 7e3d
00000240: 76a3 9cbd 39bf 8abd 1f12 52bc eadb cebd
00000250: f415 403d 0955 98bd 0667 a2bd 820f 00bc
00000260: 2350 39bd c095 ac3d 3d60 093c da43 ce3d
00000270: 3222 933d 1b9c 92bc de24 a0bc 13c4 973d
00000280: 0e66 64bd 0ce6 debd 8af7 b0bd 085c 06bd
00000290: bd98 873c 025a 383d 8b77 1fbd eae8 643d
000002a0: ff5b a63d c81e c23d 3c3f 39bc 74f0 a5bc
000002b0: ac9a f5bc e188 14bd d49a 763d 4d5f e33d
000002c0: 2a7c 423d 7f85 cbbd 9434 583d 56ed 6fbd
000002d0: fcae c63d 4d63 ce3d a715 dc3d cfa6 ddbd
000002e0: d869 963d 18d0 e13d 2839 8a3d aa6f 6fbc
000002f0: c0a2 b8bd 904e 7e3d dd2a cebd b40a 703d
00000300: 0a50 0fbd d93c 16bd ead2 97bd c022 d6bd
00000310: be08 7e3d 91de 1fbd a769 babd 6eff 0dbd
00000320: f18e e73c 1adf c23d 715d d1bd 1c63 95bd
00000330: c447 d8bc 25d8 c83d 1b81 dfbd 84f5 cc3d
00000340: 6536 34bd da27 14bd 6df3 38bc a0bb ab3d
00000350: 42a2 15bd 2765 983d ac54 b63c a7cb 8abd
00000360: 2546 24bd db95 dfbd 83d8 b2bd 6f91 d13d
00000370: 9d5c 363d 90d9 003d ae25 843d 9f0b bcbd
00000380: 89fa bc3d 114a bf3d d412 493d c69c b4bc
00000390: 9e4d 0f3c 8440 9fbd 9bec 9d3d 6af9 b53d
000003a0: a45c b03d 0983 cdbd ae97 c03d 2daf 93bd
000003b0: c36f b4bd 1c99 2a3c a122 bcbd 9f9f 583d
000003c0: 348f e63c ba1c 0fbd c5ce 70bd 432c d0bd
000003d0: b687 b23c 0198 aebd f9cb c5bd ee18 0b3d
000003e0: d75f 513d cab7 e5bc db3b 2c3d 31cb d3bd
000003f0: 5677 95bd 6c40 85bb d70d ca3c c52f 5039
0.068310186 -0.049082827 0.10577588 0.10287799 0.07952703 0.04141034 0.050383117 -0.0023022988
-0.09327997 -0.07531134 0.023945153 0.092407785 -0.013195261 -0.087699026 -0.017056353 -0.0033132418
-0.06971813 0.039238203 0.059819624 0.08719962 0.045095753 -0.09536923 0.002473358 -0.10615046
0.034523834 -0.02093707 -0.0685684 0.012198418 0.10506187 0.011781835 0.095513746 -0.08703391
-0.013617395 0.027517097 0.093223944 -0.011943411 0.02278114 0.008552629 -0.008219156 -0.07601106
0.025158014 0.0778977 -0.042386055 -0.082644105 -0.060727056 0.10583377 -0.010052643 0.026342198
0.079651676 -0.054091245 0.083889216 -0.10954063 0.049235325 -0.041953914 -0.02917783 0.11339437
0.027431726 0.026092056 0.1109313 -0.016593136 0.08842929 -0.050485946 -0.082535475 0.017279735
0.0057878913 -0.095225334 0.025514288 0.009538148 -0.028496528 -0.01292767 0.0615779 0.0007763952
0.024824554 0.10165568 -0.082159065 0.09532914 -0.08214377 0.033097927 0.017848754 0.10117943
0.051599734 0.013243214 0.03733282 0.082528986 0.041057713 0.06738845 0.069037445 -0.04724859
-0.07622727 -0.033552624 0.013174315 0.054458145 -0.06402765 -0.0075262412 0.0860378 -0.035494808
0.08196844 -0.09845924 0.028946586 0.105161175 -0.079042494 -0.018559223 0.04972731 -0.042674523
-0.008259861 0.08766831 -0.055220388 0.009720628 -0.049201105 -0.0867891 -0.023083156 0.09165879
-0.008405755 0.107181534 -0.04735342 0.06788993 -0.08309834 -0.0716793 0.011280078 0.006258405
0.05755053 0.07953713 -0.020812595 0.0065512876 0.05508497 0.06027935 0.003760633 0.033724934
0.03291697 -0.05302884 -0.09439323 0.08808221 -0.009202544 0.055089645 0.026916485 0.0663628
-0.06718443 0.07903547 0.10768776 0.10007881 0.059608255 -0.06111283 -0.094072625 0.062079445
-0.07648365 -0.06774754 -0.012821703 -0.10100539 0.046895936 -0.07438094 -0.079298064 -0.007816197
-0.04524244 0.08427 0.008384761 0.100715354 0.071842566 -0.017896703 -0.01954883 0.07410445
-0.05576139 -0.10883722 -0.08640964 -0.03280261 0.016552323 0.045007713 -0.038932364 0.055886187
0.081230156 0.09478527 -0.01130658 -0.020256259 -0.02998098 -0.03626335 0.06020625 0.111021616
0.047481693 -0.09937572 0.052784517 -0.05857595 0.09701344 0.10077534 0.10746317 -0.10822832
0.07344407 0.11026019 0.06749183 -0.014614025 -0.09015417 0.06208664 -0.10066769 0.058603957
-0.03498844 -0.036679123 -0.074132755 -0.10455847 0.062020056 -0.039030615 -0.09102183 -0.034667425
0.028266402 0.095152095 -0.10222901 -0.07294294 -0.026401408 0.09806851 -0.10913297 0.10007766
-0.043997187 -0.036170818 -0.011288506 0.08385396 -0.036531694 0.07441168 0.022257172 -0.06777125
-0.040105958 -0.109172545 -0.087327026 0.102328174 0.044521917 0.031457484 0.06452499 -0.09181904
0.09227473 0.09340299 0.04909022 -0.022047412 0.008746533 -0.07775977 0.077111445 0.088854626
0.0861142 -0.100347586 0.094039306 -0.072111465 -0.08810379 0.010412481 -0.091862924 0.0528866
0.028144456 -0.034939505 -0.05879094 -0.10164692 0.021793228 -0.08525086 -0.09658045 0.03395932
0.05111679 -0.028041739 0.04204927 -0.1034149 -0.07298152 -0.0040665176 0.024664802 0.00019854221

bias f4 [7]
00000000: dc51 85bc 0fa0 1abc f475 c03c 3245 183d
00000010: 5e8c 473c cb74 a2bc 9242 f63c
-0.016274385 -0.009437575 0.023493744 0.037175365 0.012179462 -0.019831082 0.03006104

weight f4 [7]
00000000: 5188 873f 3cb0 7d3f 0a31 7b3f 4827 723f
00000010: e537 893f 4d2a 623f 0669 943f
1.0588475 0.9909704 0.981217 0.9459119 1.0720183 0.88345796 1.1594551

bias f4 [7]
00000000: 3891 1a3d 5f86 cabc 6e73 e13c 0559 253d
00000010: 05c7 2ebd 22e3 b039 892d f5bb
0.037736148 -0.024722276 0.027520861 0.0403681 -0.04267027 0.00033738563 -0.007482235

weight f4 [7]
00000000: db8d 853f d2c5 853f 990e 793f af62 7b3f
00000010: 170f 8e3f 5d4f 823f 8e38 7f3f
1.0433916 1.0450995 0.972879 0.98197454 1.1098355 1.018047 0.9969567

bias f4 [7]
00000000: ce6c a83c 9608 bf3c 9878 963d 1c03 56bc
00000010: 5593 f73c adb2 ec3b 4808 54bd
0.020559695 0.023319524 0.0734722 -0.013062265 0.03022162 0.0072234483 -0.05176571

in_proj_weight f4 [21, 7]
00000000: ab48 95be 2cb9 443e c6a1 46be 2498 9bbe
00000010: 6cfe a6be 3979 90bd a6d8 dfbd d0d3 953d
00000020: 56df edbd 19aa d7bd 7244 d53e 1d7c ccbe
00000030: 1e25 da3e 8052 7b3d 9688 90be ceaa 43be
00000040: 630b afbe 851f 473e 327d b63e 7948 3f3e
00000050: 686b 1cbe 10c7 813a 0465 9bbe a659 8cbd
00000060: 0414 0ebe a2cf c43d 8aae a0bc aa2c c13e
00000070: daaf 45be 3f77 e23e 97de c0be 8e34 d43e
00000080: 7e11 b1be b742 8bbe 26a9 0c3e 562a d63e
00000090: bca3 77bd 9265 363e 62b9 c53e 272c f53c
000000a0: 27f7 84be a762 d8be 35a2 9f3b 67ce 7d3e
000000b0: 6cbe 86be fd35 bdbd 5a62 b5be 1527 bdbe
000000c0: 17f3 8ebe 7139 d83e 62a2 a63d 6c7d 2f3d
000000d0: b7de 2ebd 9f7e 0bbe 5b89 bdbe f8e9 5cbe
000000e0: d2ed 30be 4f5f ba3d 137c 7cbe 5638 99be
000000f0: a5d0 ef3e b1b6 b53e 4adb dabe a98b e23e
00000100: 74ff ba3e a202 a43e 19e8 db3e 44d9 89be
00000110: ce8f 15bb 6fb3 073e 46e7 77bd 14f4 c53e
00000120: 732f 1dbc 2a05 0d3d 171c 8f3d f2ba c03e
00000130: cdbd a5be ae4f 653e 74d2 d53e be2c 813e
00000140: 00c5 6a3e b3b8 c0be 6e10 8e3e a843 35be
00000150: 732b 69be fe71 ae3c e7f2 a8bd 91f9 c8bd
00000160: 1917 10be 1581 af3d ac24 b83b 9de7 17be
00000170: 350f dabe 21ef 993e fd28 e93e 60ce 8dbe
00000180: aa10 873d a8ac e9be bdf9 dabe 677b 7ebe
00000190: ea87 8cbe 7d95 ba3e e01e b8bc 5fb1 0d3e
000001a0: 3e46 da3d 22c1 e13e b354 edbe efc6 07be
000001b0: 3ceb 8e3e 81d7 94be 9700 b23e 07ad 1b3f
000001c0: 22cd 863e da0d 2a3d b193 babe 0cd9 2f3d
000001d0: ee80 f7be cad1 22be 0ed2 bc3e 5300 c43e
000001e0: be01 93be b815 2fbe 1aba 883e ba6a f83e
000001f0: f5d5 903e 2dc0 92be bcca f0be 601f c43e
00000200: b0d7 d0be 36ec e8be aa29 c23d f925 90bd
00000210: 9af6 ff3e 7dba cc3e d37d b63d 36c0 ffbd
00000220: 371e d1bb 211f ab3e bc97 e83c 7226 cdbd
00000230: 02f5 43bd 659b c1bc 101f b6be 95b6 273d
00000240: c073 1e3e d3d7 673d 2527 053c
-0.29157004 0.19211262 -0.19397649 -0.30389512 -0.32615983 -0.070543714 -0.10929994 0.07315791
-0.116148636 -0.105304904 0.41653782 -0.3993844 0.42606443 0.061357975 -0.28229207 -0.19108126
-0.34188375 0.19445617 0.3564239 0.1867999 -0.15275347 0.0009901244 -0.30350506 -0.068530366
-0.13874823 0.09609915 -0.019614477 0.37729388 -0.19305363 0.44231603 -0.37669823 0.41446346
-0.34583658 -0.27199337 0.137364 0.41829175 -0.060458884 0.17812183 0.38617998 0.02992828
-0.25969812 -0.42262766 0.0048716315 0.24785767 -0.26317155 -0.09238813 -0.354266 -0.3694388
-0.27919838 0.42231324 0.08136441 0.04284422 -0.042692866 -0.13622521 -0.37018856 -0.21573627
-0.17278221 0.0910021 -0.24656706 -0.29925793 0.4683887 0.35490945 -0.4274543 0.44247177
0.3652302 0.3203326 0.42950514 -0.26923573 -0.002282131 0.13252042 -0.060523294 0.3866278
-0.009593832 0.034428753 0.069877796 0.37642628 -0.3237137 0.22393677 0.41762125 0.25229448
0.22926712 -0.37640914 0.2774691 -0.1770159 -0.22770481 0.02129459 -0.08249455 -0.09813226
-0.14071311 0.08569542 0.005619606 -0.14834447 -0.42589727 0.30065253 0.45539084 -0.27696514
0.06594975 -0.4563954 -0.4276866 -0.24851762 -0.27447444 0.36442176 -0.02247566 0.13837193
0.10657929 0.4409266 -0.46353683 -0.13259481 0.27913845 -0.29070666 0.34766075 0.60810894
0.2632838 0.041517116 -0.36440805 0.0429316 -0.48340553 -0.1590034 0.3687901 0.38281497
-0.28712267 -0.17098129 0.26704484 0.48518926 0.28288236 -0.28662243 -0.47029674 0.38305187
-0.40789557 -0.45492715 0.09480603 -0.07038493 0.4999283 0.3998603 0.08910718 -0.12487833
-0.0063817757 0.33422187 0.028392665 -0.100170985 -0.04784108 -0.023633668 -0.35570574 0.04094561
0.15473843 0.05660231 0.008127009

in_proj_bias f4 [21]
00000000: 4ee1 e93b ae9f 9c3d c862 bbbd 9186 803c
00000010: b3f7 a7ba c0ae bfb9 73ce 873a 8c1b 512e
00000020: 869b 1d30 7328 7a30 76ff f42e 43b6 542f
00000030: ffb7 b3ae 4d75 9aae a696 35bd ff32 94bc
00000040: f639 7bbd afa4 593d 03ea 833c 5907 ebbb
00000050: 4aae 17bd
0.007137454 0.07647644 -0.091497004 0.015689166 -0.0012814909 -0.00036560558 0.0010361209 4.7545565e-11
5.733728e-10 9.100695e-10 1.1141214e-10 1.934604e-10 -8.172662e-11 -7.023946e-11 -0.044333123 -0.018090723
-0.061334573 0.05313557 0.016102796 -0.007172507 -0.03703145

weight f4 [7, 7]
00000000: 0651 0ebe 6384 f73d fb1e 1c3f 9313 e9be
00000010: f0fe 76be 6457 283f e362 8e3e 84ad 033f
00000020: 4155 963e 65ea f03d 6365 90bd 5a46 4dbd
00000030: 19a7 15bf b3c3 e9be 86a7 21bf fd51 ec3e
00000040: 599a 25be 63f1 08bf 49fc a5be f6b6 dcbe
00000050: 4130 4dbd bbf3 9fbd 09ba 19be 44a5 263e
00000060: 0170 123e 30b9 03bf 1634 a53e c03b e8bd
00000070: cbba 96be cba3 293f 13c9 4a3e b7e3 003f
00000080: ecd2 4b3e a489 243f 1e46 b7be f8b9 cd3e
00000090: 404d 023f e1ba 08bf b33a 82be e42f 353e
000000a0: 94f6 19bf 3b46 0abf 05f5 10bf 6662 a6be
000000b0: 7845 27bf 362e 383e 0138 293e 4493 3d3d
000000c0: a3d5 25bf
-0.13898095 0.12085798 0.6098477 -0.45522746 -0.24120688 0.6575835 0.2780982 0.5143664
0.2936192 0.11763457 -0.07050588 -0.05011592 -0.58458096 -0.4565712 -0.63146245 0.46156302
-0.1617216 -0.53493327 -0.3241904 -0.43108338 -0.050094847 -0.0781016 -0.15012373 0.16273981
0.14300539 -0.5145445 0.322663 -0.113395214 -0.29439387 0.66265553 0.19803266 0.50347465
0.19904679 0.6427252 -0.35795683 0.40180945 0.50899124 -0.53410155 -0.2543541 0.1769405
-0.60141873 -0.54013413 -0.5662387 -0.32496947 -0.65340376 0.17986378 0.1652527 0.04628302
-0.6477911

bias f4 [7]
00000000: bb1a 86bd b565 ecbb 3b03 f73b 9cb3 733b
00000010: 2cd8 9a3c 5aa7 debc 25c8 383d
-0.06548067 -0.007214273 0.007538227 0.0037185913 0.018901907 -0.027179409 0.045112748

weight f4 [512, 7]
00000000: bfc1 3f3c e0cc 28bc 16c1 f5bc 1b6e c83d
00000010: 711b 0c3d c279 31bd b0c6 76bd 2378 cdbd
00000020: 5314 aabc 7383 2a3d 41ed 573d 2e5b e839
00000030: 5c9f b43d f0e2 ccbb e5ea b73d 7eb6 a23d
00000040: f808 9e3d 4603 d6bc bf62 5e3b 9974 c8bd
00000050: 4a4a 563c 3e45 b03c 33fa d0bd dba2 7a3d
00000060: e0a1 c33c 4f12 ab3d b66f a6bd 0db1 ad3d
00000070: adb4 bbbd 2aca 1cbd 3708 c8bd 4414 9e3d
00000080: 0eb1 0a3d 661e efbc 3881 89bb d746 803c
00000090: 7ecc 9ebd e114 b0bd fa7c e83c dc77 be3d
000000a0: 2856 77bd 1abf a9bd 64aa 12bd 9dd6 173d
000000b0: eeb5 3fbc c80f 8cbd ef64 a23c 2db4 17bd
000000c0: 3380 503d ffb6 adbd 5941 4ebb adb9 b03c
000000d0: c0e6 513d 60fc b8bd 1e8b 54bd efdc 803d
000000e0: ab66 cbbd d38b cbbd d91d 903d 8912 c53d
000000f0: e54f 22bd a41c aebc e009 ab3c 6c16 8cbd
00000100: 2ef5 8c3d d492 c6bc f05f 04bd f44c 2ebd
00000110: 07df 2fbc 1f1d 88bd a8be 5a3c a0a4 47bb
00000120: 800d 5e3b 7c34 b43d 6c34 a5bc d8e9 06bd
00000130: da8d 39bd 6d79 a7bd c2c3 423d 5c2a 0b3d
00000140: 18ca e53c 93de 2e3d c8b8 7c3c 296e f0bc
00000150: 134c 50bd d6be e9bd 5680 ca3d de85 c73c
00000160: bda9 a9bd 5279 8bbd ad78 023d 37b7 72bd
00000170: b9e1 d8bd c0f5 e4bd c391 c43d 9359 b4bd
00000180: 261e b0bc 3ba6 b13d 94f8 453d 892c 583c
00000190: 119d 163d cdf6 64bc ebdf 7abd 441f cb3c
000001a0: a72c d2bb ed38 c03c 4e5c 253d b95d 9bbd
000001b0: 60de e2bc 302b 3bbd 9e66 963d 0254 60bd
000001c0: 049e f8bc d729 a13d eab9 8ebd 6364 5cbb
000001d0: f835 893d f781 c8bd ea49 1dbc f99f 9b3c
000001e0: 6fc7 1dbd 922f 723d 3d9b 153d 1380 353d
000001f0: d9b2 c73a 1b1f a43d a549 06bd 651a 46bd
00000200: 34a0 de3c 467f 60bc 78b5 d43d a9ce c73d
00000210: a176 a9bd d8c0 91bc 001e 95bb b06d 1abd
00000220: 5c94 fabc 8006 663b 0073 febc 4821 3a3d
00000230: ffa2 5a3c 58b2 e3bb 2a58 99bd c457 7b3d
00000240: 0d9a 443d af26 9cbd 6963 80bd d906 01bc
00000250: b6cd 9fbd 27ea cd3d db06 9b3d cdc7 4a3c
00000260: 3650 a2bc 3a34 b4bd d98e 87bd 3bee 643c
00000270: 5698 33bd 5c21 6cbd ad12 51bd 9b32 423d
00000280: f17b 74bd b429 da3d eced ad3d df51 f5bb
00000290: 852f 54bc 898d 263d 62d7 af3d da37 b63d
000002a0: 2269 36bd a706 17bc ec35 53bd 85cd c3bc
000002b0: 2542 dfbd ee9d 703d 8f05 61bd 832d eeba
000002c0: bc57 b0bc ff83 dc3c 4a74 103d ae08 a6bd
000002d0: f4b9 d73d 6175 3b3c 6070 d8bc bf33 0dbd
000002e0: 96e2 893d b147 cebd d068 27bd 54b5 e8bd
000002f0: bbfc dc3d e0b3 123d 88de b5bd 26a9 a73c
00000300: 9308 923d f63f b13d 12bf 8c3d 0244 a13d
00000310: 2e5a 563d 79cb 9ebb c7f9 50bd 5afb 17bd
00000320: f089 8c3d 4e17 a3bd 2417 6f3d b728 a4bd
00000330: cd2d 8ebd 81bd 8d3d 998f 98bc 1fa5 bd3d
00000340: 4bbe bbbd 84aa 04ba 2de3 b5bd 0b8d 90bd
00000350: b86b b73c 55d5 ab3c 707c 283d 322c 7b3d
00000360: 4cd8 a2bc c581 53bd 5757 c13d ce00 cc3d
00000370: 4796 a13d 70dc 803d d355 5cbd 2dc7 ac3d
00000380: 97f8 4abd def5 fdbc d2be e23d 8ccd 563d
00000390: b885 143d 36fb 863d f595 01bd b1a5 cdbd
000003a0: fb63 133d b63f 2e3d 3963 7dbd bea3 1dbd
000003b0: 1468 0a3d ea04 babd 54ba 6ebd c968 86bd
000003c0: 75df a1bc d6e5 c43c fa0f 8a3d c5ab 863d
000003d0: 2a9f b33d 22fd 9cbd 4775 0e3d 7ee8 9cbd
000003e0: f9e4 8f3c c92b cabd c771 aa3d 14e4 593d
000003f0: dedc 6bbd e432 953c 5700 ae3d 2985 5a3d
0.0117039075 -0.010302752 -0.029999297 0.09786626 0.034205858 -0.043329008 -0.060248077 -0.1003268
-0.020761644 0.041629266 0.052716497 0.00044318422 0.08819458 -0.006252639 0.089803495 0.07944964
0.077165544 -0.026124608 0.003393337 -0.09787864 0.013079235 0.021517392 -0.10203972 0.061190467
0.023880899 0.083531015 -0.08126776 0.084810354 -0.091653205 -0.038278736 -0.09767192 0.07718709
0.03386026 -0.0291893 -0.0041963123 0.01565878 -0.077538475 -0.08597732 0.028379906 0.09300205
-0.0603849 -0.08288403 -0.03580703 0.037069906 -0.01170109 -0.068389475 0.01982352 -0.037037063
0.05090351 -0.08482169 -0.0031472056 0.021572912 0.05124545 -0.09032512 -0.051890485 0.0629214
-0.09931692 -0.09938779 0.07036943 0.09622676 -0.039626975 -0.021253891 0.020878732 -0.06840214
0.06882702 -0.024239935 -0.032318056 -0.042553857 -0.010734326 -0.066461794 0.01335112 -0.0030463114
0.0033882558 0.08799073 -0.020166598 -0.032937855 -0.045301296 -0.08177457 0.04754997 0.033975944
0.028050467 0.042692732 0.015424915 -0.029349403 -0.0508538 -0.11413352 0.098877594 0.024355825
-0.08284328 -0.068102494 0.031853367 -0.05925676 -0.10589928 -0.111796856 0.09598114 -0.088061474
-0.02149875 0.08674284 0.048332766 0.013194212 0.036770884 -0.0139748575 -0.0612487 0.024795182
-0.0064140144 0.023464644 0.04037123 -0.075862356 -0.027693927 -0.045695484 0.073437914 -0.054767616
-0.030348785 0.078693084 -0.06969054 -0.003362917 0.06699747 -0.09790414 -0.009600142 0.01899718
-0.038520273 0.059127398 0.036525 0.044311594 0.0015235796 0.080137454 -0.032785077 -0.048365016
0.027176 -0.013702219 0.10386175 0.09756214 -0.0827458 -0.01779215 -0.0045506954 -0.037702262
-0.030588321 0.003509909 -0.031060696 0.045441896 0.013344525 -0.0069487505 -0.07487519 0.061362997
0.047998477 -0.07624566 -0.06268961 -0.007875168 -0.07802908 0.10054427 0.07569667 0.012376738
-0.019813638 -0.08799024 -0.06619043 0.013972814 -0.04384645 -0.057649 -0.0510432 0.047411542
-0.059688512 0.106524855 0.084926456 -0.0074865664 -0.012950783 0.040662322 0.08586003 0.088973716
-0.044533856 -0.009217895 -0.051565096 -0.02390171 -0.10901288 0.058744363 -0.05493694 -0.0018171523
-0.02152621 0.02691841 0.035267152 -0.08107124 0.105335146 0.0114415595 -0.026420772 -0.034473177
0.06732671 -0.10072268 -0.04087144 -0.113627106 0.10790392 0.035816073 -0.08880335 0.020466398
0.07130542 0.08654778 0.06872381 0.078742996 0.052332096 -0.004846033 -0.051019456 -0.037104942
0.06862247 -0.079634294 0.058371678 -0.08015578 -0.069423296 0.069209106 -0.01862316 0.0926001
-0.09167155 -0.0005060809 -0.08881221 -0.07058152 0.022390231 0.020975748 0.041134298 0.061321445
-0.019878529 -0.05163743 0.09440487 0.09961091 0.07889991 0.06292045 -0.053792786 0.08436427
-0.04955348 -0.031001028 0.11071552 0.05244212 0.036260337 0.065908834 -0.03163715 -0.10041369
0.03598402 0.04254123 -0.061862204 -0.038486235 0.033790663 -0.090829685 -0.058283165 -0.06562955
-0.019759873 0.024035376 0.067413285 0.06575731 0.087705925 -0.07665469 0.034779813 -0.07661532
0.017565237 -0.098716326 0.083224826 0.053196028 -0.057583682 0.018212743 0.084961586 0.053349648

bias f4 [512]
00000000: d126 c63d 99ca db3d 5651 b6be 316a 3fbe
00000010: 1cf9 f8bd cfd4 cbbd bcfe 2e3e cfb7 74be
00000020: c191 73bd ef69 3abe c084 93be 90eb ec38
00000030: 5a77 a13e d369 a2bb db3e ebbd 86f6 8dbe
00000040: 5d7e 543c fbdc a33e f1c6 d53a c00a 88be
00000050: 9846 b7be ed6b 5a3d bc72 f23d bf83 93be
00000060: 253b 0abe 4e91 a4be 4bc3 703e 565b b4be
00000070: b988 aabe 3635 9cbe ec6f d4bd 042c 343d
00000080: 4cfb 5e3e c36e 6a3e 28ae 1ebe ac2d 2f3d
00000090: 05be 37bd 21c0 a1be 22b4 e9bd a27c a03e
000000a0: fc20 343d 3c3e 363d e195 0a3e 3f92 823c
000000b0: 3832 ea3d 0fe8 5b3e 07d9 8a3c 71d7 89be
000000c0: 3b27 1a3e c8ba cc3d abb7 7f3e bd3f d6bd
000000d0: af3e 18be 01a4 3ebd ad2c 6bbe 8d13 ba3e
000000e0: 2222 b93e 22b1 963e 94f5 693d 0a68 893e
000000f0: 5eac 343e 0b31 2f3d e846 1fbe 398a 7d3e
00000100: a0b6 003e 7e1c e23d f656 aabe 2ebc 7dbe
00000110: 07a0 5b3e dc03 26be 76fa 72be 8abb a3be
00000120: 1b71 6cbe bd99 89be 94a1 80be 5f55 11bd
00000130: e055 153e bea9 00bd 3d60 163d 9380 1bbe
00000140: e60d bb3e ae97 7a3d 63e9 fb3d 6912 a9bc
00000150: c2d6 ad3e e29d 77be 55b2 a33e ff26 8fbd
00000160: a2ba 6ebe 50ce 5bbe d6a1 94be a90a 8b3e
00000170: 8646 83bc b306 133e 7baa 34be c254 473e
00000180: 826c 683e e8dd d83d af9b 82be 3263 99be
00000190: 6579 343e 769f 693e 5faf bb3c 3a67 1f3e
000001a0: 1f24 25be 5a5b c1be 6263 893c 27e5 04be
000001b0: f19f bc3e 27fe b4be da4a 0abd 252d 5b3e
000001c0: 503e d53d 39ef 79be 1d39 f8bc cd8b 3b3d
000001d0: c1a5 2abe 7c0d 9a3e acee 66be 2023 debd
000001e0: a150 a73e 6e99 a13e 2b4f aa3e 3f19 7abd
000001f0: 74a4 713e 4da6 ad3e 7d35 95be 917e 05bb
00000200: 3465 823e 56e7 ba3e 3381 56be b6dc 42be
00000210: 940d c33c 236b bb3e ca06 693e d5bd a93d
00000220: 0391 7fbe c51a 263e 67cf dd3d b02b 06be
00000230: 08d5 e9bb de73 e73d 3c1c 45be cb5b 833e
00000240: 1a75 8e3e ff48 1fbe 93fc 6d3e e64b 5dbe
00000250: f848 133d edb6 8b3e 97ec 9f3e 25be 183e
00000260: 2246 813d 2bb4 4b3e 02a9 c5bd 6129 03be
00000270: 58b7 9a3e 9fc6 08bd 2a14 e63c b8e9 203e
00000280: 3619 c3bc 9d65 e9bc 7ac7 ab3e 43de 84be
00000290: 2d9f b8be 4b90 afbe a33b ba3e 47f5 0e3e
000002a0: d31c 2a3e 5215 bebe 0bb7 54be a098 b0be
000002b0: 82b7 803e 5e57 233e 77cc aa3b 60a6 8d3e
000002c0: ffef 933e f445 64be 9eff 4dbe 122d 94bb
000002d0: 86b4 b9be a93d b83d ccda a6bd 59ed 763d
000002e0: a643 603e 7d13 9a3e 82aa 73be ca5f c43d
000002f0: bae8 703e 5876 593e 6f6e 553d 05f1 84be
00000300: 3ef1 713b a6da 023e b0fb 3ebd bd7a 5fbe
00000310: 16cf 363e 989e 53bd e607 893e 411f 34bd
00000320: b919 613d 31d4 5fbe 54d8 a23d b9be 953c
00000330: 6201 c03e e937 903d 79a9 d23d 4375 44be
00000340: 215a a33e 69e2 3fbe 1521 7abe ef82 3e3e
00000350: 0152 39be fddb 313e a0b3 1bbd bfb7 883e
00000360: fba3 253d f286 953e d4aa 41bb 70b2 eb3c
00000370: 74d8 a33e aa03 a0be 2d64 a33c c256 ec3c
00000380: ecdd d5bd 72fe 973c 34aa 613e d133 c13e
00000390: e470 1abe 17de 73be 64c4 79be 28f6 f3bd
000003a0: 08a2 a8be 4fa8 553e c0a5 80bd cd08 0c3d
000003b0: cf33 4d3e 586b 833e f34d 66be 2280 9dbe
000003c0: 12ca 113e 85be 723e f861 9d3e 8564 873e
000003d0: 6dae d43c 3178 efbd 8c2c 4d3e bfd3 34be
000003e0: ed53 dabd b385 1fbe 7a7f f7bc a597 5abe
000003f0: b3a9 9b3e 0572 afbe 1ff8 ba3d 01ce 3bbe
0.096753724 0.10732002 -0.3560893 -0.18692853 -0.12156889 -0.099526994 0.17089361 -0.23898242
-0.059465174 -0.18204473 -0.28812218 0.00011297234 0.3153637 -0.004956463 -0.11486598 -0.27727145
0.0129695805 0.32004532 0.00163099 -0.26570702 -0.35796046 0.053325582 0.1183829 -0.28811452
-0.13499124 -0.3214211 0.23511998 -0.35225934 -0.33307436 -0.30509347 -0.1037291 0.04398729
0.2177555 0.22893815 -0.15496123 0.042768165 -0.04485895 -0.31591895 -0.11411311 0.31345087
0.04397677 0.044492945 0.13533737 0.015938876 0.1143536 0.21475242 0.01694919 -0.2692218
0.15054028 0.09996563 0.24972408 -0.10461376 -0.14867662 -0.046543125 -0.22966261 0.3634304
0.36158854 0.29432017 0.057118967 0.26837188 0.17643878 0.04277138 -0.15554392 0.24759759
0.12569666 0.11040591 -0.3326947 -0.24778816 0.21447764 -0.1621241 -0.23728356 -0.31979018
-0.23090021 -0.26875106 -0.25123274 -0.035481807 0.1458354 -0.03141188 0.036712874 -0.15185766
0.3653404 0.06117981 0.12300374 -0.020638661 0.3395291 -0.24181321 0.31971994 -0.0698986
-0.23313382 -0.2146542 -0.2902972 0.2715657 -0.01602484 0.14358024 -0.17643158 0.19465926
0.22697642 0.105892 -0.25509402 -0.29958493 0.17624433 0.22814736 0.022910772 0.15566722
-0.1612706 -0.37765008 0.016771022 -0.1297804 0.36840776 -0.35350153 -0.03376279 0.2140394
0.10412276 -0.24407662 -0.030300671 0.04578762 -0.16664793 0.30088413 -0.22551984 -0.10846543
0.32678702 0.3156237 0.33263525 -0.061059233 0.2359789 0.3391594 -0.2914237 -0.002036963
0.25467837 0.3650462 -0.20947723 -0.19029507 0.023810185 0.36605176 0.22756496 0.08288161
-0.24957661 0.1622115 0.108305745 -0.13102603 -0.007135991 0.11301397 -0.19249052 0.2565597
0.27823716 -0.1555519 0.2324088 -0.21610984 0.03595826 0.27288 0.3123519 0.14916284
0.06312205 0.19892947 -0.09651376 -0.12808754 0.30218005 -0.033392545 0.028085787 0.15714157
-0.023815732 -0.028490836 0.33550626 -0.25950822 -0.3605894 -0.34289774 0.36373624 0.13960753
0.16612558 -0.3712564 -0.2077295 -0.34491444 0.25140005 0.15951297 0.0052123624 0.27665997
0.2889404 -0.2229231 -0.20117041 -0.0045219744 -0.3627054 0.08996136 -0.08147201 0.060284946
0.21900806 0.30092993 -0.23795512 0.09588583 0.23526278 0.21236551 0.05210727 -0.25965133
0.0036917473 0.1277872 -0.046626747 -0.21824165 0.17852435 -0.05166492 0.2676384 -0.04397512
0.05495617 -0.21858288 0.079514176 0.01827942 0.37501055 0.07041914 0.102862306 -0.19185357
0.319047 -0.18738712 -0.24426682 0.18604635 -0.18097688 0.17369075 -0.0380131 0.26702687
0.040439587 0.29204518 -0.0029551284 0.028771609 0.32001078 -0.31252795 0.019945228 0.028849963
-0.10442719 0.018553946 0.22037584 0.37734845 -0.15082127 -0.2381519 -0.24391323 -0.11912185
-0.3293612 0.20864986 -0.06281614 0.03418808 0.20039295 0.25667834 -0.22490673 -0.3076182
0.1423724 0.2370549 0.30738807 0.26443878 0.025962079 -0.116928466 0.20036525 -0.176589
-0.10660539 -0.15578346 -0.030212153 -0.2134691 0.30402908 -0.34266677 0.091293566 -0.18340303

weight f4 [7, 512]
00000000: a170 4d3d a6aa 90bd 99e3 ce3d 706b cc3d
00000010: 1aad 083d 7d04 8ebd b5eb 553d e226 4cbd
00000020: 3858 f5bb 11b2 dd3d 2cf7 cabc addd 08bd
00000030: 7fcb 093d 42b6 8ebc 2fe5 10bc 33ae 623d
00000040: 3b76 103d 5177 7c3d 3701 af3d 2848 433c
00000050: 4d43 3bbd 9046 bebd c7ba 75bc 8c96 573d
00000060: 911c c13d 11a1 89bc ec12 f13b c370 c0bd
00000070: 564f 85bd c602 76bd 4136 2a3c e1e2 9b3d
00000080: 127d babc 8326 af3d 201a 8e3d 1a3e b7bd
00000090: bdc4 bbbb 4007 dabd f613 cfbd 8f08 83bd
000000a0: f64f f83c 170b 993c ce01 85bd e749 62bd
000000b0: 0aa4 e23c d1d0 c73c f12f abbd 6a54 b7bd
000000c0: 8a00 ac3d bbee 973d 04c0 86bd ef39 30bd
000000d0: f766 bdbc 9f17 b53d 8354 56bd 69e9 c33c
000000e0: 2228 bbbd 7570 3f3d b485 bcbd 48c7 273d
000000f0: b65c df3d 800d dabd fbbb 98bd 0f60 c93d
00000100: 5ebb 99bc 737d febd 6a39 323d 4f64 d3bd
00000110: 7267 513d cba5 b2bd c89d d5bd 1da5 9fbd
00000120: b3c8 65b9 67c7 9dbd 0866 603d cf1c 62bd
00000130: c58a 75bd 998e c5bd cb7c 97bd f8f4 a23d
00000140: e64b af3c 5421 06bd d756 d93c c795 aa3d
00000150: dfd0 04bc fc95 393d 067e 7c3d 5032 d83b
00000160: b69a 173d 2cab 8d3c 7eee c03d 9b43 923d
00000170: bf6e ac3d 9c94 e1bd 00f4 963c c989 3abd
00000180: 25f0 a33b 3d83 793d 8406 4abd e938 29bd
00000190: ce41 ab3d 87a7 f3bd 304d ebbb 481c a33a
000001a0: 3672 d2bb a787 19bd 685e 8cbd 8db9 93bd
000001b0: ecc8 043d 8418 953c 4b48 b83d bcae 9638
000001c0: f7d6 dbbd 7948 c33c f8c5 1b3d 060d 713d
000001d0: 428c 45bb 31be a9bc cab6 a83d f37b ad3d
000001e0: eea0 19bd 3fad 513d 0318 9bbc 28cc aabd
000001f0: 9136 713c c779 e5bd 045b d13d 141f a5bd
00000200: 6513 9ebd ab09 fdbd e43f 873c f4be d43c
00000210: c8dd 703d b543 543d 00c2 e4bd c815 573c
00000220: 11ac 9a3a 09d9 af3d 2542 8e3d 05be a2bd
00000230: 7e72 56bd c3ea 173d aceb cebd a4b9 28bd
00000240: daf5 c43c 2c2c bd3c 4340 763c 62ff 933d
00000250: d606 2cbd 94b1 ae3c ce71 d2bd a200 0d3d
00000260: bbb0 79bd 1eed b3bd 92cb 1f3d 695b a63d
00000270: 858e debd eb9d 5dbd c7c1 a63d a809 673d
00000280: 266e 243d 6b2e 9e3d 9f40 dbbd 8c2c 963c
00000290: 84ea 60bd eeee d13d b675 433d 9946 e43b
000002a0: f6cd 7c3c 18eb a43d 5cbf d13d 3fc5 94bd
000002b0: 70e8 b6bd 46ba 363d 6314 83bc a97a 1b3d
000002c0: be91 9ab9 487f 8cbd 9143 fabc 15cd 16bc
000002d0: d830 2bbc 2811 e8bc 125a 8a3d 25a1 e6bd
000002e0: d870 a9bd 7da6 6f3c b307 f13c 1d2d d1bd
000002f0: 19aa a7bd 501f 893d f55b 153b d6a6 08bc
00000300: 279b c93d e96c 573d 8f7f 223d db72 9abd
00000310: d62b 95bd 68d2 14bc 0e8a 503b 4dd4 603b
00000320: cb77 823d 058b 703c c717 c1bd b49f 853d
00000330: ecc1 413d d8d2 b7bd be5f 8ebc a97c b83d
00000340: 7c18 f3bc 049c 113d 641a 4a3c a8e5 fabc
00000350: 70b9 173d 539f 9c3d c10b e1bd 6e5a d8bd
00000360: ce75 e13d 0dad e4bd db3b 653d 8640 9fbd
00000370: 5673 a8bd 2933 d83d 92ca c0bc 4efd 09bd
00000380: 8784 6dbd 8300 f0bb 20d6 e0bc 7cc5 363d
00000390: 8c6c c33d 4684 c23d 4b80 c23d 6a48 723d
000003a0: 5871 d2bd c9d3 c1bd e045 973d bf47 ba3d
000003b0: 86e0 17bd fdab 383c fbce 95bd 373e b93d
000003c0: ba50 1e3d 4645 d6bd 7693 debd 6b24 b43d
000003d0: 28fd 3c3c ed5b c63d f1c1 79bd 34a8 87bd
000003e0: ebc0 903c 503e 113d 4419 343d 83bf 673b
000003f0: 1e0c 06bd b626 a8bd 41ae b3bd 090c c8bd
0.05015624 -0.070637986 0.101020046 0.099814296 0.033368208 -0.0693445 0.05222674 -0.04984177
-0.007487323 0.10824979 -0.024776064 -0.03341453 0.033641335 -0.017420892 -0.008843704 0.05534191
0.035269003 0.061637226 0.085451536 0.011919059 -0.04571848 -0.092908025 -0.0149981445 0.052633807
0.09429277 -0.016800435 0.007356992 -0.093965076 -0.06509273 -0.06006124 0.010388912 0.07611633
-0.022764716 0.085522674 0.06938577 -0.08947392 -0.00573024 -0.10645914 -0.10111229 -0.06398117
0.030311566 0.018682046 -0.06494485 -0.05524626 0.02766611 0.024391564 -0.083587535 -0.089516476
0.0839854 0.07418581 -0.06579593 -0.043024 -0.023120387 0.08842396 -0.05232669 0.02391501
-0.09138514 0.046738107 -0.09205189 0.040961534 0.10906355 -0.10647106 -0.074577294 0.09832775
-0.018766101 -0.12426271 0.043511786 -0.10321867 0.051124044 -0.08723029 -0.10430485 -0.07795165
-0.00021913908 -0.077040486 0.054784805 -0.055203255 -0.059946794 -0.09646339 -0.07396849 0.0795688
0.021398496 -0.032746628 0.026530666 0.08329349 -0.008106439 0.045309052 0.061643623 0.0065977946
0.03701278 0.017293535 0.09420489 0.07141801 0.08419561 -0.11014673 0.018426895 -0.04554156
0.0050029927 0.060916174 -0.04932262 -0.04131404 0.083621606 -0.11897188 -0.0071808323 0.0012444342
-0.0064223064 -0.037482884 -0.06853944 -0.072131254 0.032418177 0.018200167 0.08998164 7.185104e-05
-0.10734361 0.023838269 0.038030595 0.05885031 -0.0030143415 -0.020720573 0.08237989 0.08470907
-0.03750699 0.05119061 -0.018932348 -0.08339721 0.014722482 -0.11204868 0.10222438 -0.08062568
-0.07718543 -0.1235536 0.016509958 0.02596996 0.058805257 0.051822383 -0.11169815 0.013127752
0.0011800547 0.08586318 0.0694621 -0.079463996 -0.052355282 0.03708912 -0.101035446 -0.041192666
0.024043012 0.023092352 0.01502997 0.07226445 -0.041998707 0.02132491 -0.10275613 0.03442443
-0.06095956 -0.08785461 0.0390125 0.08122904 -0.10867027 -0.05410568 0.08142429 0.056405693
0.04014411 0.07723697 -0.10705685 0.018331788 -0.05491115 0.1025065 0.04771968 0.0069664237
0.015429964 0.08052653 0.10241577 -0.07264184 -0.08931053 0.044611238 -0.016000932 0.037958775
-0.00029481755 -0.068602145 -0.030549796 -0.009204169 -0.010448657 -0.028328493 0.06755461 -0.11261205
-0.08273476 0.014627096 0.029422617 -0.10213683 -0.081867404 0.066954255 0.0022790406 -0.008340558
0.09844046 0.0525941 0.03967243 -0.07541438 -0.07283752 -0.009083368 0.0031820568 0.0034306229
0.06370505 0.014681582 -0.09428363 0.065246016 0.04730408 -0.08975762 -0.017379638 0.09008152
-0.029674761 0.03554918 0.012335394 -0.030627087 0.03704208 0.07647576 -0.1098857 -0.10564123
0.110087976 -0.11165819 0.055965286 -0.07775979 -0.082251236 0.10556633 -0.023534093 -0.033688836
-0.057987716 -0.0073242798 -0.027445853 0.04462193 0.09542188 0.094978854 0.09497126 0.05915109
-0.10275525 -0.09464223 0.073863745 0.09095716 -0.037079357 0.011271474 -0.07314869 0.0904507
0.038651206 -0.104624316 -0.1086797 0.08796009 0.0115349665 0.09685502 -0.060975973 -0.06623879
0.017670115 0.035459816 0.043969408 0.0035361953 -0.0327264 -0.082105085 -0.08773471 -0.097679205

bias f4 [7]
00000000: 6130 86bd dbf0 923c 8a1b 013c ec4c d73c
00000010: 7ffc 203d ac61 1bbc f2af 753d
-0.06552196 0.017937114 0.007880101 0.026281796 0.0393033 -0.009483736 0.059982248

weight f4 [7]
00000000: da91 7c3f 7499 7b3f 20a4 7c3f a37d 823f
00000010: cf11 7c3f 76e0 873f eb24 843f
0.9866005 0.98281026 0.98687935 1.0194591 0.98464674 1.0615375 1.0323766

bias f4 [7]
00000000: 0dd0 51bd b9e6 f93b 0f91 9b3b a352 573c
00000010: d355 df3c 6a5d f3bc c1a7 fa3c
-0.051223803 0.0076263812 0.004747517 0.013142261 0.027262604 -0.02970763 0.03059757

weight f4 [7]
00000000: 3076 833f 628a 7f3f a02d 743f 997f 7e3f
00000010: ea38 763f 5343 873f 2c50 7f3f
1.0270443 0.9982053 0.9538212 0.9941345 0.96180594 1.0567421 0.9973171

bias f4 [7]
00000000: 01e5 0ebd ae25 43bb c95a 85bb 5d6e 09bc
00000010: 67f2 c13b 1dc2 96bb ecf0 24bc
-0.034886364 -0.0029777098 -0.0040696603 -0.008388129 0.005918789 -0.004600777 -0.010067206
