transformer_model_1.pt (torch, 355157 bytes, 150 tensors)

in_proj_weight f4 [21, 7]
00000000: 362f da3e d73a a13d d2d0 d1be cefc 6fbe
00000010: 659f 2d3e b332 503e 8d20 ddbe 07c9 43be
00000020: 1e9c cbbe 850f aebd d870 cfbe 510d d2be
00000030: 4f51 4ebe b077 be3e 1b6e c63d 0afb 50be
00000040: 6e0e 903e c24a 6dbc 3ca2 713d bcc7 0fbd
00000050: 78a3 bbbd fdfc e7bd 5b31 9b3e 76a2 86be
00000060: 6c09 6ebe 9f33 383e 8556 80be deec d83e
00000070: 33db ec3e 8d52 613e a0e6 3f3e 9c8e 83be
00000080: 7a04 dd3d 7d85 8bbe 166b 5ebe 2c22 2bbd
00000090: a70c 913d a07e cf3e 49b5 933e e33a e13d
000000a0: c3fc b0be 6b1d 7dbe f497 c5be bfd1 9e3e
000000b0: 6387 803e 0c15 a4bd 6495 4d3e dd6d c93d
000000c0: d8c5 5a3e 1ee8 9dbe 38d1 38bc 24c2 a83e
000000d0: 1ab9 c53e 3cd9 3bbd 38db a73e 9783 7dbe
000000e0: 04a2 b93e c3fb bb3e d0d1 cabe bd04 663e
000000f0: 3959 c23e af08 ad3d abd5 00be 3824 a6be
00000100: 08d7 ce3e 844b 3f3e cc7e 183e e4d4 9bbd
00000110: fbb4 ccbe 3bd9 68be 5825 753d 753c dfbe
00000120: 88ac 563e 3785 66bd cb2f 83be 33cd 943d
00000130: 8b0b 7b3c 1bd7 2b3e f1ce 853e 3e73 a73e
00000140: f16c b13e fdda 923e 2011 7c3e 445f bebd
00000150: a663 e8be 82cc b2be 1836 cabe 0264 d4be
00000160: 122c 90bd 4713 ddbe c0a2 65be d970 c83e
00000170: 0637 dcbe 4ae0 9e3e 44a3 b73e 5dff 58be
00000180: e554 bc3d 3a45 b2bd d7da 60be c064 483e
00000190: e25c 8b3e 8a86 efbe cd8e 173d c2e5 9ebe
000001a0: b520 15be f366 96be 334f 7fbe 00a9 a43e
000001b0: 6610 12be 9f37 f93c d23b 713d 0029 103e
000001c0: a178 05bd 514f a13a 1e6b 9cbe 8b43 d5be
000001d0: ab22 c4bd 2bab ad3e b6f3 8abe 5a28 d53e
000001e0: 7c4d 2a3e 45c9 4a3c 9e20 5a3e 3bae d2bc
000001f0: c3bb 8b3b db90 483e 21ad 19be 0fb9 d6be
00000200: 3cf8 543e b0b9 933e f117 d73e 7cde dc3e
00000210: 4950 14be f14d 4fbe be27 22be e30e b33e
00000220: bd3f 8bbe 80fc b1be 1743 8ebd a18b eebe
00000230: 5387 c33b 09bf 023e 71bc a3be 31cf a73e
00000240: e712 e63e a3dd 95be fc4d 133b
0.42614144 0.07872551 -0.4097963 -0.23436281 0.16955335 0.2033184 -0.43188897 -0.19119655
-0.39767545 -0.08499054 -0.4051578 -0.41025785 -0.20148204 0.3720069 0.0968897 -0.20408264
0.2813601 -0.014483156 0.05899261 -0.03510259 -0.091620386 -0.113275506 0.30311093 -0.26295823
-0.23245782 0.17988442 -0.2506601 0.42368215 0.46260986 0.22004147 0.1874032 -0.2569474
0.107918695 -0.2725028 -0.21720538 -0.041780636 0.07082491 0.40526295 0.28849247 0.1099756
-0.34567842 -0.24718253 -0.38592494 0.310194 0.25103292 -0.08011827 0.20076519 0.09835408
0.21364534 -0.30841154 -0.01128035 0.32960618 0.38617784 -0.045861468 0.32784438 -0.24757229
0.3625642 0.36715516 -0.396132 0.22462745 0.37958696 0.08448922 -0.12581508 -0.32449508
0.4039843 0.1868115 0.14892119 -0.07608965 -0.39981827 -0.22739117 0.059850067 -0.43600813
0.20964253 -0.056279387 -0.256224 0.07265701 0.015322576 0.16781275 0.26134446 0.3270511
0.34653428 0.286827 0.24615908 -0.09295514 -0.45388526 -0.34921652 -0.39494395 -0.4148255
-0.07039656 -0.4317877 -0.22425365 0.39148596 -0.4301073 0.31030494 0.3586675 -0.21191163
0.0919588 -0.0870461 -0.21958481 0.19569683 0.272193 -0.46782333 0.03700142 -0.31034666
-0.14563258 -0.2937542 -0.24932556 0.32160187 -0.14264068 0.03042203 0.05889494 0.1407814
-0.032585744 0.0012306963 -0.30550474 -0.41653094 -0.09576925 0.33919653 -0.27139062 0.41632348
0.1663112 0.012377088 0.21301505 -0.025717845 0.0042643263 0.19586508 -0.1500745 -0.41938064
0.20797819 0.28852606 0.42010453 0.43138492 -0.14483751 -0.20244576 -0.15835473 0.34972295
-0.27197066 -0.34762955 -0.0694639 -0.46590903 0.0059670596 0.12768187 -0.31979707 0.32775262
0.44936296 -0.29270658 0.0022476902

in_proj_bias f4 [21]
00000000: 03f8 74ba fb9c 8e37 fe5b 2e3b 2e6e 85b9
00000010: cc19 d83b 62df 053a 693b 5c39 1ac3 462f
00000020: 961b 65ae dbb6 052e 6844 2830 7c2c c9ae
00000030: 3c02 952f 46bf 3b2e 725a a8bb b89b 9b3b
00000040: 211b d03a 6440 9bb9 4200 87b8 869a 97ba
00000050: 53de 2e3c
-0.0009344818 1.7000819e-05 0.0026605125 -0.00025449827 0.006594872 0.0005106834 0.00021002967 1.8077309e-10
-5.2093073e-11 3.0403107e-11 6.1215255e-10 -9.148324e-11 2.710453e-10 4.2688762e-11 -0.005137735 0.0047487877
0.0015877226 -0.0002961188 -6.43735e-05 -0.0011566437 0.010673123

weight f4 [7, 7]
00000000: dcab ca3d 016f 02be 08ce 3ebe f53f a23e
00000010: 0263 65be 1630 efbd 83f4 12bf 7238 e0bd
00000020: 860b 35be 3e12 06bf 99fa e83e 1987 d13e
00000030: 6f9d a63e ed52 afbe 499a 123f ef27 c43e
00000040: 6668 d5be e7bf 01bf 69c4 22bf 28cc a93c
00000050: eefc 223f 7d57 bdbe 99e0 233f 0077 b63e
00000060: de44 2f3d 65e7 25bf 6fa9 ecbe beca 8dbd
00000070: fc55 083f d45e c73e ef4e 083d e51a bebe
00000080: 0849 0f3f d94b e2be e2f8 183f f7f1 20bf
00000090: 75f4 223f a738 cbbe 5d2c c73e 6bd7 1a3f
000000a0: 353f 473e 0de4 d53e b829 263f 2b3f 233f
000000b0: 6d16 1fbf e03e d0be a093 ba3e f460 673e
000000c0: 2c49 83be
0.09896061 -0.12737657 -0.18633282 0.3168942 -0.2240105 -0.116790935 -0.57404345 -0.10948266
-0.17680177 -0.52371585 0.4550369 0.40923384 0.32541987 -0.34242955 0.5726667 0.38311717
-0.41681212 -0.50683445 -0.6358095 0.020727232 0.6366719 -0.3698081 0.64014584 0.35637665
0.042790286 -0.64806205 -0.46223018 -0.06923436 0.532562 0.38939536 0.033278402 -0.37129894
0.5597081 -0.44198492 0.59754765 -0.6286921 0.6365426 -0.3969166 0.38901034 0.6048495
0.19457705 0.4177555 0.6490741 0.6376826 -0.62143594 -0.4067297 0.36440754 0.22595578
-0.25641763

bias f4 [7]
00000000: 60a9 2bbb c2bf 93bb 17f4 713b e9fe 1eb9
00000010: 8661 b43a eca2 003c f14c a9bb
-0.0026193485 -0.0045089433 0.003691917 -0.00015163016 0.0013761974 0.007851344 -0.005166643

weight f4 [512, 7]
00000000: 92c6 cf3d 71ae 4d39 b567 263d a2fe c33d
00000010: 438c a7bd 9059 2fbd c365 e7bc 8a56 9c3b
00000020: 72a6 61bd a100 86bd 988b 18bc 79ee 513b
00000030: cde7 563d 307e 663d df8e a1bd 739f 8fbd
00000040: 1f37 29bc 66bd b2bd b12b 563c 2369 be3d
00000050: 2d07 ad3c c03d 0ebb 802d af3b 0eaf 863d
00000060: c221 903d a848 043d 9cdf 5d3d acbd 923d
00000070: c43d 3a3d 44cc 03bd b0d3 27bc 832b 63bd
00000080: 60de 5e3b d440 4d3d 7cd7 32bd 0992 adbd
00000090: e458 6e3d f798 c23d 4f2f 3a3d a3bf ee3c
000000a0: b62e a83d 617d 863c 3b51 623d eb14 7c3d
000000b0: 8cc2 9cbc 5431 c6bc 004a 50bd 0db7 ce3d
000000c0: ca17 3f3d 54a7 99bd 6976 0cbd 5d15 823d
000000d0: 0f63 cd3d a946 163d c3e9 cdbc e4d4 34bd
000000e0: 5f5c 593d f487 b3bd 08af 0bbd d3cf b8bd
000000f0: 5bb1 73bd b7cd 93bd eb79 5fbd fbb8 0c3d
00000100: e1c1 933c 5107 debc 569e cb3d 12d2 513d
00000110: f0b2 63bd e298 a6bd 84b7 b6bd 0502 853d
00000120: 3140 963d ff71 503d 7bd1 0f3d 3736 8b3c
00000130: c0a0 e43b f43b 7cbd ea61 9abc e713 923d
00000140: b39b 79bd a958 79bc 21a9 6c3d c9d0 a7bd
00000150: be24 173d b1b7 483d 5c42 a3bd e0bd 883d
00000160: ed85 ccbd c526 aebd 038e 6ebd de54 1bbd
00000170: 8012 81bd d439 a13d 58e0 d1bc 3627 2fbd
00000180: 8b34 95bd 7c53 07bd 08d5 3c3d bc52 8c3d
00000190: 75fa d83c 0c05 c23b ee2c 84bd e7c0 e6bc
000001a0: f98e ac3d 23f4 873c 911d c43c f477 6c3d
000001b0: d5e7 a33d d429 513b 4800 08bd 83c8 87bd
000001c0: 2202 49bd cf86 bd3d a6e5 96bc ecb1 cbbd
000001d0: c9c0 37bd 10b5 dc3c 5617 2fbd 40b3 963a
000001e0: 903c e93b f4c4 22bd 2698 aebd aa1d b13d
000001f0: c190 39bd 4e76 cb3d 2564 b6bd 99d2 913d
00000200: 150b 90bd 9dc2 d53c 5788 acbd 8908 afbc
00000210: 6aaa c13c 235a c5bd 1b3c 413d a84b 28bd
00000220: 9369 8e3d 1bc7 96bd 7f45 cdbd 97e4 aa3d
00000230: 8185 323d 6a5a 09bd 5c4f f13c b493 13bc
00000240: fed0 efbc 2433 5dbd b815 beba 21ef 8dbd
00000250: 95ea 8fbd 31c0 85bd 90d5 86bd ac08 8dbd
00000260: 3df2 443d 0212 7fbd b387 a7bd 96a6 8cbd
00000270: d4a1 d13d dde7 b73d 4e86 00bd 8ff8 a93d
00000280: 7780 a5bd 1ede 183d ad24 dabd 1547 96bd
00000290: e9cc 81bd 0054 ddbc feac 5b3d 320d 83bc
000002a0: 2379 d7bd c505 0a3d ae6e 553d 06fe 613b
000002b0: c28a c93d b831 c23d a33a c7bd d0ac a2bd
000002c0: f3a5 d03d be69 d3bd f3d1 da3c 73a4 193d
000002d0: e70c b93d 61b4 36bd f080 953c 761a 2abd
000002e0: deb8 c33d f290 8c3d 18e8 1ebd ec0b 8abd
000002f0: 2057 7f3c 4767 cbbd 78e6 cfbc 4375 f5bc
00000300: 4b91 a93d 3bc0 fcbc 2282 b13d 586e a0bd
00000310: ecf7 313d d41b 23bd cc42 433d d7ce 76bd
00000320: 0080 2a3a 2cc5 27bd e00d b3bb a757 b838
00000330: 9c4f 78bd 0a57 39bc 0b28 7fbd f5c7 c4bd
00000340: 4a3c 5abd b22f d53d 1048 c7bd 5f9d abba
00000350: 37a9 cc3d f7fe 753d 8486 96bc f810 473d
00000360: c51d edbc 2deb febb 2dde c7bd 6aca 9f3d
00000370: b953 31bc bd2d d63d 546f 053d 2dd3 be3c
00000380: 9483 6c3d d6f5 aa3d 2a5c c2bd aa97 a8bd
00000390: 9413 c0bb 8eae c4bc 453e bdbd 7f90 353d
000003a0: 6e5f 6b3d 2d17 3d3d 73cb 90bd 5f8f 4f3b
000003b0: 01a1 b43c b0ba 40bd 6a30 da3d 29d4 a8bc
000003c0: 7528 c13d a1c1 7fbd b3bd 0cbc 09b3 fd3c
000003d0: d17f cfbd a026 0f3d ea8b 2fbd 5866 123d
000003e0: f01b f13c 9906 99bd 6027 b03d e46c e5bc
000003f0: 8a97 2abd 090f f8bb 132d 51bc 67ab 8ebc
0.10145296 0.00019615308 0.040626246 0.09570052 -0.0818105 -0.042810023 -0.028246766 0.0047710584
-0.055090375 -0.06543089 -0.0093106255 0.003203301 0.052467156 0.056272686 -0.078885786 -0.070128344
-0.010328083 -0.08727531 0.01307194 0.09297397 0.021121586 -0.0021704286 0.005346 0.06576358
0.07037689 0.032295853 0.05416833 0.07165083 0.04546906 -0.032177225 -0.010243341 -0.055461418
0.0034007058 0.050110653 -0.043662533 -0.084751196 0.05819024 0.09501832 0.045455273 0.029144114
0.082120344 0.016417207 0.05525325 0.061543386 -0.019135736 -0.024193443 -0.050851822 0.10093508
0.046653546 -0.075026184 -0.034292612 0.06351731 0.100286596 0.03668848 -0.02513588 -0.04414834
0.053066608 -0.087661654 -0.03410247 -0.09024014 -0.05949531 -0.07216971 -0.05455963 0.0343561
0.018036785 -0.027103098 0.099423096 0.05122573 -0.05559057 -0.08134629 -0.089217216 0.06494526
0.07336462 0.050889965 0.035111886 0.016993625 0.0069771707 -0.061580613 -0.018845517 0.07132702
-0.060939502 -0.015218892 0.05777848 -0.081941195 0.036900274 0.049003307 -0.079716414 0.06676841
-0.09986482 -0.085034885 -0.0582409 -0.037922733 -0.06302357 0.07872358 -0.02561967 -0.042762004
-0.072854124 -0.0330386 0.0461016 0.06851718 0.026486615 0.005921012 -0.06453882 -0.028168155
0.08425707 0.016595906 0.02393988 0.057731584 0.08003203 0.00319158 -0.033203393 -0.066300415
-0.0490743 0.09254228 -0.018420052 -0.09946045 -0.04486159 0.026941806 -0.042746864 0.0011497512
0.0071178153 -0.03973861 -0.08525114 0.08648236 -0.045304064 0.09934674 -0.0890582 0.071202464
-0.07033364 0.026093775 -0.08424442 -0.021366375 0.02364083 -0.09636333 0.04717646 -0.041087776
0.069537304 -0.07362195 -0.10023021 0.08344381 0.04358435 -0.03353349 0.029456787 -0.009007383
-0.02927446 -0.05400385 -0.0014502322 -0.06930376 -0.07027165 -0.06530798 -0.065837026 -0.0688642
0.04808258 -0.062273033 -0.081801794 -0.06867711 0.102359444 0.08979771 -0.031378083 0.08299362
-0.08081143 0.037321202 -0.106515266 -0.073377766 -0.06337912 -0.027017593 0.053631775 -0.015997503
-0.10521152 0.03369691 0.052107506 0.0034483685 0.09840919 0.09482139 -0.09727981 -0.079431176
0.10187902 -0.10322903 0.02671144 0.037510347 0.09035664 -0.044605616 0.018249959 -0.04152914
0.09556745 0.068635836 -0.03879556 -0.06740555 0.015584737 -0.09931808 -0.02537845 -0.029963141
0.082796656 -0.030853381 0.08667399 -0.078335464 0.043449327 -0.03982146 0.047671124 -0.06025585
0.0006504059 -0.040959522 -0.0054643005 8.79013e-05 -0.060622796 -0.011312256 -0.062294047 -0.09608451
-0.053280152 0.10409488 -0.09730542 -0.0013093165 0.09993213 0.060057607 -0.018374689 0.048600167
-0.02894486 -0.0077795 -0.097591735 0.07802279 -0.010823184 0.10457943 0.032576874 0.023294056
0.05774267 0.08347671 -0.09490235 -0.082320526 -0.005861709 -0.024009015 -0.092403926 0.044327255
0.057464056 0.04616468 -0.07070055 0.003167115 0.022049429 -0.04705304 0.106537655 -0.020608978
0.09431545 -0.06244052 -0.00859015 0.03096916 -0.10131801 0.034948945 -0.04285804 0.035742134
0.029432267 -0.074719615 0.0860126 -0.028006025 -0.041648425 -0.0075701517 -0.012767094 -0.017415715

bias f4 [512]
00000000: bd1a 14be 3f6e ae3e f5c3 a53e 6e0f 86be
00000010: 0de3 64be 7f7e 5dbe 2cf4 bc3e feac 193e
00000020: 613f b7bd bdaf 7bbe 22fa b83d a499 a5bd
00000030: d635 86bc 330f 45be 8482 b93d a811 843e
00000040: 44ac 9fbe e00a adbe 83fc f33d 94e0 62bd
00000050: 9550 823e 5c06 cc3d 5192 493e 5159 863c
00000060: 54f8 9f3d 4cde bbbe a036 96be f998 ba3e
00000070: 4ee7 87be 1185 103e e403 073e 306b 083e
00000080: fa49 56be b0cd 6a3a 54da a73d a582 bcbe
00000090: df16 09bd b621 62be b445 1fbe 44b0 223e
000000a0: 4789 f1bc e3fb 6abe 0445 8f3e 491a 8a3e
000000b0: c6a5 a03e cab1 e7bd 6468 67be a232 84be
000000c0: df7b 19be 7272 25bd 56b6 973e dbd6 2d3e
000000d0: d821 89be d679 bf3e 1c98 913d 0ea3 b33e
000000e0: e0c4 7c3c 1816 34be cec7 e4bd d421 1d3e
000000f0: f112 6cbc 20a5 ad3d 168c 51be 11ec b03e
00000100: 500b 85bd b576 95be 8ecd 833d 8f11 5f3e
00000110: 1470 20be da06 5fbe d0c3 b13d 36bb f4bd
00000120: 5320 823e 078f ad3e 44dc d13d 864a f2bd
00000130: 20b7 45be 1058 e23d 9aad 55be cab4 8cbe
00000140: 2a1d 0f3e cefd 653e 4980 40be 600d b6be
00000150: 9542 df3d cf8a 543d 1a33 093e 4013 c7bd
00000160: 0f1a a63e 3d7d dcbd 505b 503e 0b3a 4abd
00000170: 6242 b63d 576b c1be f3bc 163c 3c2c a03e
00000180: df3e 773e 55c7 453e e70f b3be 77cf 6c3e
00000190: aad3 babd 6f44 1cbe 2857 3bbe e3cc 4a3d
000001a0: 7e14 243e b959 093e 3a5e 9a3e 4e46 713e
000001b0: 8d7e 823e a02d 083e 4895 e2bd 278e 853e
000001c0: 5e42 89be 8e6f b0be cf69 983d f12a 9d3e
000001d0: 680e 493e 5f8c 493e 1fe1 0f3c 9ed3 513e
000001e0: b6f5 a7be 2af4 043e a6ba 3abe 58c8 5d3e
000001f0: 28e5 b5be 31c7 853e 8205 913e ad34 683e
00000200: fa48 963e b4bc be3d 4630 3ebe 560a 323d
00000210: ded2 183d 80f0 aabe dc5b 893e 6237 b33d
00000220: 31b8 a13d 5767 123e 6015 8dbc 842d 8ebd
00000230: 9502 eabc 4ae4 98be c5c7 933c e444 2b3e
00000240: 3cff 253e d8de 863e 68b0 81be bcda adbd
00000250: ac58 83be 64a5 b43e 9082 bebe f0f8 76be
00000260: 3121 bc3e 8f0e 543e d06a 2d3e bcae 203e
00000270: 9faf 9bbe cb71 023e 8e62 e6bc edfc a3be
00000280: 232c 20be 8864 a43e 59bd 1b3d c617 b63e
00000290: e6da 2fbe e1ee debd d49e c13e 062d 473e
000002a0: 7659 89be 58f5 be3e f377 7a3e 2fad 933c
000002b0: 2f45 cbbd 8711 7cbd 5577 f33d 625c 5b3e
000002c0: a0be bebb b9a0 81be d19d 853e ea70 833e
000002d0: 2b61 96be 25dc a53e 405c 583e 1973 37be
000002e0: fe54 24bd 2555 60bc a688 d43d b759 973d
000002f0: 801a 7abe 4701 9c3e f2e2 ccbd 4afa d7bd
00000300: a8ca 89be 7ee6 1abe db6b a9bd dde3 143e
00000310: 77ef 593e 37f0 89bd a2e0 9abe d44d 8c3c
00000320: b692 c33d 81b6 4a3e 992a 7d3c 267f 7ebe
00000330: 78e4 9dbc 1dcf dfbd c473 0b3d c06b 383e
00000340: 4eba 60be 1623 5d3e f5ce 75be faec 8e3e
00000350: 37d8 6dbe b447 7d3e f2c2 213e 86bf 56be
00000360: 26bc a93e 7c1f ba3e d8d3 adbd 1b69 183d
00000370: ca69 b2bd 294e f13d 5a1b 453d 781f 393e
00000380: af36 eebd 7178 50be 50d6 17be 0643 4fbe
00000390: d41f a3be aa81 b1be 2a79 1d3e 08bb 9b3e
000003a0: 9159 81be 0254 9cbe a0a1 c13e dc00 a8be
000003b0: 65a3 9dbe aaa2 033e b0d6 2d3e 313a 89be
000003c0: 5936 af3e 62fd 8d3d 9f7c 0abe d193 98be
000003d0: 2335 89be a50f cdbd f770 b63e e0e1 3abe
000003e0: 374a 933e 8044 b13a c947 293e 4050 e63d
000003f0: 079f b9bd de71 fcbd ef54 edbd e7c8 9ebd
-0.14463325 0.34068486 0.32376066 -0.26183647 -0.22352238 -0.21630286 0.36905038 0.15007398
-0.089476354 -0.24578758 0.09032084 -0.08085945 -0.016383093 -0.1924408 0.09058097 0.2579472
-0.31186116 -0.3379736 0.11913397 -0.055389956 0.25452104 0.099621505 0.19684722 0.016400011
0.07811037 -0.36693037 -0.2933855 0.36444834 -0.2654366 0.14113261 0.13185078 0.13322139
-0.20926657 0.00089570414 0.0819594 -0.36818424 -0.033469077 -0.22083172 -0.15553933 0.15887552
-0.029484404 -0.2294765 0.27982342 0.2697318 0.31376475 -0.113132074 -0.22598416 -0.2581988
-0.1498866 -0.040392347 0.296313 0.16976492 -0.26783633 0.3739764 0.07109091 0.35085338
0.015427798 -0.17586553 -0.11170922 0.15344936 -0.014408813 0.08478761 -0.20463595 0.34555104
-0.06496298 -0.2919213 0.06435691 0.21784042 -0.15667754 -0.21779957 0.086799264 -0.1194977
0.25415286 0.33898184 0.102470905 -0.118306205 -0.19308138 0.11051953 -0.20867005 -0.2748168
0.13975969 0.224601 -0.18798937 -0.3555708 0.109013714 0.05189019 0.133984 -0.097204685
0.32441756 -0.10766075 0.20347333 -0.04937176 0.0889938 -0.37777206 0.009200322 0.31283748
0.24145077 0.1931432 -0.3497307 0.23126017 -0.09122403 -0.1526048 -0.18294966 0.0495118
0.16023442 0.13413133 0.30150014 0.23561975 0.25487176 0.13298655 -0.110636294 0.26085016
-0.26808447 -0.3446011 0.074420564 0.30696824 0.19634402 0.19682454 0.0087817 0.20490882
-0.3280465 0.12983766 -0.18235263 0.21658456 -0.35526395 0.26128533 0.28324515 0.22676344
0.29352552 0.09313336 -0.18573102 0.04346689 0.037310474 -0.33386612 0.26827896 0.08750798
0.0789646 0.14297234 -0.017222106 -0.06942275 -0.028565684 -0.2986167 0.018039593 0.16725498
0.16210645 0.2634189 -0.253299 -0.08488986 -0.2565359 0.35282433 -0.37208986 -0.241184
0.36744073 0.20708679 0.16935277 0.15691656 -0.30407426 0.12738721 -0.028123166 -0.32028905
-0.15641837 0.3210795 0.038022373 0.35565013 -0.17173347 -0.10885406 0.3781649 0.19450769
-0.26826066 0.37296557 0.2445982 0.018026916 -0.09925305 -0.061540153 0.11887995 0.2142196
-0.005821064 -0.25317934 0.26096967 0.25672084 -0.29371008 0.3239452 0.2112894 -0.17915
-0.040120117 -0.013692175 0.10377626 0.073901586 -0.24424171 0.30469725 -0.10004224 -0.10545786
-0.26912427 -0.15126988 -0.08272525 0.14540048 0.21282755 -0.067352705 -0.30249506 0.017126955
0.09549467 0.19796182 0.015452051 -0.24853191 -0.019273981 -0.109281756 0.03404595 0.18009853
-0.2194607 0.21595415 -0.24004729 0.27915174 -0.2322701 0.24734384 0.15797022 -0.20971498
0.33151358 0.36352146 -0.084876716 0.03720961 -0.08711584 0.11782486 0.048121788 0.1807841
-0.11631524 -0.20358445 -0.14827847 -0.20240411 -0.3186022 -0.34669238 0.15378252 0.3041613
-0.25263646 -0.30532843 0.37818623 -0.32813156 -0.30788723 0.1285502 0.16976428 -0.2680221
0.3422115 0.069330946 -0.13524102 -0.29800275 -0.26798353 -0.100127496 0.3563306 -0.18250227
0.2876756 0.0013524443 0.1653129 0.11245775 -0.09063535 -0.12326406 -0.115884654 -0.07753163

weight f4 [7, 512]
00000000: 2465 59bd 347e c9bc 98e3 ad3d e029 a83d
00000010: c4ab b1bd 9590 78b8 71ca ce3c 9d2b a33d
00000020: faa2 e33c 82bd cdbd 40e5 4a3d da9c 983c
00000030: 71cd 783d 36f6 953d 8d62 83bd a78c a4bd
00000040: 5494 50bd c030 edba 21c9 6dbd 056c 4dbd
00000050: b885 f0bc a1b5 dc3c 85a1 55bd 9414 8cbc
00000060: cba8 a83d 0a09 953c a862 f23c 53d3 1abd
00000070: 5404 97bd 5c92 3a3d aa5d 84bc f1cd 78bd
00000080: 1699 953d 7beb 643d 8672 49bd 0ae2 b0bd
00000090: dc33 cf3c 85e2 123d a38e d93d bd8a 973d
000000a0: 7102 60bd 2ec9 e5bc 2dbc d93d 79d1 e63b
000000b0: dae4 cbbc d00a 02bd 1008 acbc e022 ce3c
000000c0: 90d1 be3c 9420 45bd 00f9 293d a972 a5bd
000000d0: 20af 013d 1538 d4bc 781e ad3c 270a 273d
000000e0: 518a 943d 3df9 ce3d 974d 89bd 77e0 ae3d
000000f0: 9199 c43d 3420 6d3d 0abb 963d f093 dd3d
00000100: a26f c0bd 26f8 a6bd 89aa 84bd 9791 c0bd
00000110: c6c0 e5bc c3f2 ac3d fe21 d7bd 2319 9cbd
00000120: 4bca 223d bd38 b9bc 2e00 9f3d 097c 903b
00000130: 8089 503a a2c1 a03d 509f d6ba 959a 73bc
00000140: d18d 863d d530 0abd fb5f 9e3d ae77 a73d
00000150: 9cd4 9fbd 3eb9 d9bd b64c 713d 4d8d d63d
00000160: 74ac 873d b37a 20bd 1f4e 743d 77af a63d
00000170: a78b 0ebb e4f7 a23d 97b5 153d 20c7 10bd
00000180: a909 aa3d e302 b3bd 8216 563c 8677 bd3d
00000190: 9ef8 da3d c091 79bd 4c12 803d ba54 bb3d
000001a0: b2b2 8e3d 9334 2ebd e568 81bc 3ed0 ba3d
000001b0: 74c5 233d 81b9 6d3d d465 efbc d377 98bd
000001c0: 1d32 133d a1a9 31bd 5752 00ba bb1c 12bd
000001d0: d1cf 9fbc bd47 adbd 2722 d0bd 16c3 b13d
000001e0: 92a3 5bbd a179 dabc 55b6 b43d b3c1 63bb
000001f0: 56ce bbbd 45cb 8b3d d4d8 913c 8bee 6fbd
00000200: bc9b c33c 0214 cc3d 8c2f 8f3c 63b6 a13d
00000210: ceb9 413d dc60 933d 0155 8c3d 205e 233d
00000220: c78d 0e3d b0e2 52bd e849 a1bd 01cb 21bd
00000230: 2ef8 bfbc 3877 fdbc f118 a93d 0bd1 21bd
00000240: 43e7 debd e1a5 193d b320 c5bd 2873 d5bd
00000250: a464 7fbb a52e a73b c0e3 7a3d d2ec ca3d
00000260: 4d22 68bc d894 633d 3569 99bd ec32 803d
00000270: 8a36 cc3d 7377 093d bc88 973a 9cf1 4a3d
00000280: 9813 363d c376 de3d e580 d33d a4a1 a33c
00000290: aefa 693b 1a08 0abd 6a36 b9bc cc3f da3d
000002a0: 409c b03c f5b7 9e3d 64e5 af3d c0fb f43c
000002b0: ffed 3a3d 8dc3 403d 6262 4d3c b766 aabd
000002c0: e95e 81bd 4885 f43b b87f c13c d3db 2dbb
000002d0: 686c 563d 4acf 8abd 1f24 573d 7fd9 e2bb
000002e0: 5598 983c bc2c 88bd 45b5 a13d aed2 9c3c
000002f0: 2ac5 b63c 05ca 08bd 752b 283d 1a62 583d
00000300: e076 b9bb 38ce 54bd db92 b03d 7e57 bcbd
00000310: ed8f 823d 2765 ef3c 34ad bebc 8cda ba3d
00000320: af9b 883d 6d69 c53c 2ab2 eabc c13b f83c
00000330: ac33 463a f1c3 60bd 8607 2b3d dfe0 8fbc
00000340: 5660 31bd d0e4 d13d c87c a43d 9956 963c
00000350: eb81 bbbd 70b3 2dbd 21fe 10bd 38c5 833d
00000360: b92c 40bd 8009 3dbc b6d3 aabd c6de 813d
00000370: 7262 773d ec3c 8dbd e0be 13bd 7f4d 43bd
00000380: 5688 76bd 580a dbbd 32af 83bc 9d1c a53d
00000390: b863 363d c686 913d e788 71bd e872 8fbd
000003a0: 55d5 c03d 60ba 9e3c c193 da3d 10d9 ae3c
000003b0: 3584 89bd b76d 1cbb 8950 bcbd 4a41 bb3d
000003c0: c3cb 533a 5d87 6cbd c895 c03d 2f14 b5bd
000003d0: 8ed4 02bd d14a af3c ebab c0bc 4d10 a2bd
000003e0: 608f 57bc eb20 48bd 3c9f c13d f25c b53d
000003f0: 875a 653d 27c3 af3c b3f9 ab3d 365f 9abc
-0.05307497 -0.024596311 0.08490676 0.08211112 -0.0867534 -5.926246e-05 0.025243016 0.07967303
0.027787674 -0.10045911 0.049535036 0.01862948 0.0607428 0.07322352 -0.064152814 -0.0803464
-0.050922707 -0.0018096194 -0.05805314 -0.050151844 -0.029360637 0.026942076 -0.05215599 -0.017099656
0.0823532 0.018192787 0.029588059 -0.03779919 -0.073738724 0.045549735 -0.016157944 -0.060743276
0.073045895 0.055888634 -0.049181484 -0.086368635 0.025293283 0.035860557 0.10622909 0.07399509
-0.05468983 -0.028050032 0.10631595 0.007044014 -0.024889398 -0.031748593 -0.020999938 0.025163114
0.023293287 -0.048126772 0.04149723 -0.0807851 0.031661153 -0.025905648 0.021132693 0.040781166
0.07252944 0.10106132 -0.06704252 0.08538907 0.09599603 0.05789204 0.073598936 0.108192325
-0.09396292 -0.08152799 -0.064778395 -0.09402769 -0.028046023 0.084447406 -0.1050453 -0.07621982
0.039743703 -0.022610063 0.07763706 0.0044093174 0.00079550594 0.078494325 -0.0016374383 -0.014868398
0.06570018 -0.033737976 0.077331506 0.08177124 -0.07804224 -0.10631035 0.058911048 0.1047617
0.0662469 -0.039179515 0.059644815 0.08138936 -0.002175072 0.07957438 0.03655013 -0.03534615
0.08302624 -0.08740785 0.01306689 0.09251313 0.10691951 -0.060930014 0.0625349 0.0914702
0.06967677 -0.042530607 -0.015797088 0.0912175 0.039983228 0.05803824 -0.02922336 -0.0744473
0.035936464 -0.04337466 -0.0004895082 -0.03567193 -0.019508274 -0.084609486 -0.10162764 0.08679788
-0.05362279 -0.026669325 0.088238396 -0.0034752905 -0.09170215 0.0682588 0.017803587 -0.0585771
0.02387797 0.09964754 0.017478727 0.07896116 0.047296338 0.07196209 0.06852151 0.039884686
0.03480318 -0.051485717 -0.078754246 -0.03950024 -0.023433771 -0.030940637 0.0825671 -0.039506
-0.108839534 0.03751171 -0.096253775 -0.10422355 -0.0038969899 0.005101996 0.061252356 0.09908451
-0.014168334 0.05556187 -0.0749077 0.062597126 0.0997134 0.03356118 0.0011561136 0.049546823
0.04445228 0.10862496 0.10327319 0.019974537 0.0035702395 -0.033699133 -0.022608954 0.106566995
0.02155888 0.07749931 0.08588675 0.0299052 0.045637127 0.04706149 0.012535663 -0.083203726
-0.06316931 0.0074621774 0.023620471 -0.002652873 0.052349478 -0.067778185 0.052524682 -0.0069229
0.018627325 -0.066491574 0.078959025 0.019143429 0.022310812 -0.033395786 0.04105707 0.052827932
-0.005659923 -0.051954478 0.086217605 -0.09196375 0.06375108 0.029223038 -0.023275949 0.09123716
0.06670319 0.024098122 -0.028649408 0.03030193 0.00075608003 -0.054874364 0.04175522 -0.017563282
-0.043304764 0.10248721 0.08031613 0.01835184 -0.09155639 -0.042407453 -0.035398606 0.06434101
-0.04691765 -0.0115379095 -0.08341162 0.06341319 0.06039662 -0.068963856 -0.036070704 -0.047681328
-0.060188614 -0.10695332 -0.01607475 0.08062098 0.044528693 0.07105784 -0.05896845 -0.070043385
0.0941569 0.01937598 0.10672713 0.021343738 -0.067146696 -0.0023869106 -0.09195048 0.09143312
0.0008079374 -0.05774628 0.094035685 -0.0884174 -0.03194099 0.02139798 -0.023519477 -0.079132654
-0.013156742 -0.048859518 0.094542 0.088556185 0.055994537 0.02145536 0.08397236 -0.018844228

bias f4 [7]
00000000: 2601 713a 442c 8abc 5872 5a3b fb79 e43c
00000010: 9d70 afbc 4831 5c3b b8f9 4cbc
0.00091935915 -0.01686681 0.0033332314 0.027890196 -0.021416003 0.003359871 -0.012510709

weight f4 [7]
00000000: db0b 7e3f 462b 7d3f a565 803f c976 7d3f
00000010: 4cd9 7f3f 9f25 823f b019 813f
0.9923684 0.98894155 1.003102 0.99009377 0.99940944 1.0167731 1.0085964

bias f4 [7]
00000000: 48d2 d2b8 fec1 9bbb f2d1 193c dfa3 85b9
00000010: ab27 5e3b f5cb 91ba d2c6 a8bb
-0.00010052748 -0.0047533503 0.009388434 -0.0002548983 0.0033898156 -0.0011123406 -0.0051506544

weight f4 [7]
00000000: 357a 7e3f 8b38 7e3f 67bf 813f 8988 7e3f
00000010: d11d 7a3f 886f 813f 814e 823f
0.99405223 0.9930503 1.0136536 0.99427086 0.97701746 1.0112162 1.0180207

bias f4 [7]
00000000: 855b e03b aa87 223b 2a1a 6f3c caf7 513b
00000010: 65de f03b 7d21 a7bb ebc9 d6ba
0.0068468475 0.00248001 0.01459364 0.0032038563 0.0073507302 -0.0051004277 -0.001638708

in_proj_weight f4 [21, 7]
00000000: 5879 6a3c ebf7 323e afd1 6d3e 5cf2 c2b9
00000010: 8630 e3be fc1a 8fbd 1045 c73e 5ec0 a7be
00000020: b25f 27be 89ed 173e 31d2 04be 8ea5 083e
00000030: 1d69 b93e d0ad c73e 92d6 aebe aed6 803e
00000040: b18b cdbe ecac abbe 661e 773e 9c8d c43c
00000050: 560b a7be e3c0 4fba 91c4 01be 50b2 a2be
00000060: a59c e6bd d29d 62be 49bc 4cbe 0006 98be
00000070: 105e 8b3c 00cb 03be 34c5 d03e 1117 0f3e
00000080: 578e ddbe f9fc fa3c a346 813e bbdf a73c
00000090: c016 76be cc8f 003e 1435 28be ffa9 473d
000000a0: 7b55 abbe 5fd8 363d 0029 94be 180f b13d
000000b0: a638 9dbe 06df 2b3e 3ee7 8bbd afbf 183e
000000c0: 427b 553e e536 90be 8456 533d 0c7b 123e
000000d0: f9a2 cd3c 3ae7 c5be 80dc 0dbe 0cb8 a93e
000000e0: 3e76 53be 7355 90be e7d2 b5bb e422 c2be
000000f0: d4d6 d0bc 4535 85bc 4c74 c13e 9968 d6be
00000100: 5019 313e b8cf 90bd a05c b53e c714 6dbc
00000110: 3a6e ef3e 958b 153e fdf8 a63d 182e afbe
00000120: efcc 49be b855 a03e bfc4 9ebc f1ab 803d
00000130: cced 573e c88b 5cbe 7dd9 b73e 8433 7c3e
00000140: 7965 0b3e 1c24 e83e 1ae0 a53e 766f 423e
00000150: 641d 623c 6dd7 b1bd 7d69 8e3e 984a 943e
00000160: 24e9 8abb 4bd1 8fbe a63d 143b 6fc1 a33e
00000170: d779 923d 25aa 893e 9152 dbbe e545 b93e
00000180: 9ea5 053e ad6a 34be 6c0a a43e 4684 b23e
00000190: 6b36 56be d3b9 d8be 82bf d7bd 70f6 a33e
000001a0: a211 983d 76ec ecbe 0cc4 d93e 4660 793e
000001b0: 9c7c ccbe 4790 d23d d539 733d 844f 923e
000001c0: 9320 233e 1875 673e 84f2 ae3e dd46 503d
000001d0: 740e 5b3e 8722 c3be 0efe 433e 3b71 8d3e
000001e0: 8759 963e fd8a c53c fbec 183d 10a6 663e
000001f0: 8c46 bd3e a01d 4abe deaf 55be fcbb e9bd
00000200: 4663 c03d 71ee 27be 056f d6bc 8249 29be
00000210: 879c b93e 3ea5 e53e 5cb3 82be 0c54 d33e
00000220: 34aa dbbd d464 dbbe 6237 953e a856 e7be
00000230: 92dd 31be 733a e73e b50f 843e 283a e9bc
00000240: 8c75 bdbe 76cd 91be c4bf bbbe
0.014311157 0.17477386 0.23224519 -0.00037183135 -0.44372958 -0.06987569 0.38919878 -0.32763952
-0.16345099 0.14836706 -0.12970807 0.13344404 0.36213008 0.38999796 -0.3414808 0.25163788
-0.4014564 -0.33530366 0.2413269 0.023993306 -0.32625836 -0.00079251657 -0.1267264 -0.31776667
-0.11260346 -0.22130516 -0.199937 -0.29692078 0.017012626 -0.12870407 0.40775454 0.13973643
-0.4327266 0.030638205 0.25249204 0.020492425 -0.24032116 0.12554854 -0.16426498 0.048746105
-0.33463654 0.04463994 -0.2893753 0.08645457 -0.30707282 0.16784295 -0.06831215 0.14916871
0.208478 -0.2816688 0.05159618 0.14304751 0.025102125 -0.38652974 -0.13853645 0.3314823
-0.20650575 -0.28190193 -0.005548823 -0.37917244 -0.025493063 -0.016260752 0.3778404 -0.41876677
0.17294812 -0.07070869 0.3542223 -0.014470286 0.46763784 0.14604028 0.081529595 -0.34214854
-0.19707082 0.31315398 -0.019380925 0.06282795 0.21086806 -0.21537697 0.35908118 0.24629027
0.13612927 0.4534005 0.32397538 0.18987831 0.013800953 -0.08683667 0.27814856 0.2896316
-0.0042392183 -0.28089365 0.0022619753 0.31983516 0.07152145 0.26887622 -0.4283643 0.36186138
0.13051459 -0.17618819 0.320392 0.34866542 -0.20919196 -0.42329273 -0.10534574 0.32023954
0.07425238 -0.46274155 0.42532384 0.24353132 -0.3993882 0.10281425 0.059381325 0.2857629
0.15930395 0.22603261 0.341694 0.05084883 0.21392232 -0.3811228 0.19139883 0.2762545
0.2936518 0.024114126 0.037335377 0.22524285 0.36967885 -0.19737864 -0.2086787 -0.11412808
0.09393935 -0.16399552 -0.026175985 -0.16531947 0.36252233 0.44852632 -0.25527465 0.4127506
-0.10725823 -0.42850363 0.29143816 -0.451833 -0.17369679 0.4516178 0.25793234 -0.028470114
-0.37003744 -0.28477067 -0.36669743

in_proj_bias f4 [21]
00000000: 952a c139 ebfa 643b d4c7 25bb baed 88bb
00000010: 6c94 043a a956 a338 cb02 54ba 0c6c 6a2a
00000020: 9a51 f3ac 1a1f 652e 57b4 19ac 744b d1ad
00000030: f27c 0a2d 0e8e 4f2d 2c0e 03bc c077 543c
00000040: 1295 c33b 7c58 3e3c 779f 94ba f638 1f3c
00000050: 5c2a 55bb
0.00036843555 0.0034939598 -0.0025296109 -0.00417873 0.0005057517 7.7885874e-05 -0.00080875744 2.0820861e-13
-6.915535e-12 5.2096195e-11 -2.1842716e-12 -2.3794057e-11 7.872135e-12 1.179813e-11 -0.007998984 0.012968004
0.0059686983 0.011617776 -0.0011339028 0.00971817 -0.003252647

weight f4 [7, 7]
00000000: 07d3 abbe 8789 503e 6f09 973e d834 403e
00000010: fa17 c13e 3e34 443e 1711 0fbd 91b4 05bf
00000020: a441 cc3e 9f50 d43e 0ef8 a7bc 0974 93be
00000030: 7260 6dbe ed67 e1be 403e 98bd ede9 61be
00000040: 1468 e6be 91e6 963e 2ad8 f6be 3da9 dd3e
00000050: 1c54 e23e 2776 4abd 0303 0f3f 8cc1 213e
00000060: a868 fc3e 283c 20bf 1236 933d bbb3 22be
00000070: 0a8b 21bf 9f02 c23e 3f83 96be bbae 2a3e
00000080: 8000 c6be c0d1 c3bd e4cf 1d3f 6383 a83e
00000090: 1a14 23bf ed6d d6be 8ba5 11bf cbf1 3cbe
000000a0: f064 0cbf 8c5a a13e 99e0 d7bd b3f0 f43d
000000b0: 8d4c b13d 4e12 d93e 66c0 9c3e 8f3c a6bd
000000c0: aa1e 8f3e
-0.3355944 0.20364963 0.29499385 0.18770158 0.37713605 0.19160554 -0.034928408 -0.5222865
0.3989383 0.4146776 -0.020504024 -0.28799465 -0.23181322 -0.44024602 -0.07433748 -0.22061892
-0.4500128 0.29472783 -0.48211795 0.4329318 0.44204795 -0.049429085 0.5586397 0.15796489
0.49298596 -0.6259179 0.071880475 -0.15888874 -0.6310278 0.37892625 -0.29397008 0.16668217
-0.38672256 -0.09561491 0.6164534 0.3291274 -0.6370255 -0.41880742 -0.56893224 -0.18451612
-0.5484152 0.31514394 -0.105408855 0.11959972 0.08657179 0.42396778 0.30615538 -0.081170194
0.27953082

bias f4 [7]
00000000: b02b d93b abff 4eba 51d2 db3a dc03 b13b
00000010: 8b3b 463b 1be4 57bc c650 24bb
0.0066275224 -0.0007896374 0.0016771053 0.0054020714 0.0030247893 -0.013176943 -0.0025072559

weight f4 [512, 7]
00000000: 47af 583d c8da c3bc 43b9 dd3b da35 1f3c
00000010: ab6d 453c 5a0a 76bd c1cd 89bd 8520 a6bd
00000020: 6770 38bd 9c60 703d ee1d 7abd c1ba 61bd
00000030: 5911 403d 14d9 48bd 7b8f c53d 5192 a5bd
00000040: c59a 96bd ed7f 4cbd 75c0 9a3d a472 9dbd
00000050: 155f a93c 4074 843b 8abd a53d b2af ac3d
00000060: 046d 0cbd 18f1 373d 789b c93d 6067 d53c
00000070: 582a 953c 7b59 8d3d 69fb bc3c 675c fd3b
00000080: f916 8fbd ff4d cfbd b27d a43d 812a adbc
00000090: 9dc3 9abd 0b36 cb3c bf4c 8a3d 26a4 36bd
000000a0: dc56 76bd 2806 c9bd 0651 43bd 5a34 263d
000000b0: a5c9 a93d 4b74 39bd c670 aebd f6f9 813d
000000c0: b3f8 dcbd 8b51 7dbd a3c0 84bd ce0d 603d
000000d0: 97fc 04bc 0bb2 c53d 44a1 92bc 6029 9c39
000000e0: 2c66 383d 600e bcbd 73b5 d0bc 2c82 c1bd
000000f0: 4099 883d 2ddf b7bd cdee d9bd cc1a f3bc
00000100: 04f0 173d 2491 a6bc baf5 18bd 66ba 56bd
00000110: 90ee 18bd 1246 61bd 7725 5ebd f14d ce3d
00000120: 7847 b6bd 1b3a b1bd 77fb 093d 91bc 46bd
00000130: 14c3 ca3d 8753 cbbd 164c b83c 3451 33bd
00000140: c754 dbbd 9171 35bd 8114 b43c ec5a cfbd
00000150: 48f6 cdbd f844 99bd a7e1 cf3d 46a8 d63d
00000160: 6181 82b8 66f8 d63d f4ec 8f3d e504 c6bd
00000170: 1af0 d63d 3082 9ebd c868 a93d 6b55 94bd
00000180: c71b 2e3d 2226 163d 8486 923d bc06 ab3d
00000190: 114b 1bbc fbca 16bd e849 a4bd da59 40bd
000001a0: c8d0 e53c 78ae 403d f8e0 57bd bf4f b2bd
000001b0: eeee 213d a39a 5fbd ca48 61bd fd37 a83c
000001c0: f36b a7bd 8a6e 8fbd 98b7 32bc 1c82 32bd
000001d0: c8e2 c0bd f64e 56bd 1ade 75bd 0394 bbbd
000001e0: e077 cb3d 9274 57bd ac93 3a3d 254e 603d
000001f0: 0174 17bd 676e 983c b1d0 3cbd ea21 cb3c
00000200: 1c79 62bc 7d54 923c 360d 973d 13e2 cfbd
00000210: 9018 4ebc 69e9 f8bb f56b 4abd c250 96bd
00000220: 6718 86bd 0522 8fbd b67f cb3d d4f5 c1bd
00000230: 4a37 d73d c0cb e7bc 180a 79bd c3d4 c63d
00000240: 3359 a13c 49a5 38bd a33a c5bc 2cc9 3b3d
00000250: 8c2e 7f3d 37b2 a83d 3f96 d8bd 76c0 753b
00000260: 2729 eb3c 179d ba3d 0e95 c53d 09f9 343c
00000270: f59b a4bb 42f1 803d 88f7 9a3d 331d 893c
00000280: 2c8e 003b f4a3 00bd 53a2 d7bd e211 d23d
00000290: 5d27 1c3d 1ca0 4c3d 3e7e b73d 7bd0 a2bc
000002a0: 26cb 8a3d 6445 c7bd 4d44 39bd 99ba 0dbd
000002b0: 91da 823d 4403 66bd fa31 8abd cefc d43d
000002c0: 728d 8bbd fc97 263d 7919 dcbd 3814 8dbc
000002d0: b814 1d3d b40c fabc 6c8b 963d 0ce3 883d
000002e0: 70c8 61bd b0dd fabb 8c5c 69bd 733d 1ebd
000002f0: d0c8 71bc ce4f 463d 7eed 44bd 17a4 d53d
00000300: 36dc 173d e85f e13c dbbf a93c 181f 2b3d
00000310: 5aaf 683c c387 a73d d84c 8b3d 821f bdbd
00000320: f09b bf3d d825 c3bd 5c40 c1bc 7d67 af3d
00000330: 8390 af3d 7931 b63b a9ea ba3d b35e 4f3d
00000340: 35ef 2bbd d7f8 2c3b 1a7e 8fbd ab00 c23d
00000350: c7f4 d43c e07d b3bd 8d8a 5dbd 5ff3 a23d
00000360: d0d3 49bd 46a1 d03d a8ce bfbd 141d 873d
00000370: 593a cabd a0a1 80bd 26fa 9fbd f96a 71bd
00000380: f86a 3fbd 476a fc3c 95f0 51bd 6ec5 bdbc
00000390: 6daa 94bd 465c babc 8e56 33bd 13a7 fc3c
000003a0: e4e0 7fbd 9fad 53bd 24c7 2d3d 20ad 9abd
000003b0: fd98 cf3c 2c31 94bd 04bb 81bd bd5e 3f3d
000003c0: 7584 c8bd a1f8 7abd 882c f2bb 33f0 d73b
000003d0: 1494 aabd 8084 063a 3c88 b6bd e082 933d
000003e0: 5669 0bbd c020 493d 68e3 573d 9272 943d
000003f0: a114 a73d a5e7 583d c22c 623d 1f49 bcbd
0.052901533 -0.023908034 0.0067664697 0.009717429 0.012050073 -0.060068466 -0.067286976 -0.08111671
-0.04502907 0.058685884 -0.0610637 -0.055109743 0.046891544 -0.049035147 0.09646507 -0.08084548
-0.07353739 -0.049926687 0.075562395 -0.076878816 0.020675221 0.0040421784 0.08092792 0.08431949
-0.034283653 0.04490766 0.098441064 0.02605027 0.018208668 0.06901833 0.0230691 0.0077319625
-0.069868036 -0.101222984 0.08031787 -0.021138432 -0.075568415 0.024806043 0.067529194 -0.044590138
-0.06014143 -0.09815627 -0.04768469 0.04057727 0.08290414 -0.04527692 -0.085176036 0.063465044
-0.10789623 -0.061845344 -0.06482055 0.054700665 -0.008116863 0.096530996 -0.017899163 0.00029785465
0.045019314 -0.09182429 -0.025477147 -0.094486564 0.06669855 -0.08978114 -0.10641251 -0.029675864
0.03709413 -0.02033288 -0.037343718 -0.052423857 -0.037336886 -0.054998465 -0.054234948 0.1007346
-0.0890035 -0.08653661 0.03368708 -0.048519675 0.099004894 -0.09928041 0.022497218 -0.043778613
-0.10709529 -0.04429776 0.021982433 -0.10124764 -0.1005674 -0.07483858 0.10150462 0.10481314
-6.222982e-05 0.10496597 0.07027617 -0.09668902 0.104950145 -0.07739675 0.082719386 -0.07242855
0.04250696 0.03665746 0.07154563 0.08350894 -0.009478346 -0.03681467 -0.08021909 -0.04696069
0.028053656 0.047041386 -0.05270478 -0.087066166 0.0395345 -0.054590832 -0.055001058 0.02053451
-0.081748866 -0.070035055 -0.01090803 -0.043581113 -0.09418255 -0.052321397 -0.060026266 -0.0915909
0.09934974 -0.052601404 0.045550987 0.054762024 -0.036975864 0.018607331 -0.04609746 0.024796445
-0.01382282 0.017862553 0.07375567 -0.10150542 -0.012579098 -0.007596184 -0.049419362 -0.07339622
-0.06547623 -0.069889106 0.09936468 -0.09470716 0.105085924 -0.028295398 -0.06080064 0.0970855
0.019695854 -0.045079503 -0.024075812 0.04584615 0.06230025 0.08237117 -0.10575532 0.003749875
0.028706146 0.09111994 0.096475706 0.011045703 -0.0050234743 0.06296016 0.07566744 0.016737556
0.001961599 -0.031406358 -0.10529008 0.10257317 0.038123477 0.04995738 0.08959626 -0.019874802
0.06777029 -0.09730032 -0.045231152 -0.03460178 0.063893445 -0.056155458 -0.067478135 0.10399781
-0.06814088 0.040672287 -0.10747046 -0.017221555 0.038349837 -0.030523635 0.07350811 0.06683931
-0.055122793 -0.0076558217 -0.056973025 -0.03863282 -0.01475735 0.04841595 -0.048078053 0.10431688
0.037075244 0.027511552 0.020721367 0.0417777 0.014201963 0.08180191 0.06801766 -0.09234525
0.093559146 -0.095287025 -0.02359026 0.08564661 0.08572485 0.005560097 0.09126789 0.05062742
-0.041976172 0.0026393437 -0.07006474 0.09472784 0.025995625 -0.08764243 -0.05408721 0.079565756
-0.049274266 0.101870105 -0.093655884 0.06597343 -0.0987441 -0.062808275 -0.07811384 -0.058939908
-0.046732873 0.030812396 -0.051254828 -0.02316543 -0.07259069 -0.022749078 -0.043783717 0.030841386
-0.06247033 -0.05167925 0.042426243 -0.07552552 0.025341505 -0.07235941 -0.063344985 0.04672121
-0.09790889 -0.061272267 -0.0073905624 0.0065899133 -0.08329025 0.00051314384 -0.089127034 0.07202697
-0.034036003 0.0491035 0.052707106 0.07248415 0.081582315 0.05295529 0.055218466 -0.09193634

bias f4 [512]
00000000: 9348 14be e438 af3e 4598 a53e 6e0f 86be
00000010: cffc 61be 4987 5dbe eb3b bd3e 8c99 173e
00000020: 9ef7 b4bd 54b7 7bbe 1a82 b73d b657 a8bd
00000030: d5a4 93bc 5883 44be 9946 ba3d ae85 843e
00000040: 79ac 9fbe 910a adbe 909b f33d 4a8b 51bd
00000050: 6929 823e a94b ce3d b1dd 483e 9c3e 763c
00000060: c343 9c3d d965 bcbe 0a38 96be 3848 ba3e
00000070: 2fe8 87be f6a8 113e 630a 0a3e e768 093e
00000080: 1c8e 53be f46a 9e39 536c a53d a582 bcbe
00000090: eff5 18bd 2b24 62be f1d0 1ebe 12a9 203e
000000a0: 6885 dfbc 90fc 6abe ceb8 8e3e b504 8b3e
000000b0: dda7 a03e bff5 e6bd a1e1 62be de32 84be
000000c0: 81cc 1abe 5df6 27bd 38a3 973e a8ca 2d3e
000000d0: 2232 89be 3e70 bf3e e3bd 963d d31d b43e
000000e0: c0c7 733c c8f2 32be 907d e4bd 9f0b 1c3e
000000f0: aa1e 83bc 6824 b03d b379 51be 0097 b13e
00000100: 1878 84bd 8b45 96be e0bb 813d e8b5 5f3e
00000110: e601 21be 1c70 5ebe 777e ae3d 96aa f0bd
00000120: 4114 823e c957 ad3e 068f cd3d 8e7e efbd
00000130: 55bb 45be 70e7 df3d 9f84 56be 0aad 8cbe
00000140: 0dd7 0f3e 7630 663e b796 41be 600d b6be
00000150: f8ec e33d 0f89 633d cfed 083e f788 cabd
00000160: 3891 a63e e160 dbbd ba51 523e 1dbc 4cbd
00000170: b4c7 b53d 576b c1be 2c20 c83b 95b7 a03e
00000180: 0af1 753e ce2c 443e 890f b3be 5192 693e
00000190: faf1 b8bd e846 1dbe c152 3bbe 00cc 4b3d
000001a0: 81dc 223e 3dab 0a3e 2f22 9b3e 3ad3 713e
000001b0: a108 833e 0ecb 083e 2ea0 ddbd 9682 853e
000001c0: 573b 89be 876f b0be d395 943d e89a 9d3e
000001d0: de56 483e 7306 4a3e a1fe 0f3c 279a 513e
000001e0: d7f5 a7be 9860 073e a826 3abe 41e8 5e3e
000001f0: 28e5 b5be 91d9 863e 7f37 913e b98e 673e
00000200: fac4 953e 756e bf3d ac7d 3dbe 8607 2a3d
00000210: 411f 1d3d e4ea aabe 0c99 883e a8d7 b23d
00000220: 9163 9f3d 4c44 103e c342 6bbc 28ee 8bbd
00000230: c19e edbc 4ae4 98be e3ee 9d3c ba2a 2b3e
00000240: 27b7 243e b7ee 873e a4b0 81be 2894 abbd
00000250: ce3b 83be 81d5 b43e 9082 bebe 1ef9 76be
00000260: d3cf bc3e f836 533e 94ae 2e3e fa12 1f3e
00000270: 21f6 9dbe fa80 033e c11b d5bc e3e5 a3be
00000280: c6a3 20be 1ece a33e aab5 1a3d 7675 b63e
00000290: 89e0 2fbe d0cc dcbd ea04 c13e 6c50 493e
000002a0: 7659 89be 6311 bf3e eba0 7a3e 1455 9f3c
000002b0: 4929 ccbd 9860 76bd 65b6 f73d 43e2 5b3e
000002c0: 9f7e e8bb 9486 81be a601 873e 6940 813e
000002d0: 2661 96be c702 a73e 27e6 563e 177d 36be
000002e0: bc1a 20bd 8ad6 80bc 5bbe d63d 3bff 983d
000002f0: 854b 78be f090 9b3e 0b60 c9bd 15a2 dabd
00000300: a8ca 89be cd59 1abe c92d a9bd 83f5 133e
00000310: 07f8 583e eacd 86bd cce0 9abe 7982 633c
00000320: 664e c23d 7afa 493e 93cf 813c 7289 7fbe
00000330: ebd8 9fbc 183e ddbd 3217 0b3d ca11 383e
00000340: f7c3 60be 6cae 5d3e f5cd 75be 1a66 8e3e
00000350: afce 6cbe 53f3 7e3e d974 203e 0a04 57be
00000360: 2afb a93e d42c bb3e e853 aabd 57b3 093d
00000370: 5d8b afbd 1169 f23d 8160 413d 006a 393e
00000380: 0519 f0bd e5d8 51be e289 18be 87fb 4ebe
00000390: d41f a3be 8fb9 b1be 8b6d 1e3e 9246 9c3e
000003a0: a175 81be 4a4f 9cbe 5d44 c13e f9e9 a7be
000003b0: 42a4 9dbe 785d 023e 4bd5 2e3e 2294 89be
000003c0: 129c af3e 2617 8f3d b9f7 07be bd94 98be
000003d0: 032d 89be adfc ccbd ad13 b73e a4d7 3abe
000003e0: 5fcf 923e 1d16 163a e861 293e 52d4 e83d
000003f0: c4ce c0bd 8976 fcbd 39a4 eabd f47b a1bd
-0.1448081 0.34223092 0.32342735 -0.26183647 -0.22069095 -0.21633638 0.36959776 0.14804667
-0.08836292 -0.24581653 0.08960362 -0.082198545 -0.018022934 -0.19190729 0.09095497 0.2588324
-0.31186274 -0.33797124 0.118949056 -0.051158227 0.25422218 0.10073025 0.19615819 0.015029576
0.07630112 -0.36796454 -0.2933963 0.36383224 -0.2654433 0.1422461 0.13480525 0.13418923
-0.20659679 0.00030215795 0.08077302 -0.36818424 -0.037343916 -0.2208411 -0.15509392 0.15689495
-0.027285293 -0.22947907 0.2787537 0.2715203 0.3137807 -0.11277341 -0.22156383 -0.2582006
-0.15117075 -0.041006435 0.29616714 0.16971838 -0.2679606 0.37390321 0.07360437 0.35179004
0.014879167 -0.17475426 -0.11156762 0.15238808 -0.016005833 0.08600694 -0.20456581 0.34685516
-0.064682186 -0.29349932 0.063346624 0.21846735 -0.1572338 -0.21722454 0.08520215 -0.11751287
0.25406078 0.33856037 0.10037045 -0.1169406 -0.19309743 0.10932815 -0.20949028 -0.27475768
0.14046879 0.22479424 -0.1890515 -0.3555708 0.111291826 0.05555063 0.13371967 -0.09889405
0.32532668 -0.107118376 0.20538989 -0.049984086 0.08875981 -0.37777206 0.006107351 0.31390062
0.2401773 0.19157717 -0.3497279 0.22809722 -0.09030528 -0.1535908 -0.18293287 0.049755096
0.15904428 0.13541885 0.30299518 0.23615733 0.2559252 0.13358709 -0.108215675 0.26076192
-0.26803085 -0.3446009 0.07255139 0.30782247 0.19564387 0.19729023 0.008788736 0.2046896
-0.32804748 0.13220441 -0.18178809 0.21768285 -0.35526395 0.26337865 0.28362653 0.22613038
0.29251844 0.0934724 -0.18504971 0.04151108 0.038359884 -0.33382332 0.26679265 0.087325394
0.07782663 0.14088553 -0.014359179 -0.06832534 -0.029006364 -0.2986167 0.01927895 0.16715518
0.16085492 0.26549312 -0.2533008 -0.08377868 -0.25631565 0.3531914 -0.37208986 -0.24118468
0.36877307 0.20626438 0.17058784 0.15534583 -0.30851844 0.1284217 -0.02601421 -0.32011327
-0.15687475 0.31993192 0.037770905 0.3563649 -0.17175497 -0.107812524 0.37699062 0.19659585
-0.26826066 0.37317953 0.24475448 0.019449748 -0.09968812 -0.060150713 0.12095336 0.21473031
-0.0070951725 -0.25297987 0.26368445 0.25244454 -0.29370993 0.32619306 0.20986234 -0.17821155
-0.039087996 -0.0157273 0.10485526 0.07470556 -0.24247558 0.30384016 -0.09832772 -0.10675446
-0.26912427 -0.15073319 -0.08260686 0.14449124 0.21188365 -0.06582244 -0.3024963 0.013886088
0.094876096 0.19724455 0.01584605 -0.24954775 -0.019512614 -0.10802859 0.033957668 0.17975536
-0.21949755 0.21648568 -0.24004348 0.27812272 -0.23125719 0.24897508 0.15669574 -0.20997635
0.33199435 0.3655764 -0.08316785 0.033618297 -0.08571503 0.11836446 0.047211174 0.18106842
-0.11723522 -0.20492895 -0.14896348 -0.20213138 -0.3186022 -0.34711882 0.15471475 0.3052259
-0.25285056 -0.30529243 0.3774747 -0.32795694 -0.3078938 0.12730968 0.17073552 -0.2687083
0.3429876 0.06986837 -0.13278092 -0.29800978 -0.26792154 -0.100091316 0.357572 -0.18246323
0.28673837 0.0005725341 0.16541255 0.11368622 -0.094144374 -0.12327296 -0.11457104 -0.0788497

weight f4 [7, 512]
00000000: 5ae8 df3c f279 22bd 8bf1 d93b 60c8 9a3d
00000010: 4ae0 6d3d c18c 8c3d d0ec 33bd 5e24 c13c
00000020: 0bf2 5f3d 014c 4ebd 1864 a63d f5c7 94bd
00000030: 5c45 a23b de93 19bd 54cc 3bbc cc42 fcbc
00000040: 84df 413d 05bf 603d 866a c3bc 0521 6ebd
00000050: e5b6 a0bd 2405 c8bb f7b2 dd3c c334 043c
00000060: 288b 8cbc 3779 70bd 74f7 38bb 82ca 31bd
00000070: 0d0f a33b 5bb7 e1bc a2ad ad3d 1277 e8bc
00000080: ea63 b83b 12ab 5fbd 3b6d bdbd f0f3 533c
00000090: 82b2 a7bd 48b6 05bd 1849 8a3d d657 523d
000000a0: e087 ad3b 22f9 483d 2196 823d 917e 1a3c
000000b0: 0d71 87bd cbb6 8abd 0fb4 9d3d 3188 50bd
000000c0: 76a2 98bd d9a2 77bc 793d d83d 576c 4b3d
000000d0: bb97 d9bd e588 a7bd 6a20 a93d f497 dc3d
000000e0: 10c5 78bd 5e2e 493c bac3 0f3c 9302 d1bd
000000f0: dc04 a9bd 4e70 5d3d 6d36 a33d 5392 a2bc
00000100: eab9 adbd 3e41 b1bd 86c0 6b3d 76ad a73d
00000110: 97c3 f9ba 8389 dbbd d736 963d ed03 55bd
00000120: 12cb 8ebc c8d7 febc 8492 04bd bf76 d93c
00000130: f03d 213d 5d51 87bd 4246 a7bd 77f7 a23d
00000140: a762 c9bd db1c 573d 0fd7 6d3d 8c40 81bc
00000150: ffc6 acbb 487b 6abd 5e8e b03d 4503 51bd
00000160: 2fb5 983c d953 91bd 417b b03d ba0a 69bc
00000170: 8ee4 d5bd 5aa6 a83d 2283 453d 0a3c 543d
00000180: 9953 5fbd 9a96 ccbd 9c1e 633d c967 673d
00000190: d11e dabd 523f eebc a069 c73d d0cf d33d
000001a0: 847f 643d 7574 703c ad8a 923d 1d71 6a3d
000001b0: 392b af3c e2af 533d d083 cfbc 1773 bdbd
000001c0: 83bd 1dbd 5eac 4abd e7f1 a53d 6e07 d73d
000001d0: f47b 8abd 4f2c 363d 3f4d 60bd 0da8 b93d
000001e0: 983e f13c 3666 9cbd 0f3d bbbd eb6f 96bd
000001f0: 2074 28bb 0065 283b 8daa 55bd a603 b8bb
00000200: 4398 92bd c4c0 a9bd ca68 6bbd 7eea 2a3b
00000210: 2c45 223d 4473 d0bc 6099 42bd 62f0 593d
00000220: 0869 b6bd 67e5 c53d b629 b23d d954 9d3c
00000230: 9d8c 81bd 07d8 7dbd 7a1d 4b3d 9522 75bd
00000240: fef1 85bd 7c0e ebbc 280a e93c a421 bd3d
00000250: 995c a13d b1d1 a8bc 56cd 66bd 9a58 ca3d
00000260: 35fd bcbd 28d1 333d 052b a03d 393f ad3d
00000270: d45a 993d 553d 25bc 19dd 5c3d 8beb 873d
00000280: e83d 3a3d 381e a8bd 0ca2 acbd 4a67 ecbb
00000290: 0da5 1c3d d3e9 2f3b f3a8 7dbc f20a 253d
000002a0: 1e68 a43d ba36 01bd 9936 85bd a81b 8abd
000002b0: 457b febc f0c9 1c3d 6877 5abb 41fa bd3d
000002c0: 6777 a53b 809e 1b3a 274b 923d e2b4 6b3d
000002d0: 375c 313d e4d0 50ba 9bda 88bd 4fee 943d
000002e0: 14e1 d1bd b03e 0ebd 48b7 c53d 5e2a 08bd
000002f0: ede1 aa3d d99a e43c 7630 c63d 289a 123d
00000300: 5886 d73d 28bf b7bd 50aa 53bd f457 b43c
00000310: 9b22 5ebd a1af 433d b436 c7bd a9a6 82bb
00000320: 0db4 743c c664 55bd 2f1d 1d3d 5418 ad3b
00000330: ca21 b4bc 9ea8 c93d 28c6 87bd ae97 a8bd
00000340: c3d1 54bd afb0 d0bd 69b3 9cbd b78e 9c3a
00000350: 4e71 7dbd d4db d73d a3c2 76bd 7c69 553d
00000360: 607c be3d 14ac 913b 4008 0fbc 1a20 80bd
00000370: 8800 9dbd 56d3 8fbd 23cc 2bbd ca73 9e3a
00000380: 370c 9f3d 3c56 b23d 3c4a 59bd 2ca1 82bd
00000390: 681c 303d b1fd 2d3d e5fa 44bd 44d7 b63d
000003a0: bda1 c43d e4ad a9bd 4362 ce3d b432 803d
000003b0: 6440 773d 4042 6fbd 2101 67bd 0727 3cbc
000003c0: 297d 55bc 6ec1 95bd c09a 7abb 85d2 51bd
000003d0: 8174 0abd 5698 05bd ec56 b23d b472 9abd
000003e0: e9bb 3abd a873 b03d 788a b73d 001c c43d
000003f0: ae10 47bd ecc7 17bc dbd0 c03d 617b 29bd
0.027332474 -0.039667077 0.0066511086 0.0755775 0.058075227 0.06862784 -0.043927014 0.023576912
0.05467419 -0.05036545 0.0812456 -0.07264701 0.004952116 -0.037494533 -0.01146229 -0.03079357
0.0473323 0.05486967 -0.023854505 -0.05813696 -0.07847384 -0.0061041284 0.027062876 0.00806922
-0.017156199 -0.05870935 -0.0028223665 -0.043406017 0.0049761594 -0.027553251 0.084803835 -0.02837709
0.005627145 -0.054606505 -0.0924935 0.012936577 -0.081883445 -0.03264454 0.06752223 0.051353298
0.0052957386 0.049065717 0.06376291 0.00942959 -0.066133596 -0.06773146 0.07700359 -0.050911132
-0.07452862 -0.0151145095 0.105586 0.049663868 -0.106246434 -0.081804074 0.082581356 0.1077117
-0.06073481 0.012279121 0.008774692 -0.10205569 -0.0825288 0.05406218 0.07969365 -0.019845163
-0.08482726 -0.08655022 0.05755665 0.08187382 -0.0019055483 -0.10719588 0.073346786 -0.052005697
-0.017430816 -0.031108752 -0.03236629 0.02654588 0.03936571 -0.06607316 -0.081676975 0.079573564
-0.098332696 0.052517753 0.058066424 -0.015777849 -0.0052727456 -0.057246476 0.086209044 -0.05102851
0.018641083 -0.07096071 0.08617259 -0.014223749 -0.10443984 0.08234854 0.04822076 0.05181507
-0.054523084 -0.099896625 0.055449113 0.05649546 -0.10650409 -0.029082928 0.09736943 0.103423715
0.05578567 0.014676203 0.071553566 0.05723678 0.021382915 0.051681407 -0.025331408 -0.09250467
-0.03851081 -0.04948079 0.0810278 0.10499464 -0.067619234 0.04447585 -0.054761168 0.09065256
0.029448792 -0.07636683 -0.091425054 -0.073455654 -0.0025703982 0.0025694966 -0.052164603 -0.0056156693
-0.07157948 -0.0828872 -0.05747298 0.002607971 0.03961675 -0.025445588 -0.04750955 0.053207763
-0.08906752 0.09662896 0.08699362 0.019205498 -0.06325648 -0.061973598 0.049588658 -0.059847433
-0.06540297 -0.02869343 0.028447226 0.09234932 0.0787899 -0.020607801 -0.056348167 0.09880181
-0.09227983 0.04390064 0.07820705 0.084593244 0.07488027 -0.0100854235 0.053921793 0.06636723
0.045469195 -0.08208889 -0.084293455 -0.0072144615 0.038243342 0.002684225 -0.015482175 0.04029364
0.08027671 -0.031546332 -0.06504554 -0.06743556 -0.031064639 0.03827852 -0.0033335332 0.09276248
0.0050496343 0.0005936399 0.071432404 0.05754555 0.043300834 -0.00079656974 -0.06682321 0.07272016
-0.10248008 -0.034727752 0.09654099 -0.03324353 0.08343873 0.027905868 0.09677212 0.035791546
0.10523671 -0.08972007 -0.051676095 0.022014596 -0.05423222 0.047774915 -0.09727231 -0.0039871526
0.014935506 -0.05209806 0.03835791 0.005282441 -0.021988768 0.09846614 -0.06629592 -0.082320556
-0.051957857 -0.1018995 -0.07651407 0.0011944388 -0.061875634 0.10539976 -0.060244214 0.05210255
0.093010664 0.004445562 -0.008729994 -0.06256123 -0.07666117 -0.07022731 -0.041942727 0.0012088951
0.07766002 0.08707854 -0.05304931 -0.06378397 0.04299584 0.042478267 -0.048090834 0.089277774
0.09601162 -0.0828512 0.10077336 0.06259671 0.060364142 -0.05841279 -0.05639756 -0.011483914
-0.013030329 -0.073122844 -0.003823921 -0.051226158 -0.033802513 -0.032615982 0.08707985 -0.07541409
-0.04558936 0.0861581 0.08961958 0.09575653 -0.04859989 -0.009263974 0.09414836 -0.04137743

bias f4 [7]
00000000: 5862 503b 5d64 5abc 254c 75bb 0959 0a3d
00000010: fa6e b7bc f4ec 31bb 9c1e 3ebc
0.0031796899 -0.0133295925 -0.003742942 0.033776317 -0.022391785 -0.0027149292 -0.0116039775

weight f4 [7]
00000000: 3840 7e3f 3d08 803f c02d 813f 5538 7b3f
00000010: c363 803f b520 823f ede4 7e3f
0.9931674 1.0002514 1.0092087 0.9813283 1.0030445 1.0166231 0.99568063

bias f4 [7]
00000000: 5bb5 273b 1f6c 9fba 66e6 84b8 4b1e ae3b
00000010: f7bd 913b f31e 24bc 7227 97bb
0.0025590274 -0.001216296 -6.3371655e-05 0.00531367 0.0044476944 -0.0100171445 -0.0046128565

weight f4 [7]
00000000: 401a 7d3f df1e 803f da56 803f d40d 7c3f
00000010: 4285 813f 9582 823f 2e78 7d3f
0.9886818 1.0009421 1.0026505 0.984586 1.0118792 1.01961 0.99011505

bias f4 [7]
00000000: 3c89 843a c548 55bb be26 213b 5bba 3f3b
00000010: 4cae 933b e94d fabb cb94 2dba
0.00101117 -0.0032544595 0.0024589743 0.0029255364 0.004506862 -0.007638682 -0.0006621598
