transformer_model.pt (torch, 465421 bytes, 186 tensors)

in_proj_weight f4 [21, 7]
0.18792747 0.3184465 -0.13234735 0.16382185 -0.37452868 0.039946187 0.08332979 -0.37358266
0.11191992 0.07444604 -0.22990945 0.031548653 0.073839486 -0.24363069 0.27895892 0.29256338
0.020637454 -0.33701098 -0.4428893 0.4257813 0.024922172 -0.30130273 -0.30660528 -0.26185626
-0.3107112 -0.2895935 0.23945314 -0.26522875 -0.28705594 -0.0735684 -0.43867704 -0.41063488
0.102174714 -0.43959317 -0.11035549 -0.0830643 0.120864205 -0.3595381 0.07722462 -0.098589405
0.24823903 0.420341 -0.4588501 -0.1318153 -0.3159622 0.2012396 0.22329491 0.2740572
-0.26446378 -0.4481116 -0.33732882 -0.37133816 0.02941397 0.31735462 -0.21264753 0.2097504
-0.40550652 -0.15555377 0.46165115 0.18044661 0.33465758 0.34074676 -0.28789777 0.30832925
0.017215336 0.14725232 -0.095934026 0.039241746 0.078782976 -0.1682373 -0.16957773 0.36471066
-0.1314491 0.15501367 0.07508517 0.1941049 -0.07640992 -0.10355663 0.05561796 -0.13845477
0.06367461 -0.4270898 -0.0625559 -0.036006313 -0.3825312 -0.3557776 -0.005586475 0.24486645
-0.2978422 -0.44860184 -0.37912035 -0.10833804 0.10675755 -0.36334935 0.3545499 -0.295225
-0.347492 0.23607403 -0.25461414 0.44194454 0.45197427 -0.1243324 -0.20372963 -0.27997386
0.3964964 -0.44877037 0.020866422 -0.1852333 0.3443074 0.31796205 0.3586072 -0.27111733
0.3131021 0.43910122 0.17905402 0.4452409 0.09042527 -0.3828538 -0.05599231 -0.2855476
0.30488956 -0.17978236 -0.18051204 0.018084334 -0.18488856 -0.22216325 0.41045782 -0.20294133
0.34836593 0.40219015 -0.094532065 0.14970957 -0.35697183 -0.18851298 0.0065178256 0.42534772
0.077913046 0.22212036 0.13753124 -0.111072406 0.09882442 0.34882873 0.30002195 0.08350917
-0.30412424 0.24987954 -0.45272282
00000000: 0f70 403e 6b0b a33e 1086 07be eac0 273e
00000010: 39c2 bfbe 9d9e 233d cfa8 aa3d 3a46 bfbe
00000020: 4536 e53d 2a77 983d 626d 6bbe 2939 013d
00000030: 2839 973d 537a 79be b4d3 8e3e deca 953e
00000040: e10f a93c b48c acbe 63c2 e2be 0200 da3e
00000050: 9529 cc3c 5a44 9abe 5efb 9cbe 0612 86be
00000060: 8a15 9fbe 9945 94be 3433 753e 10cc 87be
00000070: fff8 92be 08ab 96bd 479a e0be bc3e d2be
00000080: fa40 d13d 5b12 e1be 0f02 e2bd 9e1d aabd
00000090: a787 f73d 6115 b8be f127 9e3d 3ee9 c9bd
000000a0: 5f32 7e3e f036 d73e 66ee eabe 97fa 06be
000000b0: ccc5 a1be c111 4e3e 6ca7 643e 3a51 8c3e
000000c0: cc67 87be e26e e5be 5db6 acbe 0920 bebe
000000d0: 91f5 f03c 4e7c a23e 46c0 59be cfc8 563e
000000e0: 8d9e cfbe 7d49 1fbe 8a5d ec3e ffc6 383e
000000f0: 3d58 ab3e 5c76 ae3e 5667 93be 55dd 9d3e
00000100: 2d07 8d3c 50c9 163e 0f79 c4bd f4bb 203d
00000110: f858 a13d 6646 2cbe c9a5 2dbe 5bbb ba3e
00000120: 989a 06be e7bb 1e3e 41c6 993d 6fc3 463e
00000130: ce7c 9cbd 8015 d4bd a8cf 633d 16c7 0dbe
00000140: d567 823d 84ab dabe 4f1d 80bd 5b7b 13bd
00000150: 21db c3be 7b28 b6be c00e b7bb 45be 7a3e
00000160: c67e 98be 24af e5be 101c c2be 56e0 ddbd
00000170: b4a3 da3d ed08 babe 9187 b53e bb27 97be
00000180: 79ea b1be 64bd 713e c95c 82be 8e46 e23e
00000190: 2c69 e73e fca1 febd 809e 50be bc58 8fbe
000001a0: 9301 cb3e 3bc5 e5be 0ff0 aa3c ccad 3dbe
000001b0: 0f49 b03e eccb a23e 5d9b b73e e4cf 8abe
000001c0: eb4e a03e e0d1 e03e f059 373e 9ef6 e33e
000001d0: e230 b93d 6a05 c4be 3158 65bd 4c33 92be
000001e0: 7c1a 9c3e de18 38be 26d8 38be 9925 943c
000001f0: 6d53 3dbe c37e 63be 8727 d23e dacf 4fbe
00000200: 055d b23e deeb cd3e 079a c1bd 774d 193e
00000210: 03c5 b6be 8c09 41be 7c93 d53b 2dc7 d93e
00000220: e090 9f3d 8573 633e fdd4 0c3e ee79 e3bd
00000230: 7564 ca3d ae99 b23e 7a9c 993e db06 ab3d
00000240: 2cb6 9bbe 6ce0 7f3e 49cb e7be

in_proj_bias f4 [21]
-0.00094582816 0.00060813624 -0.00034391222 -2.1694977e-05 0.00027779315 0.00024476208 -0.00012973337 -3.633385e-11
7.612205e-11 -1.0041627e-11 -5.5096674e-11 3.843056e-12 -4.9481426e-12 -1.8938682e-11 -0.0010643672 -0.00055784156
0.00046563608 -0.00037278023 0.0009435676 0.0012252763 -0.0024376023
00000000: 74f1 77ba 556b 1f3a 1e4f b4b9 9cfd b5b7
00000010: c4a4 9139 6953 8039 0909 08b9 47cc 1fae
00000020: e864 a72e 78a7 30ad 5751 72ae 2c37 872c
00000030: e818 aeac 1f96 a6ad 3d82 8bba 1d3c 12ba
00000040: 9e20 f439 b771 c3b9 c059 773a 7399 a03a
00000050: 2ec0 1fbb

weight f4 [7, 7]
-0.2681935 -0.5241344 -0.20069593 -0.016975798 0.30401587 0.637063 -0.6361802 -0.09593083
-0.2543211 0.36464083 -0.2640379 0.28331247 -0.26377732 -0.33293197 0.337444 0.00031319086
-0.62332064 -0.36259514 0.2858493 -0.6415223 0.21797384 0.42080882 0.58637553 -0.23881347
-0.13752495 0.24273887 0.12153529 -0.13322358 -0.5753951 0.10731041 0.4841575 -0.36002788
0.00097585114 -0.101356976 0.2829863 -0.1689718 0.09208618 -0.09559094 -0.14483848 0.22802918
-0.42326227 -0.23027186 -0.14135699 -0.5579162 -0.25564915 0.34824315 -0.20781003 0.15937567
0.34515485
00000000: a950 89be ac2d 06bf 3c83 4dbe d410 8bbc
00000010: f8a7 9b3e 9016 233f b5dc 22bf 6277 c4bd
00000020: 6036 82be 34b2 ba3e fa2f 87be 550e 913e
00000030: d20d 87be 0f76 aabe 76c5 ac3e c433 a439
00000040: f191 1fbf 12a6 b9be d75a 923e ce3a 24bf
00000050: 8934 5f3e 4174 d73e b51c 163f 858b 74be
00000060: 57d3 0cbe 8a90 783e 7ee7 f83d c36b 08be
00000070: 184d 13bf 8fc5 db3d 7ee3 f73e 9355 b8be
00000080: 43d0 7f3a 3f94 cfbd 95e3 903e f206 2dbe
00000090: ae97 bc3d 2fc5 c3bd 8a50 14be 7b80 693e
000000a0: d5b5 d8be 63cc 6bbe e3bf 10be 99d3 0ebf
000000b0: 72e4 82be ed4c b23e 27cc 54be 6033 233e
000000c0: 23b8 b03e

bias f4 [7]
0.0023597477 0.00016084773 -0.00079479534 -0.00051414507 -4.1819178e-05 0.00095611066 -0.0016053368
00000000: ffa5 1a3b 3ca9 2839 d059 50ba b1c7 06ba
00000010: 0067 2fb8 80a3 7a3a 2a6a d2ba

weight f4 [512, 7]
-0.030552816 0.032423448 0.0437581 0.02814522 -0.06662888 -0.06743945 -0.097691946 0.04314385
-0.028785877 -0.047857516 0.005989501 -0.07868262 -0.005766727 -0.006001529 0.042274214 0.06605149
0.10156178 0.07815945 -0.03993638 0.03179768 -0.047987346 -0.08041241 -0.00046237276 -0.018900855
-0.06314644 0.077137016 0.03744238 0.024005638 0.090778746 0.01208325 0.019082272 -0.0687984
0.08789676 -0.062476154 0.021852672 -0.012910458 0.0005963766 0.010375938 0.09458804 0.05358966
-0.019030241 0.012369299 -0.075710565 0.035759486 0.08832077 -0.060445987 -0.095102295 0.09620304
-0.10014356 -0.08091162 -0.102400996 -0.0073265797 0.014704693 -0.08564963 -0.0924571 0.05777845
0.08484913 0.08212838 -0.07520725 -0.012272824 0.028421426 0.033979326 0.090196915 -0.020578759
0.058114335 -0.06943622 -0.05891851 -0.089996286 -0.046550814 -0.006243721 0.023633394 -0.04919045
-0.031144576 0.04199985 0.039286587 -0.061933573 0.006119974 0.071419396 0.06323828 -0.033071287
-0.010788275 -0.09392241 0.044429097 0.077655815 -0.045099314 0.006955453 -0.04059715 0.047266707
-0.022588473 0.10656163 -0.0998529 -0.036717698 0.0742993 0.016272906 -0.079337165 0.054592025
-0.08239876 0.010130245 0.03800884 0.021451972 0.10162709 -0.06250507 0.06825734 -0.06419609
0.00768216 0.0044927304 0.019014096 0.08124893 0.072232865 0.09884004 -0.07239325 -0.036753632
0.026642084 0.021809267 0.10295007 0.06273594 -0.030359522 -0.011321805 0.046291977 0.075910516
0.012643348 0.04109416 -0.03768322 0.08801959 -0.10521164 -0.0013281489 -0.01909443 -0.057207502
-0.08898506 0.083576396 0.07806571 -0.018025132 -0.041720416 0.09415448 0.014059676 0.056604326
0.040809687 -0.043936938 -0.07837703 0.062609084 -0.045339372 0.028008876 -0.04076784 -0.027491704
0.024834618 -0.05288669 0.014165826 0.10498648 0.077266544 0.04201908 -0.022166794 -0.032387786
0.05561442 0.0059601082 -0.0024491237 0.0051973844 0.09069326 -0.014064922 -0.08931365 -0.08680741
-0.0464875 -0.049345333 0.034382965 -0.049520783 -0.008961016 -0.055687975 -0.10470022 0.047836464
0.008228642 0.08040207 -0.09282173 -0.06745783 0.099073224 0.084966935 -0.104237325 -0.044002343
0.088459946 -0.069339134 -0.09025525 0.023032047 -0.0647766 0.089825675 0.019619549 -0.089529894
0.011476373 0.008279444 0.049719304 -0.04579882 0.046142053 -0.09488362 -0.07062622 -0.02246322
0.027995415 -0.016058208 -0.07220795 -0.064562865 0.10349474 0.04129712 0.075097695 0.01425181
-0.022450346 0.06740795 0.039640892 0.049035594 -0.03396316 0.004148908 0.04286602 0.0714179
0.017839074 -0.09215225 -0.10052058 -0.028321631 0.020131856 -0.01599972 -0.01212991 -0.023212321
0.09647614 0.101966165 -0.053987835 -0.09682875 0.019536825 0.007874719 -0.09876781 0.08612783
0.037590697 -0.08315285 0.017884305 -0.024192523 0.028711079 -0.09926691 0.1032018 -0.10222472
-0.06766866 -0.046713237 0.06324275 0.064112954 -0.036615524 0.07263934 0.05253916 0.04108846
-0.10389262 0.035888363 0.07040158 0.09132129 -0.02483296 -0.033304214 0.0715093 0.05172339
-0.021372825 0.016176254 0.09545082 0.051087245 -0.066478446 -0.07885485 -0.00010384619 -0.05644612
00000000: e649 fabc 73ce 043d b23b 333d ce90 e63c
00000010: b974 88bd b21d 8abd b712 c8bd 9bb7 303d
00000020: 5cd0 ebbc 3e06 44bd 9343 c43b 5a24 a1bd
00000030: d0f6 bcbb 79a8 c4bb ba27 2d3d 0146 873d
00000040: 9fff cf3d 1012 a03d 5494 23bd 493e 023d
00000050: 618e 44bd 43af a4bd 9f6a f2b9 f7d5 9abc
00000060: ec52 81bd 03fa 9d3d 2e5d 193d 79a7 c43c
00000070: 35ea b93d d3f8 453c 6d52 9c3c 2de6 8cbd
00000080: 3703 b43d ffe6 7fbd 6004 b33c 6386 53bc
00000090: 2856 1c3a d7ff 293c 60b7 c13d d580 5b3d
000000a0: 4fe5 9bbc 9aa8 4a3c 240e 9bbd 8a78 123d
000000b0: 85e1 b43d 3696 77bd fec4 c2bd 1906 c53d
000000c0: 1118 cdbd feb4 a5bd 9db7 d1bd ce13 f0bb
000000d0: f4eb 703c 1369 afbd 265a bdbd 19a9 6c3d
000000e0: 61c5 ad3d ed32 a83d 4206 9abd f413 49bc
000000f0: 0dd4 e83c e82d 0b3d 29b9 b83d c994 a8bc
00000100: 4c09 6e3d 9434 8ebd 8954 71bd f94f b8bd
00000110: 11ac 3ebd 2198 ccbb d29a c13c ed7b 49bd
00000120: e922 ffbc 0908 2c3d f9ea 203d 0fae 7dbd
00000130: 108a c83b 5544 923d 1283 813d c275 07bd
00000140: 4ec1 30bc 645a c0bd 49fb 353d 030a 9f3d
00000150: 0fba 38bd 92ea e33b 3249 26bd bc9a 413d
00000160: 760b b9bc fc3c da3d ad7f ccbd 4c65 16bd
00000170: 3b2a 983d c24e 853c 867b a2bd e39b 5f3d
00000180: aec0 a8bd 54f9 253c 28af 1b3d 0cbc af3c
00000190: dd21 d03d a802 80bd 81ca 8b3d 3d79 83bd
000001a0: a1ba fb3b c137 933b 73c3 9b3c d765 a63d
000001b0: d3ee 933d a66c ca3d ea42 94bd fa8a 16bd
000001c0: 8040 da3c 59a9 b23c 7cd7 d23d b37b 803d
000001d0: 88b4 f8bc 187f 39bc a89c 3d3d f976 9b3d
000001e0: 0c26 4f3c 5a52 283d b859 1abd 9d43 b43d
000001f0: 3379 d7bd 4815 aeba ec6b 9cbc 6a52 6abd
00000200: cd3d b6bd 1a2a ab3d eae0 9f3d 71a9 93bc
00000210: 07e3 2abd 10d4 c03d 8e5a 663c f0d9 673d
00000220: 0f28 273d 38f7 33bd 2384 a0bd 3139 803d
00000230: c7b5 39bd df72 e53c 2efc 26bd 4836 e1bc
00000240: f871 cb3c b79f 58bd c817 683c 2703 d73d
00000250: ec3d 9e3d 331c 2c3d 2397 b5bc 0ea9 04bd
00000260: f2cb 633d 034d c33b 7a81 20bb d24e aa3b
00000270: 63bd b93d 8f70 66bc 13ea b6bd 15c8 b1bd
00000280: ad69 3ebd 551e 4abd 27d5 0c3d 4ed6 4abd
00000290: 3ad1 12bc 1319 64bd 126d d6bd 2bf0 433d
000002a0: 6dd1 063c d7a9 a43d 5219 bebd 5527 8abd
000002b0: e7e6 ca3d 2503 ae3d 617a d5bd cd3b 34bd
000002c0: 7d2a b53d ad01 8ebd bfd7 b8bd b4ad bc3c
000002d0: 98a9 84bd 86f6 b73d 2db9 a03c 735b b7bd
000002e0: 6607 3c3c 81a6 073c 78a6 4b3d 8b97 3bbd
000002f0: 73ff 3c3d 5852 c2bd 7ba4 90bd c904 b8bc
00000300: a456 e53c 818c 83bc c3e1 93bd 8939 84bd
00000310: 0df5 d33d 2b27 293d d2cc 993d 6c80 693c
00000320: cae9 b7bc 2e0d 8a3d 7d5e 223d 8cd9 483d
00000330: f41c 0bbd 90f3 873b 4894 2f3d 8c43 923d
00000340: 4023 923c 52ba bcbd bcdd cdbd c402 e8bc
00000350: 90eb a43c d811 83bc 88bc 46bc c427 bebc
00000360: 4895 c53d a3d3 d03d 5922 5dbd 274e c6bd
00000370: b10b a03c f704 013c c746 cabd ca63 b03d
00000380: b4f8 193d 0b4c aabd 1b82 923c 662f c6bc
00000390: 7f33 eb3c 734c cbbd 775b d33d 325b d1bd
000003a0: de95 8abd 6156 3fbd 6a85 813d a74d 833d
000003b0: 29fa 15bd efc3 943d 4d33 573d 5f4c 283d
000003c0: a7c5 d4bd adff 123d b42e 903d a806 bb3d
000003d0: 7e6e cbbc 006a 08bd 7873 923d e8db 533d
000003e0: 1016 afbc 1084 843c b87b c33d dc40 513d
000003f0: da25 88bd a77e a1bd 00c8 d9b8 0c34 67bd

bias f4 [512]
-0.31665173 0.1827554 0.18393971 0.15159461 0.35521263 0.26335052 0.17096554 0.3565823
-0.17248656 -0.07657411 0.26200727 0.17101113 -0.16672358 0.35759446 0.3737767 0.018800642
-0.26535985 0.08176097 0.30039984 -0.14288038 -0.036994003 0.10433452 -0.08050343 -0.17524728
-0.052331917 0.28348166 -0.013998631 -0.10068506 0.28267556 -0.34708664 -0.35474592 0.2852367
-0.3642271 -0.2346966 -0.27769366 -0.37236395 -0.28671655 -0.32586983 0.2688062 -0.1702216
0.18831113 0.11491797 0.27844957 0.21047676 0.11873444 -0.33335388 0.08663026 -0.008038351
0.070721105 -0.04346303 0.0985127 0.1950722 -0.34902647 0.11661125 -0.06445075 0.25866735
0.10898603 0.35962847 -0.03760876 -0.29495502 -0.21566084 -0.35245106 0.36897543 -0.13501132
-0.28184626 0.28198215 0.2542648 0.28230298 -0.17586337 0.3296179 0.13851847 -0.2146129
-0.14522685 -0.18891999 0.31871027 -0.18074247 -0.015007832 -0.25424045 0.37256214 -0.28899634
-0.11058607 0.19248056 0.021408547 0.12224572 0.21494505 -0.22083978 0.123425424 0.3269972
0.1247789 0.28614312 0.21481158 0.022405617 0.039128564 0.080612324 0.15841268 -0.12989913
-0.016583567 0.16492277 0.24353054 -0.017170792 -0.14094551 0.1802895 0.34553263 0.33660436
0.10818187 -0.33797374 0.04881612 -0.33132395 -0.032303203 0.0005616634 0.23929352 -0.16871117
0.35950574 0.24486652 0.3029447 0.29962713 -0.05040345 -0.15380019 -0.3090643 0.28557315
-0.21702358 0.09351227 -0.034288894 -0.17833512 0.05017574 0.35296312 0.14101037 0.10966125
-0.050791234 0.3544414 -0.14304052 0.06763179 -0.008217424 -0.09291941 -0.27058834 -0.3295866
-0.2962384 -0.19196172 0.33232063 -0.077598445 -0.021141715 -0.3018293 0.24506709 -0.20359914
-0.18827485 -0.15027581 0.12652332 -0.22505459 0.15379892 -0.3162601 -0.17208284 -0.0137017965
-0.0970647 0.045865644 0.15402108 0.03043694 -0.07320141 0.23086587 0.30839014 0.37047017
0.32081926 -0.28408962 -0.065621965 -0.35977292 0.173285 0.028187456 -0.19168442 -0.0840281
0.17209129 0.045050878 -0.1837852 0.031267833 -0.042875733 -0.23274276 0.030659134 -0.204179
0.23604755 -0.16681986 -0.112254605 0.1479048 -0.36385193 -0.06767771 -0.16663007 -0.27462152
-0.36510694 0.112714946 -0.3561135 0.11447386 0.10401565 -0.044325046 0.24071068 0.23315482
-0.21108736 -0.09343488 0.018303692 0.15511757 -0.36254117 -0.34567294 0.099408224 0.25336313
-0.1569438 -0.22031136 0.094205506 -0.36260566 0.015596003 0.17180283 -0.08033825 -0.19541948
-0.21356441 0.11762122 0.09956307 0.30368412 -0.07832725 0.13774905 -0.25930846 0.12977308
-0.18331608 -0.070389464 0.13064645 -0.09077193 0.3776834 -0.085878655 -0.114845045 0.2324968
0.12115622 -0.045540713 0.15487592 -0.1558165 0.25416043 -0.29798716 -0.3261939 -0.11624259
0.32271236 -0.04824923 -0.18998453 -0.048951533 -0.15327382 0.11471595 -0.2369477 -0.18842143
0.1034305 0.05715341 -0.09628718 0.23454204 -0.16769199 -0.3692899 0.31798428 0.0555387
0.11976528 0.35824147 0.27339184 0.17787938 0.32438555 0.35919362 -0.17019856 0.22999233
00000000: 2d20 a2be 3b24 3b3e b15a 3c3e 9e3b 1b3e
00000010: 6ede b53e e1d5 863e 9711 2f3e f591 b63e
00000020: 51a0 30be e3d2 9cbd d125 863e 8b1d 2f3e
00000030: 96b9 2abe 9f16 b73e a95f bf3e ce03 9a3c
00000040: 3fdd 87be 4c72 a73d 02ce 993e 3c4f 12be
00000050: 0687 17bd 56ad d53d fbde a4bd 0674 33be
00000060: fe59 56bd 8224 913e 845a 65bc f833 cebd
00000070: daba 903e 57b5 b1be 42a1 b5be 8b0a 923e
00000080: f97b babe 4e54 70be dd2d 8ebe 7da6 bebe
00000090: 83cc 92be 69d8 a6be f7a0 893e 924e 2ebe
000000a0: a2d4 403e 1d5a eb3d f190 8e3e 3887 573e
000000b0: 0b2b f33d 5cad aabe 356b b13d 4ab3 03bc
000000c0: 3ad6 903d 4a06 32bd 07c1 c93d 02c1 473e
000000d0: 99b3 b2be e1d1 ee3d c1fe 83bd 0c70 843e
000000e0: 1134 df3d 3921 b83e a50b 1abd 5804 97be
000000f0: 32d6 5cbe 7774 b4be 59ea bc3e 6840 0abe
00000100: 274e 90be f75f 903e ff2e 823e 048a 903e
00000110: 8715 34be adc3 a83e c9d7 0d3e 7cc3 5bbe
00000120: 59b6 14be 3e74 41be fe2d a33e 8e14 39be
00000130: 69e3 75bc ce2b 82be 77c0 be3e 54f7 93be
00000140: f37a e2bd a019 453e fa60 af3c f75b fa3d
00000150: 8e1a 5c3e d323 62be 78c6 fc3d 2d6c a73e
00000160: 148c ff3d 5a81 923e 91f7 5b3e fc8b b73c
00000170: 4645 203d 1318 a53d ef36 223e 4704 05be
00000180: 43da 87bc 84e1 283e 1260 793e c3a9 8cbc
00000190: 0554 10be d09d 383e a7e9 b03e 6857 ac3e
000001a0: 758e dd3d e50a adbe 69f3 473d 4ba3 a9be
000001b0: 5d50 04bd 983c 133a 5c09 753e 9fc2 2cbe
000001c0: 2311 b83e 4abe 7a3e 911b 9b3e ba68 993e
000001d0: d973 4ebd cc7d 1dbe ad3d 9ebe a536 923e
000001e0: 6e3b 5ebe 5c83 bf3d 8372 0cbd 7b9d 36be
000001f0: 1485 4d3d 95b7 b43e 0665 103e 1496 e03d
00000200: 780a 50bd 5879 b53e 3779 12be 8982 8a3d
00000210: 60a2 06bc 884c bebd 8e8a 8abe 93bf a8be
00000220: 8fac 97be 9d91 44be ee25 aa3e efeb 9ebd
00000230: 6431 adbc 5f89 9abe def2 7a3e 4b7c 50be
00000240: 1fcb 40be e7e1 19be 548f 013e b674 66be
00000250: 777d 1d3e d8ec a1be 7c36 30be 807d 60bc
00000260: dcc9 c6bd 9ddd 3b3d b4b7 1d3e e456 f93c
00000270: 9fea 95bd 1a68 6c3e 50e5 9d3e 44ae bd3e
00000280: 6c42 a43e 3274 91be cf64 86bd 2834 b8be
00000290: 9f71 313e 61e9 e63c ec48 44be ed16 acbd
000002a0: b338 303e 4587 383d 3032 3cbe b312 003d
000002b0: 779e 2fbd 1e54 6ebe dd28 fb3c 4d14 51be
000002c0: 73b6 713e d3d2 2abe bee5 e5bd 5b74 173e
000002d0: cd4a babe 9c9a 8abd 13a1 2abe 319b 8cbe
000002e0: 4cef babe 18d7 e63d 8254 b6be 4571 ea3d
000002f0: 2806 d53d 2e8e 35bd dc7c 763e 23c0 6e3e
00000300: 4927 58be c95a bfbd a0f1 953c 24d7 1e3e
00000310: ff9e b9be 0bfc b0be 8a96 cb3d d0b8 813e
00000320: e0b5 20be 4d99 61be d1ee c03d 73a7 b9be
00000330: 6186 7f3c 15ed 2f3e 6188 a4bd 0b1c 48be
00000340: a1b0 5abe 65e3 f03d b9e7 cb3d 7c7c 9b3e
00000350: 0a6a a0bd 160e 0d3e 14c4 84be 3ce3 043e
00000360: 36b7 3bbe 5a28 90bd 2fc8 053e a2e6 b9bd
00000370: b85f c13e 26e1 afbd e133 ebbd a413 6e3e
00000380: c120 f83d e688 3abd cb97 1e3e 5c8e 1fbe
00000390: 5121 823e c691 98be e302 a7be 9810 eebd
000003a0: 8e3a a53e fca0 45bd 4e8b 42be 6781 48bd
000003b0: d0f3 1cbe 32f0 ea3d 6ba2 72be 8cf1 40be
000003c0: 5fd3 d33d b219 6a3d 3732 c5bd ca2b 703e
000003d0: 73b7 2bbe 9113 bdbe d6ce a23e 8c7c 633d
000003e0: 8047 f53d 6d6b b73e 04fa 8b3e 0326 363e
000003f0: dd15 a63e 3ae8 b73e 8848 2ebe 1c83 6b3e

weight f4 [7, 512]
-0.061471846 0.024058644 0.043202408 -0.090761684 -0.024229847 -0.0017869823 0.05907666 0.009570922
0.062525764 0.0098676635 -0.022556553 0.07975193 0.02002773 0.05291495 0.052000288 -0.065146096
0.07724027 -0.010147069 -0.08874082 0.050140858 0.0059948657 0.09821886 -0.03826297 0.09944494
0.05885715 -0.06369646 -0.014437099 -0.03794187 0.015249026 0.052220866 0.106667355 -0.025383908
0.09174438 -0.029072357 -0.010042785 -0.018810257 -0.023242533 -0.055304907 -0.0753928 -0.060704518
-0.039531305 -0.036415175 0.023311542 0.08284533 0.02656949 0.021522313 0.059628032 -0.041309997
-0.07553355 -0.0035946344 0.028877439 0.08494781 0.038620383 0.08058729 -0.027237134 0.07683353
0.04433165 -0.006749132 -0.071862034 0.03212954 0.016405286 0.07413173 -0.04438025 -0.07390658
0.0006966153 0.05191822 0.051826585 -0.07012829 0.035536245 -0.103338666 0.00637433 -0.05969167
0.06456113 -0.07908639 0.07084789 -0.026404211 0.026429886 -0.053462677 -0.042360235 -0.0068988577
-0.06875693 0.032176077 -0.01648812 -0.094242916 0.0023340466 -0.089047186 -0.06516425 -0.029911123
-0.093720764 -0.041621264 -0.054305844 0.1067281 0.092366554 0.060649 0.0053203194 0.036384825
-0.005762957 0.03697348 -0.10028376 -0.07409676 0.07085789 0.08941077 -0.05243279 0.09806462
-0.058425814 0.086687505 0.040734384 -0.08593477 -0.0011411922 0.10830509 0.08047205 -0.038150635
0.09956667 0.09083685 0.095881246 0.053321406 0.013132601 -0.038688116 0.024677062 -0.06580729
-0.024196282 0.08246525 -0.083788484 0.06011949 0.019155344 -0.08136105 -0.04706957 0.0068685045
-0.05823304 -0.022846729 -0.053936534 -0.059451234 -0.029665578 0.06134958 -0.0452212 0.10215117
-0.08219093 0.06849954 0.07849975 0.070065886 0.08746254 -0.0721432 0.10725427 -0.039129533
-0.014467767 0.029270947 -0.011751907 0.032556858 0.060062952 -0.002500251 0.060417756 0.042901948
0.042250503 -0.08431958 0.091041744 -0.050365146 -0.09510988 -0.10617886 -0.022899717 0.0699569
-0.043791927 -0.012103848 0.08716635 -0.014902625 0.09532529 -0.029618025 0.02531659 0.06484322
-0.04209186 -0.03218984 0.06655495 0.08130186 0.02910207 -0.10456629 -0.09326848 -0.08348419
0.06510018 -0.021166041 -0.04122795 0.055981807 0.04770636 -0.024162952 0.08311732 0.07755219
0.083767876 0.06564074 0.03550875 -0.04821946 -0.04782266 0.03865915 -0.087740235 0.09001479
-0.03159011 -0.10415973 -0.050466925 0.07639331 0.062979475 -0.09266828 -0.07574302 -0.08355047
-0.04441213 0.038460024 0.010036921 -0.009768367 -0.06769295 0.10449267 -0.04104201 0.056864608
-0.09089408 -0.015799228 -0.01855405 -4.8785245e-05 -0.04660826 0.0783081 0.069050916 -0.09395607
0.037623353 -0.088587865 0.06361152 -0.045325764 0.034771286 -0.04644606 -0.10135028 0.03818758
0.06853132 0.055606198 -0.04917927 -0.078893304 -0.099840105 0.013487086 0.10735652 0.057523526
0.03206208 0.08426195 -0.08705937 0.017458457 0.0140321925 0.04931032 0.09492625 -0.0855423
0.062466756 0.08969325 -0.014661508 0.0284617 0.09284087 -0.07158719 0.06243665 0.0076722316
-0.043805543 -0.048983566 -0.07582442 0.048569515 -0.100173995 0.085287824 0.021526344 0.05425594
00000000: e7c9 7bbd a216 c53c 02f5 303d 43e1 b9bd
00000010: ac7d c6bc 2d39 eaba 5efa 713d 5bcf 1c3c
00000020: 820d 803d fbab 213c 85c8 b8bc fb54 a33d
00000030: 3211 a43c 59bd 583d 41fe 543d 516b 85bd
00000040: 2630 9e3d e43f 26bc bfbd b5bd 8060 4d3d
00000050: 9470 c43b f826 c93d a2b9 1cbd caa9 cb3d
00000060: 3214 713d 4a73 82bd 9589 6cbc ef68 1bbd
00000070: 0dd7 793c 8ce5 553d 6a74 da3d eaf1 cfbc
00000080: 7ae4 bb3d 2729 eebc 7e8a 24bc f817 9abc
00000090: 2067 bebc 6687 62bd 8a67 9abd 4da5 78bd
000000a0: 94eb 21bd 1428 15bd d9f7 be3c d0aa a93d
000000b0: 42a8 d93c 904f b03c 863c 743d ac34 29bd
000000c0: 55b1 9abd f593 6bbb 6190 ec3c 1ef9 ad3d
000000d0: 6830 1e3d f30a a53d 6920 dfbc e65a 9d3d
000000e0: 1b95 353d d327 ddbb 672c 93bd 449a 033d
000000f0: 6164 863c 60d2 973d 11c8 35bd 555c 97bd
00000100: 109d 363a 33a8 543d 1d48 543d 6c9f 8fbd
00000110: 748e 113d 39a3 d3bd c1df d03b 417f 74bd
00000120: a038 843d 0cf8 a1bd b318 913d a54d d8bc
00000130: 7d83 d83c aefb 5abd ed81 2dbd d00f e2bb
00000140: 6fd0 8cbd 10cb 033d 1812 87bc 6e02 c1bd
00000150: cef6 183b 5f5e b6bd d674 85bd 2c08 f5bc
00000160: acf0 bfbd 0f7b 2abd ce6f 5ebd 4394 da3d
00000170: ad2a bd3d 166b 783d 1356 ae3b 4108 153d
00000180: 30d7 bcbb 8171 173d 9261 cdbd 0bc0 97bd
00000190: f11d 913d fe1c b73d c4c3 56bd 1ad6 c83d
000001a0: e84f 6fbd 3889 b13d 19d9 263d 92fe afbd
000001b0: 0e94 95ba 0fcf dd3d 88ce a43d d743 1cbd
000001c0: 9ce9 cb3d ac08 ba3d 635d c43d 8c67 5a3d
000001d0: 1f2a 573c 6e77 1ebd 8d27 ca3c f9c5 86bd
000001e0: 4837 c6bc 8ae3 a83d 4c99 abbd db3f 763d
000001f0: abeb 9c3c 9fa0 a6bd 05cc 40bd 3111 e13b
00000200: c585 6ebd 1029 bbbc 8eec 5cbd 2383 73bd
00000210: 3a05 f3bc b249 7b3d dd39 39bd a234 d13d
00000220: b853 a8bd 7d49 8c3d 7ac4 a03d b47e 8f3d
00000230: 8f1f b33d d0bf 93bd 20a8 db3d 4a46 20bd
00000240: 370a 6dbc a0c9 ef3c 128b 40bc 575a 053d
00000250: 9204 763d 40db 23bb 9c78 773d f4b9 2f3d
00000260: dd0e 2d3d beaf acbd 1874 ba3d af4b 4ebd
00000270: f8c8 c2bd 4d74 d9bd 3098 bbbc 9045 8f3d
00000280: 2a5f 33bd 384f 46bc 4584 b23d 242a 74bc
00000290: e839 c33d 80a1 f2bc bd64 cf3c 86cc 843d
000002a0: 8468 2cbd 7ed9 03bd f64d 883d 9781 a63d
000002b0: 7767 ee3c da26 d6bd 8b03 bfbd c2f9 aabd
000002c0: 3e53 853d 6864 adbc a4de 28bd 2e4d 653d
000002d0: bf67 433d 62f1 c5bc 6a39 aa3d afd3 9e3d
000002e0: 7e8e ab3d a76e 863d 9f71 113d c581 45bd
000002f0: b2e1 43bd 0f59 1e3d 27b1 b3bd ad59 b83d
00000300: a264 01bd b251 d5bd 68b6 4ebd 1974 9c3d
00000310: 62fb 803d dec8 bdbd 281f 9bbd 821c abbd
00000320: 7ee9 35bd 4288 1d3d e671 243c 800b 20bc
00000330: 9aa2 8abd 4100 d63d ab1b 28bd ddea 683d
00000340: ad26 babd 626d 81bc aafe 97bc c29e 4cb8
00000350: 4ee8 3ebd ff5f a03d 916a 8d3d 0a6c c0bd
00000360: f21a 1a3d 8e6d b5bd c246 823d 82a7 39bd
00000370: 566c 0e3d 393e 3ebd bc90 cfbd 946a 1c3d
00000380: 265a 8c3d 53c3 633d 3470 49bd d092 a1bd
00000390: f878 ccbd f0f8 5c3c bcdd db3d ca9d 6b3d
000003a0: 8753 033d 8791 ac3d 2f4c b2bd 0a05 8f3c
000003b0: 48e7 653c 9ef9 493d b268 c23d cd30 afbd
000003c0: 24dd 7f3d 18b1 b73d d236 70bc 8328 e93c
000003d0: 5b23 be3d 4e9c 92bd 93bd 7f3d 5867 fb3b
000003e0: 716d 33bd fea2 48bd d549 9bbd d4f0 463d
000003f0: 0628 cdbd 62ab ae3d 0458 b03c 7a3b 5e3d

bias f4 [7]
0.038869653 -0.026786413 -0.018401278 -0.00753283 -0.00402768 0.0202686 -0.025544325
00000000: c935 1f3d 2e6f dbbc 47be 96bc f5d5 f6bb
00000010: a1fa 83bb 560a a63c 5542 d1bc

weight f4 [7]
1.0045791 1.0029238 1.0001377 1.0015254 0.99605644 0.9966515 0.9953884
00000000: 0c96 803f cf5f 803f 8304 803f fc31 803f
00000010: 8efd 7e3f 8d24 7f3f c6d1 7e3f

bias f4 [7]
0.0042839474 -0.0003182076 -0.00032687193 -0.0031233572 0.0011704874 0.001214173 -0.0040570744
00000000: 5b60 8c3b 1ad5 a6b9 0260 abb9 3db1 4cbb
00000010: 0a6b 993a e324 9f3a 35f1 84bb

weight f4 [7]
1.0052755 1.0049857 0.9991055 1.0033398 0.9959678 0.9933549 0.9975208
00000000: deac 803f 5fa3 803f 61c5 7f3f 706d 803f
00000010: bff7 7e3f 824c 7e3f 865d 7f3f

bias f4 [7]
0.0038525516 -5.687581e-05 0.0007580017 -0.0022746336 0.000772327 0.0022424257 -0.004356807
00000000: 177b 7c3b f08d 6eb8 a2b4 463a 0512 15bb
00000010: fd75 4a3a a9f5 123b 8cc3 8ebb

in_proj_weight f4 [21, 7]
-0.2510791 -0.42861286 -0.17111264 0.36186606 0.18424733 0.34431544 -0.0960498 0.16819996
-0.3248307 -0.44779477 -0.058737498 0.15480179 -0.039674833 0.4095586 -0.013536056 -0.035109516
0.028009985 -0.17889889 -0.13701582 0.42611182 0.3901576 0.45349357 0.394014 -0.19318268
-0.124254085 -0.3972319 0.22417836 -0.08326495 0.38656548 0.099201836 0.3344437 -0.34431687
0.27153367 0.09562027 0.11256506 0.083152846 0.45579058 -0.4020416 -0.05425296 -0.21135244
4.0878617e-06 -0.41290992 -0.026310654 0.3254818 -0.26917142 0.16834526 0.08222836 0.4112912
-0.16234744 -0.008174796 -0.34908086 -0.2911386 0.100054994 0.4048502 0.036761675 0.28744522
0.1770045 0.2560759 0.40474606 0.25493866 0.09892023 -0.27347666 0.17179185 -0.4385745
0.05533921 -0.3128503 0.21338446 -0.37822056 0.09368524 0.16114238 -0.33955875 0.114950605
0.0038485061 0.09064396 0.014621711 0.33749506 0.11576768 0.21028295 -0.3554594 0.0074593714
0.34000587 -0.4348567 0.042780086 0.3249447 0.2457699 -0.3829315 -0.3470682 0.14119129
0.2600029 0.43429783 0.19309044 0.31013942 0.11255859 0.35803455 -0.39616075 -0.11134973
-0.4522952 0.46192843 -0.37896454 -0.12637001 -0.026096007 0.053617254 0.13899504 -0.27795497
0.07494601 0.33655295 0.14874193 0.11147745 -0.42421877 0.1315577 -0.0622439 0.40772945
0.23286024 -0.259485 -0.05160337 -0.354645 -0.31318104 0.07085676 -0.0742953 -0.44817188
0.044980984 0.009419133 0.12931922 0.0977284 0.37030566 0.22713669 0.043153465 -0.2669031
-0.025726734 -0.42561948 0.041179582 0.03336249 -0.23784092 0.40246487 0.19895054 -0.1550508
0.14903355 0.33863115 -0.097080454 -0.34541526 -0.015575037 -0.0014213232 0.122889094 0.17090923
-0.42793876 -0.14075495 0.4416676
00000000: 718d 80be 2573 dbbe 2738 2fbe 8246 b93e
00000010: 55ab 3c3e 1d4a b03e c2b5 c4bd 9c3c 2c3e
00000020: 3650 a6be 5b45 e5be bb96 70bd 5c84 1e3e
00000030: 1482 22bd aab1 d13e 55c6 5dbc ffce 0fbd
00000040: 3275 e53c 4531 37be e04d 0cbe 542b da3e
00000050: bdc2 c73e 4f30 e83e 34bc c93e aed1 45be
00000060: ed78 febd fb61 cbbe 038f 653e d086 aabd
00000070: e9eb c53e 552a cb3d 343c ab3e 4d4a b0be
00000080: 7606 8b3e 8fd4 c33d 8388 e63d 0a4c aa3d
00000090: 625d e93e 66d8 cdbe 5a38 5ebd c66c 58be
000000a0: 772a 8936 ee68 d3be 7189 d7bc 8da5 a63e
000000b0: d6d0 89be b362 2c3e 5867 a83d c394 d23e
000000c0: 683e 26be 94ef 05bc baba b2be 1e10 95be
000000d0: a2e9 cc3d 8748 cf3e 6993 163d 052c 933e
000000e0: ab40 353e 611c 833e e03a cf3e 5287 823e
000000f0: b196 ca3d 2205 8cbe 34ea 2f3e d68c e0be
00000100: 5eab 623d ea2d a0be 7581 5a3e 20a6 c1be
00000110: 0cde bf3d 8202 253e a5da adbe 396b eb3d
00000120: 3837 7c3b 8aa3 b93d e78f 6f3c 27cc ac3e
00000130: 9b17 ed3d 6a54 573e c6fe b5be be6d f43b
00000140: 4015 ae3e 8aa5 debe 2c3a 2f3d 275f a63e
00000150: 1bab 7b3e 990f c4be ecb2 b1be 7394 103e
00000160: 1a1f 853e 495c de3e 80b9 453e 98ca 9e3e
00000170: 1e85 e63d 4e50 b73e 95d5 cabe 540b e4bd
00000180: 3d93 e7be e281 ec3e a407 c2be 2467 01be
00000190: 4bc7 d5bc c49d 5b3d b754 0e3e 1d50 8ebe
000001a0: 4b7d 993d ab50 ac3e ce4f 183e 4a4e e43d
000001b0: 3433 d9be 10b7 063e 76f3 7ebd eac1 d03e
000001c0: ea72 6e3e 38db 84be 0e5e 53bd 0894 b5be
000001d0: 4459 a0be 591d 913d 2228 98bd c976 e5be
000001e0: fb3d 383d b552 1a3c 426c 043e d425 c83d
000001f0: b498 bd3e 8596 683e b0c1 303d 86a7 88be
00000200: dfc0 d2bc ccea d9be ecab 283d 1ba7 083d
00000210: 928c 73be e00f ce3e b1b9 4b3e a3c5 1ebe
00000220: 409c 183e 1061 ad3e 1ed2 c6bd 45da b0be
00000230: 712e 7fbc b14b baba 47ad fb3d d402 2f3e
00000240: ca1a dbbe 1122 10be 4122 e23e

in_proj_bias f4 [21]
-6.620334e-05 -0.0001342129 -7.635557e-06 -0.00024405985 -0.00029985048 4.19493e-05 -3.4828943e-05 -3.4725053e-12
2.2606316e-12 -6.3159282e-12 -2.7055474e-12 -1.8736746e-12 1.0451555e-12 -6.019117e-12 -0.0028340486 0.0033390427
-0.00092182873 -0.0026248381 0.0022355688 -0.000103846636 -0.00017633814
00000000: a6d6 8ab8 80bb 0cb9 781a 00b7 51ea 7fb9
00000010: 4035 9db9 b8f2 2f38 4b15 12b8 185b 74ac
00000020: eb13 1f2c d338 deac cf62 3eac 1fd9 03ac
00000030: b217 932b 63c7 d3ac 72bb 39bb d7d3 5a3b
00000040: e1a6 71ba 7a05 2cbb 9f82 123b 3dc8 d9b8
00000050: 69e7 38b9

weight f4 [7, 7]
-0.06593125 -0.43065476 0.45110595 0.08769834 0.41895306 0.019011002 -0.17876798 -0.47609252
-0.50574315 0.18273093 0.008495296 -0.5050275 -0.09768437 0.53335875 0.4351636 0.006274647
0.5819613 -0.5871698 -0.08241755 0.22004013 -0.32971397 0.014046515 -0.016591525 0.26342306
0.5448922 0.1494102 0.24971108 -0.5530349 0.5061353 -0.09454583 -0.44176707 0.47805655
0.078380205 -0.28065717 0.5200047 -0.42676383 0.29599085 0.22519507 -0.092142634 -0.012918003
0.14174376 0.12334227 0.4488248 -0.6575119 0.5242378 0.59296 -0.32084656 0.15326533
-0.031673435
00000000: f706 87bd c87e dcbe 5cf7 e63e 309b b33d
00000010: 0481 d63e f6bc 9b3c f40e 37be 66c2 f3be
00000020: 6278 01bf d11d 3b3e db2f 0b3c 7b49 01bf
00000030: be0e c8bd 338a 083f c3cd de3e 8e9b cd3b
00000040: 6afb 143f c350 16bf 88ca a8bd 3352 613e
00000050: 45d0 a8be 5b23 663c f3ea 87bc 63df 863e
00000060: 0e7e 0b3f fdfe 183e 43b4 7f3e b293 0dbf
00000070: 1592 013f 3ea1 c1bd 4b2f e2be d4c3 f43e
00000080: cd85 a03d 4cb2 8fbe 071f 053f ca80 dabe
00000090: 1d8c 973e 8999 663e 47b5 bcbd 08a6 53bc
000000a0: 4725 113e df9a fc3d 5dcc e53e b352 28bf
000000b0: 7334 063f 3acc 173f 0046 a4be 96f1 1c3e
000000c0: 01bc 01bd

bias f4 [7]
0.0013724337 -0.00031289796 0.00040329632 0.00051273475 0.00032872727 0.0028567621 -0.004507742
00000000: 3ce3 b33a 740c a4b9 8471 d339 0c69 063a
00000010: 0759 ac39 8438 3b3b aeb5 93bb

weight f4 [512, 7]
-0.08683435 0.029738482 -0.074203715 -0.076645985 -0.0465382 0.030152949 0.066129796 0.0879336
-0.030453157 -0.012855666 0.10283461 -0.0720171 -0.048706178 0.093383364 -0.07098474 0.00024282325
0.0985837 0.023587245 -0.015121969 0.01720982 -0.09272781 0.0304753 -0.073226474 0.07907692
-0.03315554 -0.06728976 0.04023125 0.0053020045 0.010733861 -0.0064408146 -0.022869432 0.008641809
-0.057916347 -0.045129105 0.015700946 -0.082242414 0.05570559 0.07618405 0.0109563675 -0.061843425
-0.016119637 -0.05792121 -0.07461468 -0.020918403 0.058437496 0.07181793 0.03705653 0.0044630775
0.046768703 -0.074949585 -0.0059842444 -0.07704629 -0.06335206 -0.034123197 0.03747687 -0.097391784
0.026622502 0.018720066 -0.024275823 0.096523695 0.054222867 -0.09125495 0.07794263 0.10225504
-0.10215868 -0.098272085 0.07058684 0.021412209 -0.043663327 -0.00818369 -0.06139 -0.012831838
0.061003692 0.014562587 -0.10634373 -0.023617443 -0.10318892 -0.07545644 0.053179458 0.014516112
0.102562025 0.016088169 0.052455768 0.052152317 0.06603666 0.081927 0.10433146 0.050268948
0.103755265 0.04677412 0.10201891 -0.10202151 0.08715177 -0.018100835 -0.087395206 -0.046822507
0.032431085 0.05410039 0.0647745 0.088905744 0.048813924 -0.048004758 0.02554147 -0.045281943
0.0029511328 0.031349268 -0.014592389 -0.057874978 -0.09234019 -0.036931183 0.1075212 0.0626828
-0.077187285 -0.03539245 -0.055545717 -0.05382855 0.00400652 -0.0065080523 0.05552025 -0.032538462
0.0994038 0.00087065843 -0.027687125 -0.10714445 0.03219733 0.01783107 0.020747924 -0.0688454
-0.0606591 0.03789462 -0.04806505 0.10133887 -0.03980787 0.0020591617 -0.060729165 0.030917138
-0.011607081 0.024252921 0.016360454 -0.031534843 -0.100815885 0.099097565 -0.08366475 -0.0054393806
0.09555667 -0.015450288 -0.0134569425 0.030825958 -0.015607371 0.07708493 -0.07186377 -0.056073077
0.06857839 0.02795655 -0.032676663 0.021595044 0.018461814 -0.09958769 -0.034394402 -0.07855555
-0.08993626 -0.023755016 -0.044790246 -0.08904701 -0.10116473 0.031088253 0.06977789 -0.016564095
0.091693364 -0.06898613 0.072900906 0.06934144 -0.042351786 -0.08127695 0.011887912 0.055104885
0.07814193 -0.04137335 -0.087131746 -0.09760342 -0.045421235 0.06505414 -0.056471888 0.015771545
-0.06926173 -0.0029958999 -0.09095552 0.061190426 0.09101651 0.105997734 0.034209557 0.0003441377
-0.014790076 -0.01356939 0.015269428 -0.056863103 0.013405577 -0.08627658 -0.008223108 -0.07872807
-0.03895758 0.05936852 0.011775934 0.018770492 0.08079245 0.061581213 -0.0476913 -0.08946641
0.10535646 -0.033560805 -0.039608315 0.074253395 -0.015760005 -0.056443196 0.0156613 0.04754278
0.06929053 0.016580861 -0.0406668 -0.087190844 0.08736468 -0.025689576 0.09492671 -0.07140702
0.0981372 0.006674066 -0.060551938 -0.06865175 -0.079658374 -0.019961722 -0.012051657 0.07013858
-0.0888466 0.088517606 -0.064579345 0.07396976 0.008628783 0.050898034 0.06330445 0.032949876
-0.07787938 0.083151095 -0.021656284 -0.07513146 -0.08710519 -0.011359496 0.06608894 -0.10152012
0.04414543 0.065224335 -0.005413065 0.09624435 0.105166204 -0.104124285 0.009247489 0.050371494
00000000: 35d6 b1bd 1e9e f33c 1ef8 97bd 92f8 9cbd
00000010: d79e 3ebd 5103 f73c 0f6f 873d 8816 b43d
00000020: e678 f9bc 92a0 52bc f49a d23d b47d 93bd
00000030: 2180 47bd c73f bf3d 7360 91bd 5f9e 7e39
00000040: 40e6 c93d 0a3a c13c 23c2 77bc 9cfb 8c3c
00000050: 14e8 bdbd 56a7 f93c c3f7 95bd 15f3 a13d
00000060: 1ace 07bd 37cf 89bd 86c9 243d 70bc ad3b
00000070: 13dd 2f3c 780d d3bb ad58 bbbc 6096 0d3c
00000080: b139 6dbd 4cd9 38bd 459f 803c b66e a8bd
00000090: 8b2b 643d 6206 9c3d 5682 333c 884f 7dbd
000000a0: 540d 84bc ca3e 6dbd 95cf 98bd 125d abbc
000000b0: 285c 6f3d 4715 933d 97c8 173d 023f 923b
000000c0: 8a90 3f3d 2b7f 99bd 7b17 c4bb 72ca 9dbd
000000d0: babe 81bd c4c4 0bbd 5981 193d 5875 c7bd
000000e0: 6f17 da3c d35a 993c 17de c6bc 37ae c53d
000000f0: cc18 5e3d e0e3 babd 63a0 9f3d 176b d13d
00000100: 9238 d1bd e042 c9bd d58f 903d a868 af3c
00000110: 51d8 32bd e214 06bc 1574 7bbd a13c 52bc
00000120: 02df 793d eb97 6e3c beca d9bd 5e79 c1bc
00000130: b654 d3bd e888 9abd b4d2 593d fdd4 6d3c
00000140: 0a0c d23d 56cb 833c dcdb 563d ab9d 553d
00000150: 3a3e 873d 58c9 a73d bcab d53d d0e6 4d3d
00000160: a47d d43d 3896 3f3d 4aef d03d a7f0 d0bd
00000170: a17c b23d 3448 94bc 42fc b2bd f5c8 3fbd
00000180: 75d6 043d 5f98 5d3d 7ea8 843d 3714 b63d
00000190: 1cf1 473d a3a0 44bd 583c d13c 8f79 39bd
000001a0: cb67 413b 1768 003d ea14 6fbc 500e 6dbd
000001b0: db1c bdbd 2745 17bd 1334 dc3d d75f 803d
000001c0: 5e14 9ebd acf7 10bd e883 63bd 537b 5cbd
000001d0: 2049 833b 8041 d5bb 3469 633d 0d47 05bd
000001e0: 3894 cb3d e63c 643a 1cd0 e2bc 8d6e dbbd
000001f0: 59e1 033d 7712 923c 8df7 a93c d1fe 8cbd
00000200: ad75 78bd 6437 1b3d dcdf 44bd c18a cf3d
00000210: 940d 23bd 00f3 063b 25bf 78bd f045 fd3c
00000220: a02b 3ebc 10ae c63c 5c06 863c ae2a 01bd
00000230: 8f78 cebd aaf3 ca3d 6d58 abbd d53c b2bb
00000240: 37b3 c33d 3423 7dbc 827a 5cbc b886 fc3c
00000250: 0fb6 7fbc b4de 9d3d 502d 93bd e2ac 65bd
00000260: d472 8c3d 2205 e53c f7d7 05bd 17e8 b03c
00000270: 3b3d 973c a1f4 cbbd 25e1 0cbd bbe1 a0bd
00000280: 8030 b8bd e199 c2bc fa75 37bd 475e b6bd
00000290: 742f cfbd cbac fe3c b6e7 8e3d 6db1 87bc
000002a0: bbc9 bb3d 9a48 8dbd 124d 953d e302 8e3d
000002b0: 1179 2dbd 8874 a6bd 84c5 423c a9b5 613d
000002c0: e008 a03d 1a77 29bd 2172 b2bd 4de4 c7bd
000002d0: 9e0b 3abd 1b3b 853d 114f 67bd 5433 813c
000002e0: 18d9 8dbd dc56 44bb e346 babd d0a2 7a3d
000002f0: dd66 ba3d 5715 d93d 521f 0c3d 616d b439
00000300: 1352 72bc 2652 5ebc 9f2c 7a3c 49e9 68bd
00000310: 11a3 5b3c c7b1 b0bd 37ba 06bc 2f3c a1bd
00000320: fc91 1fbd 682c 733d d9ef 403c 93c4 993c
00000330: 8376 a53d 953c 7c3d f457 43bd 2a3a b7bd
00000340: 21c5 d73d 0e77 09bd 543c 22bd 2a12 983d
00000350: 201b 81bc fb30 67bd 204c 803c 38bc 423d
00000360: 32e8 8d3d 96d4 873c 3b92 26bd 1d91 b2bd
00000370: 41ec b23d f272 d2bc ef68 c23d d83d 92bd
00000380: 28fc c83d 20b2 da3b 4f05 78bd 4a99 8cbd
00000390: ee23 a3bd c486 a3bc 5074 45bc d1a4 8f3d
000003a0: 35f5 b5bd b848 b53d 2d42 84bd 757d 973d
000003b0: bd5f 0d3c 757a 503d c3a5 813d 73f6 063d
000003c0: 397f 9fbd 1f4b aa3d 8568 b1bc 86de 99bd
000003d0: 3564 b2bd 2e1d 3abc a359 873d c8e9 cfbd
000003e0: d7d1 343d 5694 853d 1560 b1bb c21b c53d
000003f0: 6161 d73d 1d3f d5bd c882 173c 5752 4e3d

bias f4 [512]
-0.31662256 0.18244483 0.18290062 0.151557 0.3548848 0.26373863 0.17156166 0.35654405
-0.1730253 -0.07647137 0.26195902 0.17082117 -0.16670738 0.35739875 0.37235698 0.018341793
-0.26536143 0.08164327 0.30087903 -0.1425031 -0.038579557 0.103879236 -0.08018183 -0.17537075
-0.05245702 0.28333583 -0.015229487 -0.10075976 0.28299993 -0.34706795 -0.35474592 0.28482732
-0.3642307 -0.23470415 -0.27766594 -0.3723644 -0.286708 -0.3258428 0.26834673 -0.17032084
0.18894617 0.11552964 0.27866086 0.2104774 0.11876291 -0.33335388 0.08703138 -0.007673987
0.07044834 -0.043834068 0.09836438 0.19451492 -0.34902647 0.11648425 -0.06374462 0.25791496
0.10927061 0.35991228 -0.036992274 -0.29495525 -0.21603605 -0.35245106 0.36920515 -0.13574757
-0.28184643 0.2810937 0.25357607 0.28336152 -0.17611478 0.32979745 0.13844657 -0.21450976
-0.14603287 -0.18831196 0.3191853 -0.18076484 -0.014848311 -0.2542405 0.37269476 -0.28899744
-0.11047946 0.19206497 0.022307733 0.12237202 0.2149152 -0.22040078 0.123559564 0.32755646
0.12472595 0.2865239 0.21529685 0.022775808 0.039173916 0.080676675 0.15812501 -0.13066316
-0.016033128 0.16482046 0.24328423 -0.016632896 -0.14060201 0.18104029 0.34553534 0.33638346
0.10809418 -0.33797392 0.048608206 -0.33131632 -0.03252554 0.00073726394 0.23886278 -0.1687263
0.35872006 0.2441048 0.3032012 0.2997661 -0.050981607 -0.15390158 -0.3090598 0.28613144
-0.21708661 0.09273985 -0.034306034 -0.17943807 0.049959093 0.35252583 0.1420332 0.10951131
-0.05033824 0.35455504 -0.1431558 0.068569854 -0.008011683 -0.09296176 -0.2705887 -0.32955393
-0.29622665 -0.19132735 0.33151162 -0.07758817 -0.020879623 -0.3017757 0.2450994 -0.20389105
-0.18826906 -0.14965375 0.12652099 -0.22505517 0.1538838 -0.3162601 -0.17187704 -0.013942606
-0.097079866 0.045432407 0.15349852 0.030505817 -0.07306374 0.23064874 0.30872595 0.37048694
0.3209749 -0.28408962 -0.06579984 -0.35977376 0.17222653 0.028171953 -0.19281654 -0.08430127
0.1723389 0.044891626 -0.18400112 0.030183254 -0.04228231 -0.2327358 0.03082741 -0.20435573
0.23624432 -0.1667685 -0.11187617 0.14816158 -0.36384612 -0.0666733 -0.16669576 -0.27462465
-0.36510766 0.112609334 -0.3563968 0.11447399 0.10363165 -0.04503228 0.24031842 0.23201992
-0.21108736 -0.09322051 0.01836525 0.15350236 -0.36254117 -0.3461918 0.098694675 0.25378206
-0.15676564 -0.22089696 0.09357088 -0.36260566 0.014750028 0.17115292 -0.08018512 -0.19517106
-0.21355 0.117873326 0.09874155 0.30355817 -0.0785078 0.13779628 -0.259354 0.1293478
-0.1832998 -0.07086208 0.13074394 -0.09096028 0.37730616 -0.08618487 -0.114488 0.23261982
0.120868914 -0.045193844 0.15428358 -0.15594502 0.25333574 -0.2979941 -0.3261939 -0.11667426
0.32343337 -0.048350453 -0.19011845 -0.04903942 -0.15331085 0.11487385 -0.236969 -0.18838084
0.10392669 0.057258245 -0.09590457 0.23486346 -0.16771218 -0.3692899 0.31773847 0.05543852
0.11941058 0.35860106 0.27354002 0.17757143 0.32492372 0.35907823 -0.17016368 0.22963567
00000000: 5a1c a2be d1d2 3a3e 4d4a 3b3e c231 1b3e
00000010: 76b3 b53e c008 873e dcad 2f3e f18c b63e
00000020: 8b2d 31be 069d 9cbd 7e1f 863e bfeb 2e3e
00000030: 57b5 2abe f8fc b63e 93a5 be3e 8741 963c
00000040: 74dd 87be 9634 a73d d10c 9a3e 55ec 11be
00000050: 9905 1ebd a3be d43d 5f36 a4bd 6494 33be
00000060: 2cdd 56bd 6511 913e 1985 79bc 225b cebd
00000070: 5ee5 903e e4b2 b1be 42a1 b5be e3d4 913e
00000080: 727c babe 4956 70be 3b2a 8ebe 8ca6 bebe
00000090: 64cb 92be ded4 a6be be64 893e 9668 2ebe
000000a0: 1b7b 413e ce9a ec3d a3ac 8e3e 6387 573e
000000b0: f839 f33d 5cad aabe 823d b23d 1276 fbbb
000000c0: 3847 903d 5a8b 33bd 4473 c93d eb2e 473e
000000d0: 99b3 b2be 4b8f ee3d 8a8c 82bd 6e0d 843e
000000e0: 45c9 df3d 6c46 b83e 3685 17bd 6004 97be
000000f0: 8e38 5dbe 7774 b4be 7508 bd3e 6901 0bbe
00000100: 2d4e 90be 83eb 8f3e b9d4 813e c314 913e
00000110: 6f57 34be 36db a83e f0c4 0d3e 72a8 5bbe
00000120: a489 15be dad4 40be 416c a33e 6b1a 39be
00000130: 5546 73bc d02b 82be d9d1 be3e 79f7 93be
00000140: 0e43 e2bd aeac 443e b5be b63c 2e9e fa3d
00000150: bb12 5c3e beb0 61be cc0c fd3d 7bb5 a73e
00000160: 5270 ff3d 43b3 923e c776 5c3e 5594 ba3c
00000170: d474 203d d039 a53d 86eb 213e 90cc 05be
00000180: e857 83bc b2c6 283e 801f 793e b641 88bc
00000190: f9f9 0fbe a062 393e 02ea b03e 743a ac3e
000001a0: 7b60 dd3d eb0a adbe 6619 473d 4ba2 a9be
000001b0: 8039 05bd f244 413a 7298 743e 96c6 2cbe
000001c0: 28aa b73e 9cf6 793e 303d 9b3e f17a 993e
000001d0: 17d2 50bd 6098 1dbe 163d 9ebe d27f 923e
000001e0: f44b 5ebe 64ee bd3d 7c84 0cbd 9dbe 37be
000001f0: e8a1 4c3d 447e b43e 2771 113e 7747 e03d
00000200: 782f 4ebd 3d88 b53e 6f97 12be 5a6e 8c3d
00000210: 6f43 03bc bc62 bebd 9a8a 8abe 4bbb a8be
00000220: 05ab 97be 51eb 43be e4bb a93e 8ce6 9ebd
00000230: be0b abbc 5882 9abe 56fb 7a3e d1c8 50be
00000240: 9bc9 40be d53e 19be b88e 013e dd74 66be
00000250: b793 1d3e d8ec a1be 8900 30be 876f 64bc
00000260: cfd1 c6bd 5517 3a3d b72e 1d3e 56e7 f93c
00000270: 71a2 95bd 2f2f 6c3e 5411 9e3e 77b0 bd3e
00000280: d256 a43e 3274 91be 11c2 86bd 4434 b8be
00000290: 275c 303e dec8 e63c b371 45be 25a6 acbd
000002a0: 9c79 303e 48e0 373d ca6a 3cbe df42 f73c
000002b0: 3730 2dbd 4b52 6ebe c489 fc3c a142 51be
000002c0: 08ea 713e 5dc5 2abe 551f e5bd abb7 173e
000002d0: 0a4a babe 038c 88bd 4bb2 2abe 9a9b 8cbe
000002e0: 64ef babe b99f e63d a479 b6be 5771 ea3d
000002f0: d53c d43d c573 38bd 0816 763e a196 6d3e
00000300: 4927 58be 65ea bebd b972 963c b92f 1d3e
00000310: ff9e b9be 0d40 b1be 6f20 ca3d b9ef 813e
00000320: 2c87 20be d032 62be 17a2 bf3d 73a7 b9be
00000330: 1aaa 713c b642 2f3e 1938 a4bd ecda 47be
00000340: daac 5abe 9267 f13d 0339 ca3d fa6b 9b3e
00000350: b3c8 a0bd 781a 0d3e 0cca 84be c073 043e
00000360: f1b2 3bbe 2320 91bd bde1 053e 6249 babd
00000370: 462e c13e b181 b0bd af78 eabd e433 6e3e
00000380: 1f8a f73d 2e1d 39bd 84fc 1d3e 0db0 1fbe
00000390: 39b5 813e af92 98be e302 a7be eaf2 eebd
000003a0: 0f99 a53e 200b 46bd 69ae 42be 8fdd 48bd
000003b0: 85fd 1cbe fb42 eb3d 00a8 72be e8e6 40be
000003c0: 84d7 d43d 9f87 6a3d 9d69 c4bd 0c80 703e
000003d0: bebc 2bbe 9113 bdbe 9eae a23e 8013 633d
000003e0: 898d f43d 8f9a b73e 700d 8c3e 49d5 353e
000003f0: 675c a63e 1ad9 b73e 633f 2ebe 9d25 6b3e

weight f4 [7, 512]
0.10231746 0.002731982 0.030075908 -0.047268208 0.052273102 0.05342815 0.07562355 -0.013356757
-0.017398804 -0.09492698 0.005671423 0.06961886 0.03155732 -0.04281612 0.08028243 -0.08486417
0.04551643 -0.08594064 0.096255295 -0.013328545 0.089889206 -0.039120544 -0.091413565 -0.0015151988
-0.009905661 0.038392235 -0.059983917 0.08371127 -0.057252966 0.10312436 -0.041698933 0.030572433
0.08631924 -0.02125138 -0.015081387 0.07227789 -0.04725476 0.0995319 -0.03837789 -0.101702906
-0.013078894 0.05550061 -0.028941328 -0.037721153 -0.013561871 0.040056974 -0.036143504 0.05098775
0.10347286 0.014696656 -0.06397638 0.043338753 -0.025647677 0.07327113 0.06546975 -0.018377386
-0.05869457 -0.055584323 -0.007361132 -0.056364924 0.011037603 0.059144422 0.010759175 0.09741842
-0.009540131 -0.07929886 0.08234491 -0.024647538 -0.05956073 -0.10314402 -0.08999045 -0.07681658
-0.071971126 0.023087375 -0.040118296 0.014519319 0.06919637 -0.054312002 0.06084372 -0.05866132
-0.07623289 -0.093731456 0.026167829 0.07687725 -0.031814065 0.09417103 -0.0022202248 -0.08663255
0.00967032 0.0014251805 -0.09698541 0.065965824 0.05034311 0.063942134 -0.03383687 0.015426837
0.09092407 0.04987613 -0.046079073 -0.010405438 -0.103503905 -0.047236767 0.04566415 -0.011795962
0.08163461 0.09696056 -0.027656743 0.07897043 0.086174555 0.0039193877 -0.032489985 0.051484384
-0.017399581 0.060158867 -0.07501911 -0.029924871 -0.00010932203 0.015252052 0.027656468 -0.05260912
0.014186648 0.08629726 -0.10466132 0.08655059 0.094531134 0.033972025 -0.040265974 0.0021426533
-0.10287542 0.037247244 -0.05367404 -0.06959517 0.01518357 -0.063491404 -0.06292166 -0.081498936
-0.09311302 -0.040389568 -0.108045034 0.012468452 0.1010812 0.06447655 -0.06807578 -0.007251607
0.008607441 -0.05969882 0.07005266 0.08522709 0.04808899 -0.00082568824 0.10423643 0.022345275
-0.03239379 -0.030673651 0.061598305 0.0595767 0.02941685 -0.06925336 0.0872655 -0.05108074
-0.055719946 -0.03362214 -0.09914221 -0.096608035 -0.047996037 -0.082125284 -0.009955304 -0.015804593
0.0047905915 0.09930316 -0.0017299615 0.07258726 -0.0012649589 -0.0056797117 -0.06502974 -0.06728623
-0.06026815 0.01193786 0.06255826 0.048530348 0.07806946 0.0033733284 0.005357879 0.07115708
-0.001881183 0.024309035 -0.032098446 -0.050715186 -0.018365353 -0.055517595 0.07047241 0.10591591
0.073934674 0.08957061 -0.028361036 -0.06770342 0.105452195 -0.05075611 0.10433231 -0.024092427
0.04838905 0.046299364 0.09669337 -0.027520537 0.06999897 0.0676427 -0.10644859 -0.0019709766
0.031129632 -0.017028077 -0.032478817 -0.042102486 -0.050212104 0.000891985 0.05705392 -0.027838655
0.080109686 -0.018038914 -0.016406026 0.092337206 0.103051454 -0.086730585 -0.044417683 -0.07748251
0.08272055 -0.07014377 -0.09214169 -0.105738305 -0.080693565 -0.041847885 0.08642194 -0.10145562
0.03901697 -0.07600484 0.055226963 -0.0040666685 -0.00017607234 0.07453917 -0.04539837 0.011435501
-0.039857112 -0.10871073 0.10612198 -0.067846105 -0.043785196 -0.08031906 -0.09569973 -0.009747122
0.029818859 0.04437836 0.078606606 0.07690067 0.07823715 -0.036334246 0.06018301 0.08799381
00000000: d18b d13d 0d0b 333b c061 f63c 4f9c 41bd
00000010: 521c 563d 7ad7 5a3d 85e0 9a3d 4dd6 5abc
00000020: f087 8ebc 1469 c2bd 58d7 b93b 5594 8e3d
00000030: 4042 013d f55f 2fbd 1d6b a43d 44cd adbd
00000040: 706f 3a3d a501 b0bd 7f21 c53d f85f 5abc
00000050: d517 b83d dd3c 20bd 0937 bbbd a399 c6ba
00000060: 5b4b 22bc 2d41 1d3d b2b1 75bd d070 ab3d
00000070: 1682 6abd dd32 d33d 80cc 2abd 0a73 fa3c
00000080: 24c8 b03d 6017 aebc ec17 77bc 6e06 943d
00000090: 358e 41bd 61d7 cb3d 2232 1dbd 9d49 d0bd
000000a0: db48 56bc 9c54 633d 5d16 edbc 7f81 1abd
000000b0: 9c32 5ebc c812 243d 360b 14bd 88d8 503d
000000c0: 94e9 d33d 3eca 703c 0c06 83bd fa83 313d
000000d0: 141b d2bc 2d0f 963d 0115 863d 2c8c 96bc
000000e0: b869 70bd 63ac 63bd a735 f1bb e8de 66bd
000000f0: 10d7 343c 6c41 723d 4047 303c 4f83 c73d
00000100: 364e 1cbc 7167 a2bd 73a4 a83d a2e9 c9bc
00000110: f4f5 73bd 2c3d d3bd ea4c b8bd 0352 9dbd
00000120: 9965 93bd bc21 bd3c 1553 24bd 70e2 6d3c
00000130: d4b6 8d3d 4376 5ebd 4437 793d da46 70bd
00000140: fd1f 9cbd 47f6 bfbd ea5d d63c d271 9d3d
00000150: 774f 02bd bedc c03d 3181 11bb 686c b1bd
00000160: 4370 1e3c 1fcd ba3a 49a0 c6bd 1719 873d
00000170: 9434 4e3d 18f4 823d 8898 0abd d8c0 7c3c
00000180: 6636 ba3d ea4a 4c3d 69bd 3cbd 927b 2abc
00000190: dbf9 d3bd 577b 41bd 550a 3b3d da43 41bc
000001a0: 0c30 a73d 4293 c63d 6590 e2bc 40bb a13d
000001b0: 497c b03d 356e 803b 3814 05bd 4ae1 523d
000001c0: 9189 8ebc 2569 763d 9fa3 99bd 0125 f5bc
000001d0: d143 e5b8 bee3 793c d18f e23c a97c 57bd
000001e0: 1d6f 683c 9ebc b03d ad58 d6bd 7041 b13d
000001f0: 8a99 c13d 4026 0b3d efed 24bd c26b 0c3b
00000200: 59b0 d2bd 9190 183d 4fd9 5bbd ea87 8ebd
00000210: 82c4 783c c807 82bd 12dd 80bd eae8 a6bd
00000220: 0ab2 bebd 886f 25bd b746 ddbd 7a48 4c3c
00000230: a903 cf3d 480c 843d 516b 8bbd e39e edbb
00000240: 3906 0d3c c086 74bd c577 8f3d 8a8b ae3d
00000250: f6f8 443d 0073 58ba e979 d53d 700d b73c
00000260: 5aaf 04bd 4f47 fbbc 814e 7c3d b306 743d
00000270: 9bfb f03c b5d4 8dbd 41b8 b23d 0a3a 51bd
00000280: 993a 64bd 5eb7 09bd 120b cbbd 6fda c5bd
00000290: 7e97 44bd 4d31 a8bd 921b 23bc a278 81bc
000002a0: 65fa 9c3b 755f cb3d e0bf e2ba a1a8 943d
000002b0: facc a5ba e01c babb 502e 85bd 5dcd 89bd
000002c0: bcdb 76bd 0497 433c 8c1e 803d c2c7 463d
000002d0: e2e2 9f3d 0f13 5d3b 2691 af3b ceba 913d
000002e0: 0792 f6ba be23 c73c a979 03bd baba 4fbd
000002f0: f072 96bc 6b66 63bd d753 903d 71ea d83d
00000300: 106b 973d cc70 b73d 6755 e8bc 17a8 8abd
00000310: 52f7 d73d a4e5 4fbd 2eac d53d 7b5d c5bc
00000320: 9933 463d 67a4 3d3d 2c07 c63d c072 e1bc
00000330: 9f5b 8f3d 4288 8a3d b801 dabd 802b 01bb
00000340: 9203 ff3c 777e 8bbc 8208 05bd a873 2cbd
00000350: 35ab 4dbd 1ad4 693a 5fb1 693d e40d e4bc
00000360: 8c10 a43d 58c6 93bc ee65 86bc 4a1b bd3d
00000370: a40c d33d ce9f b1bd 51ef 35bd 26af 9ebd
00000380: 6469 a93d 89a7 8fbd c8b4 bcbd 538d d8bd
00000390: ab42 a5bd b068 2bbd fcfd b03d f7c7 cfbd
000003a0: 42d0 1f3d 6da8 9bbd ab35 623d b041 85bb
000003b0: 0fa0 38b9 fea7 983d a4f3 39bd f85b 3b3c
000003c0: 3641 23bd bba3 debd 7b56 d93d e6f2 8abd
000003d0: 1b58 33bd 527e a4bd 38fe c3bd 65b2 1fbc
000003e0: ae46 f43c 15c6 353d 80fc a03d 197e 9d3d
000003f0: cd3a a03d 38d3 14bd 7682 763d 1936 b43d

bias f4 [7]
0.034283135 -0.025937852 -0.018626021 -0.0037851625 -0.0042423857 0.020764848 -0.02466636
00000000: 796c 0c3d 9e7b d4bc 9995 98bc 7d10 78bb
00000010: b603 8bbb 0b1b aa3c 1b11 cabc

weight f4 [7]
1.0071981 1.0022998 1.0001551 1.0025033 0.99757135 0.991904 0.99985087
00000000: deeb 803f 5c4b 803f 1505 803f 0752 803f
00000010: d660 7f3f 6ced 7d3f 3af6 7f3f

bias f4 [7]
-0.00093707617 -0.00017336049 1.4057529e-05 0.0008630082 0.00026084165 0.0030823764 -0.004112738
00000000: 1ea6 75ba 1ac8 35b9 a1d8 6b37 803b 623a
00000010: 93c1 8839 b201 4a3b 26c4 86bb

weight f4 [7]
1.0085554 1.0027726 1.0006255 1.0012438 0.9974858 0.99344146 0.99758995
00000000: 5818 813f da5a 803f 7f14 803f c228 803f
00000010: 3b5b 7f3f 2e52 7e3f 0e62 7f3f
