transformer_model.pt (torch, 463629 bytes, 186 tensors)

in_proj_weight f4 [21, 7]
-0.09655961 -0.16990395 -0.04272912 0.1279266 -0.22389641 0.07093682 0.23888424 0.34467995
-0.30036956 -0.51144433 -0.22840893 -0.29154584 0.104659565 0.44845313 0.33613002 0.2861547
-0.017581047 0.31869897 0.41686058 0.18761785 0.34276098 -0.24561714 -0.11313069 0.52843165
-0.011993543 0.06101974 -0.069159746 0.1887935 0.016488044 0.20338278 -0.36628067 0.01425927
-0.2862459 -0.5212997 0.74698716 -0.0044837585 0.15625447 -0.16223557 -0.1625801 0.26814812
0.025453039 -0.19124953 -0.11364714 0.25416937 0.23863299 0.35326755 0.4073107 0.14606547
0.45892313 0.23703547 -0.2033905 0.43002304 0.16973627 0.01962406 -0.20461813 0.41541773
0.2892642 0.3082648 -0.3848211 -0.12647167 0.3359223 -0.39763555 0.14497843 -0.012050029
-0.4253292 -0.10001617 -0.1818219 -0.41980127 0.6148365 0.7161725 0.28614 -0.1427569
-0.46188426 0.25582904 -0.109639876 0.4673357 -0.15625735 0.30605307 0.08412278 0.14220397
-0.13396432 0.33085263 0.4042816 -1.2398375 -0.20286152 -0.3978386 -0.07586137 -0.15200995
-0.46138945 0.17489985 0.9024457 -0.35274127 -0.23145364 -0.32739517 0.07913037 0.37928265
0.24802041 0.38840383 -0.72978675 -0.92576116 -0.53212494 -0.07000823 -1.1715622 -0.034435358
1.2670305 0.18464555 -0.463029 0.37560558 1.2007995 1.0574429 0.3470966 -0.25651237
-0.31674236 0.6434282 -0.8468971 -1.4571742 -1.2188144 -0.516636 0.9939788 -0.26729918
-0.5002862 -0.61466503 -0.2802416 0.5353035 -0.5521131 0.44277525 -0.08641231 0.5988937
-0.10924827 -0.2346484 0.38279355 -0.4739671 0.17518988 0.13401449 0.28982344 1.0519247
1.1040245 1.1450452 0.77724516 -3.0772357 -0.8645106 -0.5853456 0.06573199 0.6892204
-0.07602077 0.77695775 -0.38116935
00000000: 0bc1 c5bd 4dfb 2dbe bb04 2fbd 31ff 023e
00000010: 1a45 65be 5347 913d 129e 743e e479 b03e
00000020: 0aca 99be 04ee 02bf 08e4 69be 7f45 95be
00000030: c157 d63d a69b e53e 3c19 ac3e de82 923e
00000040: 2106 90bc 832c a33e c06e d53e e51e 403e
00000050: 5e7e af3e 0f83 7bbe 10b1 e7bd 4c47 073f
00000060: 9180 44bc d6ef 793d a0a3 8dbd 1553 413e
00000070: ef11 873c 9343 503e 2489 bbbe b79f 693c
00000080: d38e 92be e673 05bf 8d3a 3f3f 7eec 92bb
00000090: 2c01 203e 1521 26be 667b 26be b64a 893e
000000a0: e482 d03c ebd6 43be d5bf e8bd 7d22 823e
000000b0: 355c 743e 7cdf b43e 078b d03e 3092 153e
000000c0: f9f7 ea3e 6db9 723e 9945 50be fb2b dc3e
000000d0: 58cf 2d3e a3c2 a03c 6a87 51be a2b1 d43e
000000e0: 701a 943e e2d4 9d3e 4507 c5be ca81 01be
000000f0: 02fe ab3e e396 cbbe 3a75 143e 7c6d 45bc
00000100: c0c4 d9be 47d5 ccbd 852f 3abe 31f0 d6be
00000110: ed65 1d3f 1557 373f f180 923e dd2e 12be
00000120: 187c ecbe 06fc 823e df8a e0bd a046 ef3e
00000130: ed01 20be fdb2 9c3e 9048 ac3d eb9d 113e
00000140: f12d 09be 8465 a93e fffd ce3e ffb2 9ebf
00000150: eeba 4fbe 80b1 cbbe 355d 9bbd 7fa8 1bbe
00000160: 3d3b ecbe f218 333e ae06 673f 819a b4be
00000170: 2f02 6dbe 57a0 a7be 1a0f a23d 5631 c23e
00000180: 10f9 7d3e dedc c63e 4ed3 3abf affe 6cbf
00000190: 5739 08bf 7a60 8fbd c0f5 95bf 170c 0dbd
000001a0: 0e2e a23f b913 3d3e 2312 edbe 604f c03e
000001b0: ccb3 993f 4a5a 873f a5b6 b13e 9755 83be
000001c0: 0e2c a2be b6b7 243f 40ce 58bf af84 babf
000001d0: 1c02 9cbf 4242 04bf 6575 7e3f 70db 88be
000001e0: c212 00bf b05a 1dbf d47b 8fbe a609 093f
000001f0: 4957 0dbf 70b3 e23e f0f8 b0bd 1951 193f
00000200: 8fbd dfbd ac47 70be 84fd c33e d1ab f2be
00000210: fa64 333e 183b 093e bd63 943e 78a5 863f
00000220: ad50 8d3f d790 923f 8af9 463f 6ef1 44c0
00000230: 9150 5dbf 36d9 15bf 7e9e 863d c070 303f
00000240: c7b0 9bbd b4e6 463f a128 c3be

in_proj_bias f4 [21]
-0.3907846 -0.042198285 0.007753575 -0.4078206 -0.18366298 -0.40855777 -0.002217333 9.840183e-08
4.8427804e-09 9.5443426e-08 1.1708237e-08 -7.497727e-09 -2.8783933e-08 8.3833314e-08 -0.8106351 0.37203655
-0.68426055 1.7105039 -0.48086375 3.9186716 -0.43706128
00000000: eb14 c8be 1cd8 2cbd b411 fe3b ddcd d0be
00000010: 2612 3cbe 7c2e d1be ad50 11bb fa50 d333
00000020: 8c65 a631 94f6 cc33 5f25 4932 5acf 00b2
00000030: 8a40 f7b2 da07 b433 c885 4fbf 937b be3e
00000040: b32b 2fbf cbf1 da3f c633 f6be 84cb 7a40
00000050: 7fc6 dfbe

weight f4 [7, 7]
0.10423397 0.629802 -0.36940712 0.71301913 -0.46108735 1.0355266 -0.2910995 -0.033517037
0.71874064 -0.25573096 -0.77460366 -0.29372907 -1.337896 -0.38558412 -0.9132986 -0.3608311
-0.05565867 -0.092861764 0.10760235 -0.51932955 -0.32445237 -0.052379727 -0.7500563 0.8825044
0.2340152 -0.25664493 0.1404869 -0.14646576 -0.35436916 0.7746727 -0.4764184 0.87879705
-0.37015557 -0.5141739 0.18957932 -0.17546672 0.061428856 0.12794974 -0.28199512 0.001762025
-0.18704058 0.45575166 0.53632367 0.148382 0.35077715 -0.026708871 -0.11086163 0.38430953
-0.37778288
00000000: 9f78 d53d b43a 213f ee22 bdbe 6c88 363f
00000010: a413 ecbe 238c 843f fe0a 95be 2949 09bd
00000020: 63ff 373f 2bef 82be 6d4c 46bf a863 96be
00000030: 2d40 abbf 486b c5be f0cd 69bf dbbe b8be
00000040: 58fa 63bd 4f2e bebd 9f5e dc3d c8f2 04bf
00000050: 9f1e a6be 208c 56bd b103 40bf cfeb 613f
00000060: aea1 6f3e f766 83be ccdb 0f3e 1ffb 15be
00000070: e06f b5be f350 463f 1ded f3be d8f8 603f
00000080: 0885 bdbe e7a0 03bf 1521 423e 8cad 33be
00000090: d39c 7b3d 4205 033e aa61 90be bff3 e63a
000000a0: 9187 3fbe 4858 e93e 824c 093f 73f1 173e
000000b0: 1099 b33e 90cc dabc 6c0b e3bd 38c4 c43e
000000c0: c26c c1be

bias f4 [7]
1.8316803 -1.3174343 0.052002225 0.18459292 0.36682776 -0.9454791 0.05843596
00000000: 8074 ea3f b0a1 a8bf 4900 553d ed05 3d3e
00000010: d9d0 bb3e eb0a 72bf 8c5a 6f3d

weight f4 [512, 7]
-0.046294652 0.06896534 -0.12761268 0.09685345 0.15140572 -0.11879483 0.06215774 0.15811035
0.0015701655 -0.07171778 -0.038611885 -0.12155376 -0.027270058 0.078066364 -0.05428046 0.095310636
-0.05024536 -0.036462117 -0.018009868 0.12706101 -0.012731783 0.016780032 -0.009910278 -0.14227282
-0.040755626 -0.03869105 -0.012006502 0.005401926 0.06670354 -0.12727545 0.047243662 0.08778436
-0.06347811 0.022300946 0.008472879 -0.07196467 0.074441575 -0.08733987 -0.012028145 0.03307339
0.059252135 -0.16377348 -0.014373531 -0.041777115 0.034801617 0.027962634 -0.040495142 -0.0019819117
-0.079245366 0.10175992 0.0319357 -0.030424053 0.09192789 -0.030511009 0.02819138 -0.02169423
0.07545534 -0.13089798 0.033527095 0.014999093 -0.04596785 -0.03127755 0.008010055 -0.04147824
0.038732044 0.058347937 0.050041195 -0.0213991 0.02338416 0.04545461 0.05383367 -0.00959815
0.043080185 0.16973907 0.078082286 0.108238816 -0.12153479 -0.07256806 0.2347012 -0.024778059
-0.039380673 0.15947263 0.11736736 -0.30481708 0.11533947 0.012571238 -0.032033075 0.018418474
-0.04689989 0.0075768568 0.050309114 -0.021548936 0.06734861 -0.069579855 0.0760766 -0.030883668
0.030131264 0.03480584 -0.19292234 0.008751331 -0.040953193 0.087059505 -0.124130204 -0.019526776
0.051277965 0.12167403 -0.12952597 0.06588833 -0.111947134 -0.06426866 0.028575955 0.085886985
-0.03133902 0.03822636 0.06651083 -0.2047085 0.18389624 -0.010664217 -0.035017915 -0.015166684
-0.022965282 -0.019074501 0.004661169 -0.0859962 0.023193372 -0.11034786 0.09100678 -0.038411703
0.02442684 -0.0111749545 0.2182912 0.003267229 -0.15681003 0.16701598 -0.1375379 0.007026192
0.01985553 -0.0352089 0.040118992 0.09493184 -0.028083391 -0.03337414 -0.08435593 0.008424993
0.026085649 0.08317381 -0.06110442 -0.0054062135 -0.022618499 -0.04689682 0.0072520073 0.010939273
0.00013927429 -0.11381213 -0.06130758 -0.08246214 0.12343846 0.21558076 -0.21508658 -0.059794705
-0.024123123 0.014451013 -0.06638699 0.006092704 0.009728103 -0.058417123 0.098438784 -0.009985415
-0.07786075 0.05320643 -0.095330514 0.00040312516 8.036286e-05 0.21911748 0.026111389 0.05788703
-0.17081276 -0.03527773 0.054184265 0.042795368 -0.01622557 0.07007185 0.00054064835 -0.016507277
-0.113605365 0.10799127 -0.114056826 -0.12871607 -0.035751954 -0.01120871 -0.053339437 -0.06822328
-0.0030757566 -0.010898773 -0.06402807 -0.02029964 0.2879037 -0.32310733 0.026336955 0.13308094
0.017976372 0.003968301 -0.13779876 0.09059431 -0.1681315 -0.030790145 0.01921179 0.09484189
0.016787425 -0.049394675 -0.037742104 -0.05875574 0.110018626 0.05136162 0.08834193 -0.11286909
0.03268778 -0.021741252 -0.08842173 0.054674152 0.028409755 0.07279584 -0.094310574 0.034037657
0.012198141 -0.061332405 0.12873244 0.051826432 0.072502516 0.043560665 0.01187973 0.0881591
-0.24823321 0.087445185 0.032015245 0.09541036 0.038292013 0.041365635 0.1306391 0.06153128
-0.11604795 -0.0044978247 -0.017966451 0.05147909 0.07599078 0.11838177 -0.021201938 0.10909483
-0.0483817 0.15781403 0.02790483 -0.1752866 -0.033750415 -0.089486934 -0.070031546 -0.0081221545
00000000: 769f 3dbd b33d 8d3d e6ac 02be 1a5b c63d
00000010: 1a0a 1b3e b44a f3bd 1d99 7e3d aee7 213e
00000020: 03ce cd3a c5e0 92bd 7f27 1ebd 2df1 f8bd
00000030: 7565 dfbc 42e1 9f3d 3055 5ebd 3932 c33d
00000040: 14ce 4dbd 4d59 15bd 6e89 93bc 481c 023e
00000050: f898 50bc 4776 893c b85e 22bc f7af 11be
00000060: 5fef 26bd 827a 1ebd ebb6 44bc a402 b13b
00000070: de9b 883d 7f54 02be 9282 413d 49c8 b33d
00000080: d000 82bd 79b0 b63c d5d1 0a3c 3762 93bd
00000090: d374 983d 3fdf b2bd b211 45bc f777 073d
000000a0: 5eb2 723d 3cb4 27be f57e 6bbc 7b1e 2bbd
000000b0: 248c 0e3d e511 e53c 3cde 25bd f6e2 01bb
000000c0: 654b a2bd 8167 d03d 02cf 023d dd3b f9bc
000000d0: b144 bc3d 39f2 f9bc 9cf1 e63c 19b8 b1bc
000000e0: 5488 9a3d 1f0a 06be b553 093d c1be 753c
000000f0: c948 3cbd e31c 00bd 9b3c 033c 16e5 29bd
00000100: 7ea5 1e3d 3ffe 6e3d fff7 4c3d 2a4d afbc
00000110: 2390 bf3c 9d2e 3a3d b280 5c3d 8f41 1dbc
00000120: d974 303d 14d0 2d3e 9be9 9f3d 50ac dd3d
00000130: 3be7 f8bd 909e 94bd 8355 703e 5bfb cabc
00000140: a14d 21bd cb4c 233e 4c5e f03d fc10 9cbe
00000150: 1a37 ec3d 98f7 4d3c 1d35 03bd 57e2 963c
00000160: 191a 40bd 4847 f83b ee10 4e3d 6587 b0bc
00000170: 11ee 893d e27f 8ebd 0cce 9b3d bfff fcbc
00000180: d7d5 f63c 9290 0e3d 6f8d 45be be61 0f3c
00000190: 89be 27bd 414c b23d fa37 febd 9ef6 9fbc
000001a0: d808 523d 3c30 f93d 75a2 04be 76f0 863d
000001b0: 8a44 e5bd 4a9f 83bd 1f18 ea3c 84e5 af3d
000001c0: 585d 00bd 3e93 1c3d d436 883d 1b9f 51be
000001d0: 4c4f 3c3e f8b8 2ebc f26e 0fbd af7d 78bc
000001e0: b021 bcbc 2142 9cbc b8bc 983b c71e b0bd
000001f0: 0700 be3c 0ffe e1bd c361 ba3d 9755 1dbd
00000200: cc1a c83c 2817 37bc ba87 5f3e 021f 563b
00000210: cf92 20be 3d06 2b3e bcd6 0cbe f83b e63b
00000220: 10a8 a23c 3537 10bd d053 243d a06b c23d
00000230: 240f e6bc 52b3 08bd cdc2 acbd fb08 0a3c
00000240: 92b1 d53c 0857 aa3d a148 7abd 9b26 b1bb
00000250: 6e4a b9bc e116 40bd 3fa2 ed3b a33a 333c
00000260: 280a 1239 5616 e9bd a81d 7bbd e9e1 a8bd
00000270: 4ecd fc3d 34c1 5c3e a83f 5cbe 4beb 74bd
00000280: db9d c5bc f1c3 6c3c e7f5 87bd 4ea5 c73b
00000290: 9f62 1f3c cb46 6fbd 469a c93d de99 23bc
000002a0: 7575 9fbd fcee 593d a53c c3bd 8b5a d339
000002b0: 7b88 a838 5560 603e 8de7 d53c f31a 6d3d
000002c0: 8ae9 2ebe 627f 10bd 52f0 5d3d 324a 2f3d
000002d0: 7deb 84bc d581 8f3d 4cba 0d3a 453a 87bc
000002e0: eea9 e8bd 872a dd3d a096 e9bd 25ce 03be
000002f0: a470 12bd bda4 37bc 747a 5abd a6b8 8bbd
00000300: a292 49bb c490 32bc 2621 83bd 6e4b a6bc
00000310: 1d68 933e 536e a5be 99c0 d73c 5f46 083e
00000320: 2f43 933c 8608 823b 1e1b 0dbe 8289 b93d
00000330: aa2a 2cbe 9d3b fcbc 0b62 9d3c 773c c23d
00000340: c885 893c 1252 4abd 7797 1abd dca9 70bd
00000350: 7251 e13d 9060 523d 9dec b43d e927 e7bd
00000360: 9fe3 053d b61a b2bc 7416 b5bd 01f2 5f3d
00000370: 93bb e83c fc15 953d e725 c1bd 126b 0b3d
00000380: b6da 473c b037 7bbd 70d2 033e f447 543d
00000390: 337c 943d ab6c 323d 33a3 423c c28c b43d
000003a0: d930 7ebe 7616 b33d 6b22 033d 8266 c33d
000003b0: 16d8 1c3d 036f 293d 42c6 053e 3908 7c3d
000003c0: 8caa edbd 7d62 93bb 612e 93bc bddb 523d
000003d0: 0ea1 9b3d 2472 f23d b0af adbc 1c6d df3d
000003e0: e42b 46bd 009a 213e ac98 e43c 557e 33be
000003f0: e03d 0abd ed44 b7bd b36c 8fbd c912 05bc

bias f4 [512]
-0.27326098 0.106662236 -0.36345926 -0.033615142 -0.15004152 0.0068733837 0.1949841 0.08883393
-0.34453267 -0.21402793 0.3491603 -0.073515244 0.05912812 -0.3708537 -0.36767185 -0.070735596
-0.3022013 0.1749593 -0.15781781 -0.24465647 0.20713538 0.20382123 -0.09798949 -0.34627402
0.011339335 -0.24672645 -0.3043871 -0.18145616 0.23983784 0.30230796 -0.08521752 -0.31994617
0.23456095 0.20987152 -0.08448332 -0.08457087 0.2935873 0.18523552 0.09125632 -0.29703122
0.057881553 -0.20923275 0.16226819 -0.33597466 0.033677924 -0.15708913 -0.26782593 0.11383062
-0.033254176 -0.31964165 -0.044911295 0.031508375 -0.058857363 -0.0073813368 0.045093313 -0.3668373
-0.01155379 0.0071548824 -0.19403356 0.052046195 0.34485632 0.15936114 0.024518097 0.22587924
-0.11938737 0.2891669 -0.053346835 0.25155842 -0.26714528 0.029898325 -0.33081287 -0.06419544
0.12599158 -0.03692913 -0.26044646 -0.056384802 -0.28282443 -0.17139333 -0.106045686 -0.1405964
-0.3558087 -0.252125 -0.033193104 -0.09838358 0.059728686 -0.07824819 0.12626816 -0.2529982
-0.05568999 0.08269666 -0.21728382 -0.3687737 -0.2579798 -0.14373158 0.3243245 0.021766888
-0.21144682 0.14512862 0.24684587 0.1560798 0.1947506 0.27148184 0.21360481 0.30842146
-0.1743361 -0.043478962 -0.3349087 -0.021007134 0.09254419 -0.31485325 0.029164642 0.2217682
0.095352925 0.28549534 0.13263053 0.16094127 -0.20657401 0.14872052 -0.31054345 -0.28603354
-0.36175564 0.061024923 -0.37726563 0.07223803 -0.08832339 0.09317986 0.2217617 0.07773321
0.25461546 -0.32103986 -0.18208721 -0.19842395 -0.26741573 -0.117797874 -0.30762807 -0.056046687
-0.29945752 0.24066201 0.26000538 0.23850022 -0.28513238 0.0240935 -0.25702876 0.18048808
0.097011484 -0.32204548 0.11045753 -0.049492422 -0.36800143 -0.17295733 -0.19827682 -0.28872555
-0.33153674 -0.23432189 -0.2585173 0.086119466 -0.13588506 -0.0392174 -0.29096732 0.18349247
0.035421718 -0.33603144 0.17564063 -0.085397325 0.18685871 0.23028265 0.18920286 -0.33993787
0.0128488485 0.2367308 0.1320507 -0.2735577 -0.31957552 -0.19702014 -0.3532628 -0.1283356
-0.24513821 -0.2847997 -0.06843998 -0.08794906 -0.023828043 -0.31242874 0.26543352 -0.30724168
0.2943581 0.21988468 -0.30677506 -0.27866116 -0.09246391 -0.3739805 -0.25344396 0.26829407
0.20395721 -0.09556079 -0.10928583 0.012784535 -0.1504925 0.14431643 -0.1540979 -0.2840642
0.19426185 0.18646795 -0.121985875 -0.12911178 0.23064752 0.12175496 0.119607106 -0.33146656
0.23493062 -0.33882025 0.1510983 -0.34168604 0.20331149 0.02743251 0.14548656 0.038427796
-0.0192986 -0.004068091 -0.10034406 -0.102472715 -0.36980686 0.044303145 -0.31475982 -0.103297636
0.091025494 0.21317875 0.095945634 -0.29134545 -0.31074682 0.085339725 -0.36673856 -0.006440244
-0.299135 0.13595583 -0.102634735 -0.24403632 0.35236186 -0.33753532 -0.11308533 -0.13889433
-0.33220407 -0.22278936 0.084190026 -0.3687935 -0.3392394 -0.23904748 -0.21822606 -0.27594048
0.2558145 -0.24849692 0.08437821 -0.110480264 0.09611887 0.15278442 -0.22312826 -0.20455852
00000000: dde8 8bbe bb71 da3d 5517 babe 08b0 09bd
00000010: 7ca4 19be 1f3a e13b e9a9 473e 90ee b53d
00000020: 9666 b0be 232a 5bbe 24c5 b23e 298f 96bd
00000030: 5430 723d 89e0 bdbe 7c3f bcbe d3dd 90bd
00000040: 21ba 9abe 8828 333e fe9a 21be 3a87 7abe
00000050: 4c1b 543e 83b6 503e b7ae c8bd d44a b1be
00000060: 9ec8 393c dca5 7cbe a0d8 9bbe a5cf 39be
00000070: 0d98 753e 1cc8 9a3e 8686 aebd fccf a3be
00000080: bf30 703e 8fe8 563e 9705 adbd 7e33 adbd
00000090: 1351 963e 61ae 3d3e 98e4 ba3d 7a14 98be
000000a0: 3515 6d3d 1c41 56be a229 263e df04 acbe
000000b0: ddf1 093d f9db 20be 7b20 89be 0720 e93d
000000c0: 8835 08bd 12a8 a3be e8f4 37bd ed0e 013d
000000d0: 6b14 71bd 24df f1bb c4b3 383d 19d2 bbbe
000000e0: 1c4c 3dbc 8173 ea3b bcb0 46be 642e 553d
000000f0: 0291 b03e 912f 233e 2dda c83c e34c 673e
00000100: 5e81 f4bd af0d 943e 3682 5abd 44cc 803e
00000110: 44c7 88be 55ed f43c 4e60 a9be e678 83bd
00000120: f003 013e 0043 17bd 3d59 85be c0f3 66bd
00000130: 5dce 90be bc81 2fbe 7b2e d9bd 81f8 0fbe
00000140: 8f2c b6be 8716 81be 7ef5 07bd 557d c9bd
00000150: 11a6 743d 9640 a0bd 714c 013e fb88 81be
00000160: 301b 64bd de5c a93d a67f 5ebe e8cf bcbe
00000170: ee15 84be 5f2e 13be dc0d a63e 7950 b23c
00000180: 8485 58be 999c 143e 2ac5 7c3e 62d3 1f3e
00000190: b46c 473e abff 8a3e 38bb 5a3e 6be9 9d3e
000001a0: 2a85 32be ff16 32bd 2779 abbe 2717 acbc
000001b0: cf87 bd3d 7234 a1be b0ea ee3c 3417 633e
000001c0: 6548 c33d 722c 923e 4cd0 073e cacd 243e
000001d0: 2388 53be 314a 183e 8dff 9ebe fd72 92be
000001e0: 0938 b9be 45f5 793d f628 c1be 88f1 933d
000001f0: e5e2 b4bd 15d5 be3d 8015 633e 9732 9f3d
00000200: f55c 823e 565f a4be 1275 3abe a62f 4bbe
00000210: b7ea 88be 0340 f1bd 6d81 9dbe 3691 65bd
00000220: 7f52 99be 1a70 763e 6d1f 853e 6739 743e
00000230: dffc 91be bb5f c53c 4699 83be ded1 383e
00000240: f5ad c63d 25e3 a4be 8f37 e23d 91b8 4abd
00000250: af6a bcbe ba1b 31be 1409 4bbe d6d3 93be
00000260: 2fbf a9be 14f2 6fbe 615c 84be 675f b03d
00000270: 7425 0bbe 6da2 20bd abf9 94be 73e5 3b3e
00000280: 5d16 113d 500c acbe 23db 333e cbe4 aebd
00000290: e457 3f3e 37cf 6b3e 65be 413e 560c aebe
000002a0: fa83 523c 8f69 723e 4c38 073e c10f 8cbe
000002b0: 679f a3be a6bf 49be ddde b4be 686a 03be
000002c0: 8305 7bbe 44d1 91be 432a 8cbd a31e b4bd
000002d0: 0733 c3bc a9f6 9fbe e7e6 873e c84e 9dbe
000002e0: 1bb6 963e 7329 613e 9f11 9dbe adac 8ebe
000002f0: b85d bdbd 5f7a bfbe 68c3 81be d75d 893e
00000300: 29da 503e 60b5 c3bd 40d1 dfbd 3a76 513c
00000310: b51a 1abe b0c7 133e d7cb 1dbe dd70 91be
00000320: 94ec 463e 74f1 3e3e bbd3 f9bd e135 04be
00000330: dd2e 6c3e aa5a f93d 92f4 f43d fcb5 a9be
00000340: a791 703e d979 adbe 83b9 1a3e 79f1 aebe
00000350: e330 503e 25ba e03c 6efa 143e 7766 1d3d
00000360: 1918 9ebc 9f4d 85bb 3081 cdbd 37dd d1bd
00000370: 5357 bdbe 3777 353d 3328 a1be b68d d3bd
00000380: 936b ba3d 884b 5a3e 257f c43d 3b2b 95be
00000390: 351a 9fbe 98c6 ae3d 28c5 bbbe af08 d3bb
000003a0: 3928 99be 0138 0b3e 2932 d2bd a8e4 79be
000003b0: c668 b43e 6ed1 acbe 4899 e7bd 513a 0ebe
000003c0: a716 aabe e522 64be d26b ac3d 80d2 bcbe
000003d0: c9b0 adbe ddc8 74be a776 5fbe 1248 8dbe
000003e0: 1efa 823e fa75 7ebe 7cce ac3d 7a43 e2bd
000003f0: f8d9 c43d 8573 1c3e bc7b 64be ca77 51be

weight f4 [7, 512]
-0.030391755 -0.024154648 -0.0057984926 -0.047051944 0.015608286 0.124635324 -0.018052012 -0.07800935
-0.022214675 0.083012305 -0.07006494 -0.054809988 -0.058357824 -0.0052559925 -0.14428435 -0.07640233
-0.049669657 -0.05698165 0.17575441 0.101681605 -0.033465005 0.046567883 -0.16067214 0.02284458
0.17019846 0.09481723 0.05350485 -0.033007506 0.24961 0.118018374 0.08343371 -0.06881561
0.010072504 0.048276495 -0.00097535946 -0.040677823 0.06590959 -0.032354195 -0.044425614 -0.043471884
0.099476986 0.15283762 -0.0027902967 -0.018652914 -0.06559185 0.14888251 0.027118301 -0.13007152
-0.17465992 -0.052133325 -0.05291226 0.12526187 -0.12415413 -0.016899785 0.10870254 0.049668383
-0.02417789 0.0021760748 0.05590951 0.06015006 -0.09093409 -0.04787281 0.09323043 -0.004618637
-0.019675067 0.02224495 -0.053609066 -0.0582913 0.07906307 0.02125459 0.0998453 -0.02580199
-0.030849867 0.09235592 0.051916923 0.029201102 0.02359666 0.12502526 0.11498469 0.12392525
0.060022675 0.024941675 0.009792693 -0.21171519 0.09214458 -0.0005839932 -0.000984604 -0.074582465
-0.04537386 0.028032152 -0.06596062 -0.0887702 0.00050261244 -0.07454185 -0.0989037 -0.14436582
0.10794281 -0.062084723 0.010375895 -0.045123685 0.0033079523 -0.029106557 0.113118276 -0.10386653
-0.018179405 -0.0027243658 -0.0025893038 0.063040726 -0.10970383 -0.06441431 -0.026040645 -0.07541128
-0.08598593 0.112935625 0.022641173 -0.06718776 0.045021106 -0.17651565 -0.104071446 0.07197252
-0.10706528 0.01662164 0.09649592 0.06331362 -0.022799538 -0.017632198 0.088420086 -0.050150022
-0.04609888 -0.103972964 0.034595694 0.0021116817 -0.089492016 -0.07393914 -0.06406261 0.079713635
0.06045003 0.0058939736 -0.065605566 -0.031622097 -0.06682846 -0.011262449 0.16756351 -0.06643146
0.021502696 -0.04690841 -0.007614582 0.081463054 -0.076775916 0.09149192 -0.018820468 -0.08625258
-0.019046634 -0.028358212 -0.06492473 -0.12835975 0.2167239 0.123000525 0.046849277 0.005685402
0.0006675739 0.07633422 0.03172976 -0.0007740899 0.013482252 0.11862823 0.14687976 -0.058263432
-0.08908133 0.010754979 0.044042088 -0.061939985 -0.017598705 -0.013144677 -0.055818714 0.06100685
-0.0016323958 -0.10570609 0.09360623 0.020507397 -0.016113242 -0.08498881 -0.028625906 0.022202086
0.09202961 -0.011781611 0.094297275 -0.011044621 0.118485555 0.007849864 0.0676234 0.097224504
0.053919543 -0.07187156 0.050839216 0.08817264 0.058802154 0.09120683 0.018141124 -0.028366793
0.03907818 0.030176599 -0.07380579 0.10137361 -0.053772755 0.0021672964 0.13016063 0.04359779
0.03665918 0.06617651 0.0166161 -0.085682 -0.1277227 -0.026252307 0.06008838 0.048163332
0.048898555 0.076671615 -0.0049000266 -0.13005175 -0.00053745636 -0.01873801 0.07376829 0.05618797
0.07911237 -0.07385691 0.02019657 0.049129885 0.23474915 -0.035983413 0.098451436 -0.11300938
-0.07544987 0.036403507 0.104542695 0.14396143 -0.036344573 0.02594591 0.046584006 -0.0064811413
-0.0386855 0.14211814 -0.0906917 0.10697322 -0.08512932 0.09801079 -0.022996886 0.09362393
-0.02338519 -0.12442727 -0.029346326 -0.08193944 0.044647455 0.017242366 0.14876756 0.015737403
00000000: 21f8 f8bc f8df c5bc 4801 bebb 8ab9 40bd
00000010: e5b9 7f3c ce40 ff3d d0e1 93bc 5ec3 9fbd
00000020: 8dfb b5bc 5b02 aa3d 357e 8fbd 7080 60bd
00000030: 9d08 6fbd 763a acbb 47bf 13be d378 9cbd
00000040: 6972 4bbd 9765 69bd f7f8 333e 723e d03d
00000050: 9a12 09bd f7bd 3e3d 3d87 24be 8e24 bb3c
00000060: 8148 2e3e 892f c23d e727 5b3d e132 07bd
00000070: c499 7f3e 9eb3 f13d 4bdf aa3d 33ef 8cbd
00000080: 2507 253c 93bd 453d 44af 7fba ca9d 26bd
00000090: 9bfb 863d d585 04bd a2f7 35bd 930f 32bd
000000a0: 97ba cb3d 7781 1c3e 69dd 36bb ffcd 98bc
000000b0: 0555 86bd a874 183e 3327 de3c 7831 05be
000000c0: 0dda 32be c189 55bd 87ba 58bd a644 003e
000000d0: 8544 febd 6b71 8abc 709f de3d 1371 4b3d
000000e0: b610 c6bc 7a9c 0e3b 5f01 653d e95f 763d
000000f0: a73b babd 4816 44bd 98ef be3d ef57 97bb
00000100: 9b2d a1bc 0b3b b63c 2e95 5bbd dcc2 6ebd
00000110: d2eb a13d 1b1e ae3c b17b cc3d b25e d3bc
00000120: dcb8 fcbc 1a25 bd3d d7a6 543d 2637 ef3c
00000130: c84d c13c 9f06 003e 187d eb3d 85cc fd3d
00000140: 56da 753d 7c52 cc3c 8871 203c decb 58be
00000150: 4cb6 bc3d 1f17 19ba d40d 81ba b1be 98bd
00000160: f1d9 39bd afa3 e53c 5d16 87bd 27cd b5bd
00000170: c0c1 033a 66a9 98bd 068e cabd a2d4 13be
00000180: 1f11 dd3d 8d4c 7ebd a8ff 293c 9dd3 38bd
00000190: 3bca 583b e070 eebc 8eaa e73d fab7 d4bd
000001a0: faec 94bc 468b 32bb 4fb1 29bb 7f1b 813d
000001b0: 67ac e0bd a6eb 83bd 3153 d5bc 3b71 9abd
000001c0: 6419 b0bd cb4a e73d fb79 b93c bc99 89bd
000001d0: 0d68 383d 85c0 34be 6923 d5bd 5466 933d
000001e0: 0b45 dbbd 1b2a 883c a79f c53d 92aa 813d
000001f0: 19c6 babc 6671 90bc 9715 b53d 1c6a 4dbd
00000200: 2ed2 3cbd c7ef d4bd 37b4 0d3d 2464 0a3b
00000210: 9747 b7bd 676d 97bd 4233 83bd e740 a33d
00000220: 739a 773d 3c22 c13b 365c 86bd 2c86 01bd
00000230: 5cdd 88bd 2386 38bc c595 2b3e 380d 88bd
00000240: 6c26 b03c 0823 40bd be83 f9bb 1ad6 a63d
00000250: b13c 9dbd 1e60 bb3d 622d 9abc 31a5 b0bd
00000260: b007 9cbc 7b4f e8bc 42f7 84bd bd70 03be
00000270: dfec 5d3e b3e7 fb3d 07e5 3f3d 9c4c ba3b
00000280: 2000 2f3a 1e55 9c3d 11f7 013d 4bec 4aba
00000290: aae4 5c3c 5cf3 f23d a667 163e a3a5 6ebd
000002a0: 4670 b6bd a735 303c 7a65 343d c8b4 7dbd
000002b0: 292b 90bc c55c 57bc 2aa2 64bd 52e2 793d
000002c0: 1df6 d5ba 6f7c d8bd a0b4 bf3d 21ff a73c
000002d0: ebff 83bc 9d0e aebd e080 eabc 26e1 b53c
000002e0: 057a bc3d a807 41bc ee1e c13d 7ff4 34bc
000002f0: 8ea8 f23d b79c 003c 237e 8a3d a41d c73d
00000300: bdda 5c3d 6531 93bd c83c 503d db93 b43d
00000310: 87da 703d a6ca ba3d b29c 943c 7a61 e8bc
00000320: 7110 203d ea34 f73c 7d27 97bd f89c cf3d
00000330: d240 5cbd 3309 0e3b d448 053e 9993 323d
00000340: f027 163d 8d87 873d 7d1e 883c 0b7a afbd
00000350: bdc9 02be 140f d7bc 3c1f 763d ea46 453d
00000360: da49 483d 0206 9d3d 6790 a0bb 492c 05be
00000370: 16e4 0cba 7580 99bc d413 973d 5b25 663d
00000380: ab05 a23d 4b42 97bd 4773 a53c 6b3c 493d
00000390: 1562 703e 5863 13bd e8a0 c93d 7671 e7bd
000003a0: 7685 9abd d81b 153d 7b1a d63d a06a 133e
000003b0: 0cde 14bd 848c d43c dfce 3e3d c15f d4bb
000003c0: b074 1ebd 6b87 113e 92bc b9bd c714 db3d
000003d0: 4858 aebd e2b9 c83d f763 bcbc e7bd bf3d
000003e0: 4c92 bfbc b9d3 febd b567 f0bc ddcf a7bd
000003f0: 40e0 363d dd3f 8d3c 8656 183e baeb 803c

bias f4 [7]
-0.022258911 0.06181023 -0.08949224 -0.07207035 0.02921971 -0.09810365 0.10024053
00000000: 5258 b6bc b92c 7d3d b547 b7bd 9f99 93bd
00000010: 2c5e ef3c 91ea c8bd e84a cd3d

weight f4 [7]
1.3988409 1.6051829 1.2850428 1.3300031 1.3641417 2.0164144 1.7381065
00000000: 380d b33f a276 cd3f 487c a43f 8b3d aa3f
00000010: 329c ae3f ef0c 0140 467a de3f

bias f4 [7]
0.13794884 -0.39196342 -0.011985844 0.33180597 -0.039510988 -0.014113365 -0.09123845
00000000: 7642 0d3e 6eaf c8be 4660 44bc 79e2 a93e
00000010: 46d6 21bd be3b 67bc 39db babd

weight f4 [7]
1.078514 1.1213282 1.0056216 1.0105692 0.94926745 1.5273759 1.5730956
00000000: bf0c 8a3f af87 8f3f 35b8 803f 555a 813f
00000010: 3103 733f 0e81 c33f 325b c93f

bias f4 [7]
0.004022422 -0.26199523 0.16513981 0.34484524 0.048314273 0.27706748 -0.2776694
00000000: 85ce 833b 3d24 86be 691a 293e 8e8f b03e
00000010: 30e5 453d cadb 8d3e af2a 8ebe

in_proj_weight f4 [21, 7]
-0.21607307 0.21433416 -0.08340545 -0.10367131 0.10498976 -0.14579734 0.3342879 -0.11845789
0.13577121 -0.3075801 -0.05790182 0.21370317 -0.43405253 -0.0112177925 -0.26655862 0.31579325
-0.10110935 -0.033092417 0.032193884 0.4464954 0.43493766 0.30750754 0.42304224 -0.3200334
-0.22719371 -0.19758396 -0.16975886 -0.03734511 0.18952216 -0.4081393 -0.27990362 0.3529094
0.13577475 0.19645104 0.112788334 0.3150791 -0.20309512 0.10425523 -0.49609783 -0.14063714
-0.4493207 -0.11487878 -0.28011572 -0.20309795 -0.10633184 -0.22150797 0.13119169 -0.31814453
-0.19833776 -0.09447 0.26575732 -0.18086517 -0.24928139 -0.12461285 0.3682111 0.34375575
-0.24981229 -0.029124152 -0.48150957 0.0037824258 0.10981103 -0.3297648 0.13162845 -0.47103944
-0.38153544 0.026442982 -0.40648878 -0.055825505 0.15079507 -0.3457147 -0.32592237 -0.42728493
-0.23777057 0.16252834 -0.31731823 0.316793 0.026156358 -0.260862 -0.41268384 -0.45614818
-0.36394918 -0.23665328 0.019657493 -0.03310694 -0.024541741 -0.46262845 -0.37648648 -0.36247218
-0.12390915 0.44370964 0.07245703 -0.44741565 0.1920779 -0.061318874 -0.14220768 0.37598747
0.39634255 0.2676748 -0.07228441 0.07675018 -0.42109674 0.22630584 0.2277716 0.06273291
0.1807219 -0.20224355 0.28295064 0.11735733 0.17076895 -0.54820216 -0.063222736 0.4742773
0.34587675 -0.31109565 -0.27402958 -0.48418805 0.19542828 -0.1437324 0.071760714 0.060134236
0.069034696 -0.4886299 -0.3661302 0.02623838 0.038555723 0.47377947 0.21790229 0.12159699
-0.33827937 0.20205218 -0.007905598 -0.04104693 -0.13828826 -0.11691876 -0.41127756 0.07131575
0.040692117 0.21519679 0.40952346 -0.28862375 -0.28729075 0.5001403 -0.30226994 -0.46342525
0.28597844 -0.6864146 -0.14838038
00000000: 4242 5dbe 6a7a 5b3e 7ad0 aabd a051 d4bd
00000010: df04 d73d e64b 15be c927 ab3e 0d9a f2bd
00000020: 9c07 0b3e 247b 9dbe 752a 6dbd 01d5 5a3e
00000030: 223c debe d5ca 37bc 5f7a 88be a7af a13e
00000040: 6b12 cfbd ea8b 07bd bcdd 033d 0c9b e43e
00000050: 26b0 de3e a171 9d3e fe98 d83e 6bdb a3be
00000060: 78a5 68be 7353 4abe 44d5 2dbe 30f7 18bd
00000070: 1912 423e a2f7 d0be 874f 8fbe 8ab0 b43e
00000080: 8908 0b3e 762a 493e 92fd e63d 0c52 a13e
00000090: 2bf8 4fbe c483 d53d 8900 febe 2f03 10be
000000a0: 5d0d e6be 9145 ebbd 546b 8fbe e9f8 4fbe
000000b0: 82c4 d9bd fcd2 62be 1d57 063e d7e3 a2be
000000c0: 0e19 4bbe 7d79 c1bd 5811 883e b834 39be
000000d0: 9f43 7fbe 0635 ffbd 2a86 bc3e c100 b03e
000000e0: cbce 7fbe c695 eebc 6c88 f6be 93e2 773b
000000f0: 9be4 e03d efd6 a8be 9cc9 063e 152c f1be
00000100: 9d58 c3be f49e d83c 4c1f d0be 49a9 64bd
00000110: 066a 1a3e 8401 b1be 4cdf a6be 17c5 dabe
00000120: 217a 73be d46d 263e 8977 a2be b132 a23e
00000130: dc45 d63c b48f 85be 4c4b d3be 418c e9be
00000140: 8c57 babe 3d55 72be c008 a13c 259b 07bd
00000150: c30b c9bc a3dd ecbe d6c2 c0be f495 b9be
00000160: 15c4 fdbd e92d e33e 5a64 943d aa13 e5be
00000170: 12b0 443e 8029 7bbd e49e 11be 6e81 c03e
00000180: 69ed ca3e ac0c 893e d909 94bd 332f 9d3d
00000190: fe99 d7be b8bc 673e f53c 693e 1d7a 803d
000001a0: 290f 393e ef18 4fbe e8de 903e 0a59 f03d
000001b0: 0ede 2e3e fa56 0cbf ec7a 81bd 79d4 f23e
000001c0: c216 b13e ee47 9fbe 9b4d 8cbe 7fe7 f7be
000001d0: 5a1e 483e 962e 13be 48f7 923d 514f 763d
000001e0: 1062 8d3d b32d fabe 6b75 bbbe dff1 d63c
000001f0: 9bec 1d3d 3993 f23e c721 5f3e d807 f93d
00000200: f432 adbe c4e6 4e3e 7b86 01bc d320 28bd
00000210: 709b 0dbe 1a73 efbd f992 d2be fe0d 923d
00000220: c7ac 263d 8c5c 5c3e 0fad d13e 7ec6 93be
00000230: c617 93be 3209 003f 20c3 9abe 1346 edbe
00000240: c46b 923e deb8 2fbf 07f1 17be

in_proj_bias f4 [21]
-0.04848154 0.07993769 0.1084796 -0.1263097 -0.0060597165 0.06803678 -0.14952812 3.8207842e-10
4.6463176e-09 1.342433e-09 -2.1016813e-09 -2.8467823e-10 -2.2627191e-09 -7.3904693e-10 -0.059959397 -0.12942153
-0.056970794 -0.18192884 -0.011966164 0.13649693 -0.18017511
00000000: 9494 46bd 5fb6 a33d 8d2a de3d 5457 01be
00000010: 9690 c6bb de56 8b3d e61d 19be c20c d22f
00000020: 71a5 9f31 aa80 b830 2b6d 10b1 e680 9caf
00000030: 2d7e 1bb1 ce25 4bb0 fc97 75bd 1487 04be
00000040: 355a 69bd 8e4b 3abe bb0d 44bc dac5 0b3e
00000050: d37f 38be

weight f4 [7, 7]
0.2253663 -0.5714339 0.6394992 0.23802602 -0.0058462005 -0.36153528 -0.16145577 0.12737761
0.063488536 -0.30266905 0.5589787 -0.11372681 0.4692209 0.026655938 -0.48339698 0.09256763
0.53409594 -0.61412805 -0.035945535 -0.24316525 0.38112047 -0.29558235 0.17830384 -0.23685335
-0.5496282 -0.3677904 0.39865112 -0.77770793 0.35442516 -0.16539034 0.44514036 -0.623356
-0.3828812 -0.18125091 0.45330682 -0.24606256 0.22216004 0.0023498083 0.10536411 -0.41232756
-0.01960635 0.17265128 0.009444154 0.460751 -0.0018344006 0.08088969 -0.2223943 -0.033134766
-0.12035089
00000000: 6cc6 663e 7e49 12bf 38b6 233f 18bd 733e
00000010: 7c91 bfbb 271b b9be a954 25be 476f 023e
00000020: 4706 823d 70f7 9abe 3a19 0f3f 9ae9 e8bd
00000030: b93d f03e 8e5d da3c cf7f f7be 1994 bd3d
00000040: 83ba 083f 7f37 1dbf a03b 13bd 5000 79be
00000050: 3922 c33e 9256 97be 4895 363e af89 72be
00000060: 6fb4 0cbf 064f bcbe 001c cc3e de17 47bf
00000070: 3777 b53e 165c 29be 70e9 e33e 4294 1fbf
00000080: 0109 c4be d799 39be d517 e83e d3f7 7bbe
00000090: ec7d 633e 3eff 193b 23c9 d73d 991c d3be
000000a0: 7f9d a0bc 7fcb 303e a7bb 1a3c 8ee7 eb3e
000000b0: 4570 f0ba 7ea9 a53d 55bb 63be 52b8 07bd
000000c0: 877a f6bd

bias f4 [7]
-0.046774607 -0.024712522 -0.04881924 0.15413533 0.022523565 -0.03492499 -0.06605052
00000000: bb96 3fbd ea71 cabc aff6 47bd a7d5 1d3e
00000010: 5783 b83c 820d 0fbd 7f45 87bd

weight f4 [512, 7]
0.009859273 -0.07761248 0.041377507 -0.051911093 -0.06051913 -0.0068683624 0.0829262 0.16093454
-0.04714386 0.21668376 -0.031836018 0.11121136 -0.16304193 -0.10149308 0.13195375 -0.004636783
0.1127545 -0.07375702 -0.05042756 -0.10470501 -0.117194414 -0.13096915 -0.026763026 -0.036631737
0.089385666 -0.14188044 0.077570476 0.09043466 0.18480982 0.10133317 -0.0768026 -0.16752113
-0.05571689 0.08126085 -0.032942064 0.0031379466 0.07379249 0.10358101 0.0852064 -0.1038011
-0.058273643 -0.05617367 -0.008134198 -0.048487876 -0.05168727 -0.0560993 0.0726986 0.047165085
-0.091925785 -0.20340773 0.12538385 -0.07459217 -0.054912604 -0.073474705 0.06663887 -0.032121513
-0.028744925 0.07037486 -0.054448962 -0.028267255 -0.06928271 0.14225236 -0.022757644 0.039462306
-0.1106544 0.020796034 0.08460277 0.08331601 0.06993056 0.017170947 0.102191545 0.059673093
-0.009449899 0.013972417 0.0749337 -0.03962271 -0.07603669 -0.15455456 0.051720925 0.013140679
-0.054049037 0.07063059 0.10142157 0.066174924 -0.049390495 -0.026743574 -0.07529995 -0.11773664
0.09843431 -0.024671694 0.11157592 0.03829144 0.007798542 -0.008849189 0.011591049 0.024704814
0.07599088 0.011895477 -0.17015792 0.093152635 -0.04191662 0.14562634 -0.018283783 0.030686107
-0.015548658 0.18421541 -0.14135408 0.043997664 -0.034902044 0.02616134 0.027598107 0.12351223
0.041789237 -0.028055435 -0.0600113 -0.003731259 -0.030817425 0.092849635 -0.030585226 -0.020683901
-0.08944567 0.01976915 -0.06651214 -0.006939899 0.102139965 -0.047507364 0.023948388 0.049822688
0.0033794092 -0.015905801 -0.07388328 -0.02439216 -0.036539 0.1035561 0.0030191469 0.13874543
-0.09955307 -0.032740746 -0.17380968 -0.033951942 0.13078037 -0.08186826 -0.12962694 0.1390516
-0.1268937 0.15933771 0.034442216 0.14602096 -0.031303898 0.10217077 -0.16210368 -0.069058634
-0.07919295 -0.054373216 0.14980698 -0.07153548 -0.041193508 0.019630851 -0.031375147 -0.116049655
-0.05172823 -0.08876162 -0.010610752 0.018038083 -0.058343068 -0.051762387 -0.08857409 -0.017041344
0.029313449 0.042568717 0.048519593 0.01854491 0.119396195 0.02737848 -0.06431981 0.10683234
-0.0588524 -0.04576372 -0.13763636 0.047319166 -0.05376238 -0.051175047 0.011369249 0.01556288
-0.1246999 -0.009093376 -0.11781594 -0.0066671884 0.14415424 0.08419527 0.057302225 -0.046148706
-0.00075543026 -0.027099958 0.025846094 -0.033678554 -0.057477653 -0.025839925 0.02506037 -0.026755702
-0.074728906 -0.09437092 -0.11260143 -0.0016677213 -0.037496015 -0.07700691 0.033026136 -0.09150806
-0.07394028 -0.13241608 -0.020142354 -0.096514806 0.0936726 -0.060250595 -0.11121197 -0.1420814
-0.020269457 0.0548516 0.043899912 0.062413726 -0.0036326228 -0.049450565 -0.004146616 0.0403702
-0.008395009 0.044078127 -0.023618802 0.008843877 -0.044768274 -0.05157483 -0.086897895 0.04057096
0.067774974 -0.070541926 0.041518778 0.070569776 0.1235395 0.004942873 0.21289729 -0.14135431
0.07381775 0.07146333 0.038430493 -0.058554076 0.016615452 -0.0047266134 -0.053283703 -0.09376892
0.07501751 -0.056175 0.048880786 -0.1773945 -0.040258437 0.013182725 -0.08536282 0.005508722
00000000: ca88 213c 4bf3 9ebd 767b 293d baa0 54bd
00000010: e8e2 77bd 0010 e1bb 36d5 a93d 06cc 243e
00000020: ec19 41bd 59e2 5d3e 7c66 02bd c8c2 e33d
00000030: 77f4 26be 9bdb cfbd e21e 073e 28f0 97bb
00000040: d5eb e63d ec0d 97bd 218d 4ebd 956f d6bd
00000050: a003 f0bd c71c 06be 223e dbbc 290b 16bd
00000060: d50f b73d 1b49 11be 45dd 9e3d cf35 b93d
00000070: c93e 3d3e c487 cf3d ae4a 9dbd a98a 2bbe
00000080: 6537 64bd 176c a63d 42ee 06bd 02a6 4d3b
00000090: 8420 973d 4822 d43d b180 ae3d ac95 d4bd
000000a0: 58b0 6ebd 5d16 66bd 4d45 05bc 399b 46bd
000000b0: 08b6 53bd 61c8 65bd 01e3 943d 2d30 413d
000000c0: 9643 bcbd 1e4a 50be a064 003e c8c3 98bd
000000d0: 0aec 60bd e879 96bd f679 883d d991 03bd
000000e0: 7a7a ebbc b220 903d e005 5fbd bb90 e7bc
000000f0: 18e4 8dbd 9aaa 113e 3d6e babc 3aa3 213d
00000100: c69e e2bd 725c aa3c 3844 ad3d 96a1 aa3d
00000110: c137 8f3d 16aa 8c3c cd49 d13d c66b 743d
00000120: c0d3 1abc 91ec 643c d776 993d 6c4b 22bd
00000130: 20b9 9bbd 8d43 1ebe 52d9 533d 014c 573c
00000140: 8662 5dbd c5a6 903d 1db6 cf3d b886 873d
00000150: b04d 4abd 5715 dbbc dc36 9abd e81f f1bd
00000160: ed97 c93d 4b1c cabc ea81 e43d 7cd7 1c3d
00000170: e98a ff3b 30fc 10bc 62e8 3d3c c061 ca3c
00000180: 1ba1 9b3d 3fe5 423c e13d 2ebe cfc6 be3d
00000190: c3b0 2bbd 121f 153e dfc7 95bc 6e61 fb3c
000001a0: ccbf 7ebc f7a2 3c3e 20bf 10be e536 343d
000001b0: 72f5 0ebd 4e50 d63c 6d15 e23c fbf3 fc3d
000001c0: 312b 2b3d 83d4 e5bc 69ce 75bd 2388 74bb
000001d0: d374 fcbc f327 be3d de8d fabc 4971 a9bc
000001e0: 4b2f b7bd eaf2 a13c 8437 88bd 1868 e3bb
000001f0: c22e d13d 1597 42bd 692f c43c e012 4c3d
00000200: 1479 5d3b e24c 82bc 1e50 97bd 11d2 c7bc
00000210: eba9 15bd 3815 d43d e1dc 453b 4813 0e3e
00000220: 7be2 cbbd 291b 06bd 2afb 31be 3111 0bbd
00000230: 4aeb 053e 8caa a7bd edbc 04be 8b63 0e3e
00000240: 6cf0 01be 6d29 233e 4813 0d3d 8586 153e
00000250: 8438 00bd e93e d13d 82fe 25be 9d6e 8dbd
00000260: ea2f a2bd 73b6 5ebd 0067 193e 3281 92bd
00000270: 86ba 28bd e1d0 a03c 3a83 00bd 71ab edbd
00000280: fbe0 53bd a7c8 b5bd b8d8 2dbc 9ac4 933c
00000290: 24f9 6ebd cc04 54bd 5566 b5bd 4a9a 8bbc
000002a0: c222 f03c 895c 2e3d 7bbc 463d 7feb 973c
000002b0: fe85 f43d d648 e03c 1bba 83bd eaca da3d
000002c0: 370f 71bd bd72 3bbd 8cf0 0cbe bed1 413d
000002d0: f135 5cbd ed9c 51bd 1646 3a3c 73fb 7e3c
000002e0: a962 ffbd 62fc 14bc 7c49 f1bd 6e78 dabb
000002f0: 2b9d 133e 926e ac3d bdb5 6a3d 6d06 3dbd
00000300: 1108 46ba bb00 debc 30bb d33c 86f2 09bd
00000310: b06d 6bbd 40ae d3bc 684b cd3c c62e dbbc
00000320: 780b 99bd 8a45 c1bd 949b e6bd 7197 daba
00000330: 6c95 19bd cdb5 9dbd 6a46 073d 9468 bbbd
00000340: 006e 97bd 1598 07be 9401 a5bc 8ea9 c5bd
00000350: 6cd7 bf3d 54c9 76bd 1ac3 e3bd c97d 11be
00000360: 220c a6bc 12ac 603d 65d0 333d 89a5 7f3d
00000370: 4c11 6ebb ad8c 4abd 56e0 87bb 395b 253d
00000380: 388b 09bc 448b 343d 387c c1bc e9e5 103c
00000390: f05e 37bd 2140 53bd 86f7 b1bd bc2d 263d
000003a0: 9bcd 8a3d 4978 90bd 980f 2a3d e386 903d
000003b0: 4702 fd3d d3f7 a13b bf01 5a3e 2fbf 10be
000003c0: c32d 973d 5e5b 923d 4b69 1d3d 66d6 6fbd
000003d0: 211d 883c b5e1 9abb 0340 5abd eb09 c0bd
000003e0: c8a2 993d c217 66bd 3837 483d e7a6 35be
000003f0: 08e6 24bd 5bfc 573c b4d2 aebd 8282 b43b

bias f4 [512]
-0.2723528 0.14656882 -0.34586433 -0.008358894 -0.067242675 -0.038958516 0.21653122 0.14553964
-0.3367011 -0.19295166 0.31246942 -0.025134455 0.07370512 -0.3613446 -0.3433157 -0.0925666
-0.30857074 0.22315195 -0.14428532 -0.16362025 0.27455795 0.24163882 -0.07400641 -0.3509897
0.055625975 -0.23009059 -0.2765012 -0.18286155 0.2903547 0.30685157 -0.1421316 -0.3251856
0.26312673 0.19431064 -0.114822924 -0.0670235 0.3005531 0.21477634 0.14192702 -0.2852975
0.11581264 -0.18386619 0.202755 -0.3219419 0.036564067 -0.14325792 -0.2205436 0.1465291
0.04295887 -0.3121227 -0.01790909 0.08594717 0.040807873 0.020890044 0.03988494 -0.36366698
-0.02055503 0.042545952 -0.17469424 0.08347448 0.32651803 0.19357263 0.057363495 0.28947434
-0.12290338 0.2946566 -0.040615268 0.24073866 -0.2722742 -0.007740673 -0.33035454 -0.08893152
0.14311706 -0.087121174 -0.24807377 -0.077448 -0.27100632 -0.12400647 0.049198486 -0.06721174
-0.35446662 -0.24388367 -0.023594605 -0.080291234 0.08490601 -0.09520884 0.20363621 -0.23624994
-0.04939897 0.0958736 -0.20496994 -0.34599718 -0.22163278 -0.17365156 0.35110956 0.07458419
-0.19794708 0.17247348 0.23512194 0.16773106 0.27434635 0.33344182 0.24493484 0.30375355
-0.1893241 -0.035069376 -0.31680092 -0.032660477 0.035110313 -0.29517698 0.059418935 0.2471518
0.12049416 0.28363168 0.20093472 0.18254484 -0.20173949 0.15755194 -0.30957055 -0.27965698
-0.30358663 0.083853096 -0.37726563 0.14378063 -0.090631604 0.14381161 0.21333149 0.11094733
0.2756187 -0.3152529 -0.16872536 -0.09158965 -0.27903357 -0.093484655 -0.3138887 -0.061411917
-0.30077878 0.26824722 0.25753775 0.22957373 -0.27947956 0.022853749 -0.21361244 0.23302224
0.10449467 -0.29188126 0.10641949 -0.049512345 -0.37018389 -0.19992864 -0.12068131 -0.28809515
-0.3123929 -0.22705388 -0.26162323 0.1480296 -0.07600607 -0.031066991 -0.29555595 0.268443
0.0716074 -0.32448357 0.14293039 -0.06626852 0.15190455 0.26976302 0.20632026 -0.32602888
-0.020795746 0.22285852 0.16368529 -0.25580186 -0.32083482 -0.20213315 -0.3221893 -0.1407901
-0.2316504 -0.304222 0.0054053823 -0.004261297 0.02686995 -0.31397706 0.30699688 -0.29363683
0.280912 0.2540011 -0.29864964 -0.28009814 -0.10564366 -0.385366 -0.27824157 0.2957129
0.19031775 -0.12441417 -0.11787245 -0.0064063533 -0.18300499 0.16223192 -0.11969437 -0.26287463
0.26782438 0.24798626 -0.14372143 -0.100648016 0.22946094 0.15416272 0.17379154 -0.3285089
0.17214951 -0.34061518 0.17479879 -0.34017655 0.24899365 0.023881681 0.14493951 0.032044053
0.0411047 0.04547847 -0.1409257 -0.0999677 -0.36744073 0.09654339 -0.3072864 -0.031905472
0.14401317 0.22555432 0.16534236 -0.19696492 -0.18487841 0.05796249 -0.36100367 0.024752941
-0.2961624 0.12746072 -0.13709266 -0.2440204 0.29818028 -0.34249094 -0.07030389 -0.1500407
-0.3479427 -0.20238765 0.09710125 -0.3727894 -0.332878 -0.25656128 -0.23949316 -0.27872106
0.26432297 -0.26457673 0.019475903 -0.11401873 0.15361233 0.19742335 -0.110523686 -0.108289845
00000000: d471 8bbe 2316 163e 2115 b1be bef3 08bc
00000010: 87b6 89bd f792 1fbd 5cba 5d3e 5808 153e
00000020: 1664 acbe 1f95 45be fefb 9f3e c6e6 cdbc
00000030: b6f2 963d 2902 b9be 13c7 afbe 8f93 bdbd
00000040: fcfc 9dbe f281 643e 88bf 13be 118c 27be
00000050: dc92 8c3e 2b70 773e ac90 97bd ecb4 b3be
00000060: 10d8 633d de9c 6bbe 9191 8dbe 0f40 3bbe
00000070: 5fa9 943e a61b 9d3e f28a 11be ba7e a6be
00000080: 8cb8 863e 5ef9 463e 4828 ebbd 9e43 89bd
00000090: 19e2 993e 54ee 5b3e 5155 113e 8412 92be
000000a0: 2d2f ed3d 6b47 3cbe 029f 4f3e 92d5 a4be
000000b0: 34c4 153d 34b2 12be 2ed6 61be b90b 163e
000000c0: a4f5 2f3d 8cce 9fbe 15b6 92bc 1205 b03d
000000d0: 2826 273d 9921 ab3c 645e 233d 8f32 babe
000000e0: 0663 a8bc aa44 2e3d 0ce3 32be abf4 aa3d
000000f0: 5f2d a73e e737 463e fcf5 6a3d fb35 943e
00000100: c4b4 fbbd 3bdd 963e 325c 26bd 3284 763e
00000110: 8667 8bbe 79a5 fdbb 3b24 a9be bb21 b6bd
00000120: 478d 123e 966c b2bd 0d07 7ebe 0f9d 9ebd
00000130: 57c1 8abe 1bf7 fdbd 5a84 493d 4fa6 89bd
00000140: a67c b5be a4bc 79be 7949 c1bc bb6f a4bd
00000150: 34e3 ad3d dafc c2bd 0386 503e 81eb 71be
00000160: 9356 4abd 6159 c43d a4e3 51be 8b26 b1be
00000170: b4f3 62be b7d1 31be a2c4 b33e 99bf 983d
00000180: a4b2 4abe e39c 303e cec3 703e b1c1 2b3e
00000190: 2077 8c3e e3b8 aa3e 33d0 7a3e 9685 9b3e
000001a0: 2dde 41be e8a4 0fbd bb33 a2be fec6 05bd
000001b0: d5cf 0f3d 7021 97be 4561 733d 5d15 7d3e
000001c0: a4c5 f63d 2c38 913e d5c1 4d3e 09ed 3a3e
000001d0: cc94 4ebe 4c55 213e 0880 9ebe 332f 8fbe
000001e0: b56f 9bbe 2cbb ab3d f628 c1be 3b3b 133e
000001f0: 109d b9bd 5a43 133e 9273 5a3e 5b38 e33d
00000200: e51d 8d3e d468 a1be 57c6 2cbe 5b93 bbbd
00000210: 7ddd 8ebe e274 bfbd 05b6 a0be 108b 7bbd
00000220: adff 99be b357 893e fddb 833e 6015 6b3e
00000230: f217 8fbe c937 bb3c 38bd 5abe 629d 6e3e
00000240: 4d01 d63d 7671 95be 76f2 d93d 75cd 4abd
00000250: be88 bdbe 18ba 4cbe c327 f7bd 3581 93be
00000260: f6f1 9fbe d080 68be 7bf3 85be 1295 173e
00000270: 12a9 9bbd 3480 febc 1c53 97be 5c71 893e
00000280: e7a6 923d b622 a6be 585c 123e cab7 87bd
00000290: de8c 1b3e 611e 8a3e 9e45 533e 42ed a6be
000002a0: d75b aabc 0635 643e 1e9d 273e 76f8 82be
000002b0: 7644 a4be fefb 4ebe fff5 a4be 482b 10be
000002c0: c335 6dbe fcc2 9bbe a21f b13b 5aa2 8bbb
000002d0: 5f1e dc3c 9ac1 a0be b22e 9d3e 9157 96be
000002e0: b3d3 8f3e 6f0c 823e 9be8 98be 0669 8fbe
000002f0: b45b d8bd b14e c5be ae75 8ebe ae67 973e
00000300: a8e2 423e dbcc febd 1c67 f1bd 63ec d1bb
00000310: a965 3bbe 2020 263e 5222 f5bd 8197 86be
00000320: 4720 893e 1cf0 7d3e b62b 13be 8c20 cebd
00000330: cff7 6a3e d5dc 1d3e 69f6 313e 5232 a8be
00000340: f647 303e 1d65 aebe 74fe 323e 9f2b aebe
00000350: 31f8 7e3e 84a3 c33c 066b 143e a040 033d
00000360: 675d 283d a247 3a3d d44e 10be debb ccbd
00000370: 3121 bcbe 8ab8 c53d a554 9dbe 50af 02bd
00000380: 3078 133e b6f7 663e 824f 293e 2cb1 49be
00000390: c450 3dbe 136a 6d3d 79d5 b8be aec6 ca3c
000003a0: 99a2 97be 1085 023e 0562 0cbe 7ce0 79be
000003b0: 16ab 983e f95a afbe 7cfb 8fbd 45a4 19be
000003c0: 8c25 b2be b53e 4fbe 05dd c63d 41de bebe
000003d0: fc6e aabe 005c 83be b23d 75be 87b4 8ebe
000003e0: 5755 873e 9a76 87be ee8b 9f3c a782 e9bd
000003f0: 8d4c 1d3e 5929 4a3e 3e5a e2bd 11c7 ddbd

weight f4 [7, 512]
0.0909393 0.014982067 -0.08181523 -0.018243445 0.08770971 -0.06319286 0.06567044 0.13778818
0.079114094 -0.09134697 0.03710601 0.0674793 0.0010109671 0.08768152 0.096401766 0.022535024
-0.09507441 0.11722629 0.059981443 0.084126756 -0.014503493 0.011496631 -0.0074445317 -0.06670638
-0.040550873 0.089904495 -0.016189065 -0.0046981038 -0.061919916 0.008310943 0.08336533 -0.08414764
-0.07616696 0.029157793 0.12262329 -0.069916606 -0.036978167 -0.10242515 0.014482344 -0.04528784
-0.10837903 -0.041035768 -0.12013175 -0.01876066 -0.011667924 0.03376947 0.07231743 -0.03251249
0.15725236 -0.030403243 -0.093512446 0.11963014 0.013083946 -0.09932874 0.09734149 0.01629519
-0.048213344 0.058927897 0.028114768 -0.021360895 0.049610183 -0.0026615656 0.0354392 0.097896546
-0.016474023 -0.043674994 0.060438152 0.05387173 -0.042664144 -0.059077438 0.05405962 0.025016403
-0.026004683 0.11650224 0.02306764 0.016646946 -0.035480812 0.06800997 0.11812343 0.022459956
-0.017037498 -0.014842171 0.10453485 0.06743402 0.046887785 -0.038978096 0.089791164 0.05185293
0.054152172 -0.033597462 -0.08520799 -0.036429357 -0.10396761 0.106003724 -0.0900995 -0.02286844
0.06941123 -0.019888777 -0.0922323 -0.038882323 0.06397821 0.08405625 -0.059596702 -0.13225028
-0.10195905 -0.10827267 -0.052385822 0.008927828 -0.05417623 -0.08641541 0.07222503 0.04753276
-0.016234899 0.07599711 -0.0075270995 -0.018692864 0.05823414 0.11071058 0.03187171 0.07409521
0.10519022 -0.10857751 -0.017881617 0.0029249464 0.0314127 -0.018784571 0.033247333 0.016487213
0.13665053 0.0029339266 0.022068813 -0.054439332 0.031907942 -0.08708157 0.025420297 -0.0781109
-0.054936405 0.04842035 -0.054403964 0.05170799 -0.0036693297 0.05078774 -0.09156646 0.057139505
-0.045192957 -0.07778521 0.1087018 0.10605079 -0.030227257 0.03026919 -0.037709143 0.08889729
-0.060406588 -0.03800919 0.0021200334 -0.13491711 -0.099501066 -0.069478296 0.03552021 0.025103336
-0.026349952 -0.050029557 0.08562866 0.011552813 0.079334915 0.004731597 -0.03504883 -0.044232264
0.033201188 0.09266932 -0.10713436 0.025552556 0.026304042 0.03649396 -0.04197298 -0.09916434
0.005012997 0.06400918 -0.03554123 0.06753012 -0.081200816 0.10008143 0.06244363 0.07369178
0.024612233 -0.08828014 0.021344457 0.031854626 0.055593017 -0.071244076 -0.05971078 0.07788919
0.039477948 0.041370668 -0.047221508 0.0015684265 0.0970173 -0.0009642762 0.028725434 0.0704627
0.03570604 0.03835443 -0.06889369 0.042058513 0.05419312 -0.0462659 -0.07003986 -0.07700963
0.019374564 -0.08317606 0.051947247 0.03650931 -0.01708427 0.07614693 -0.025278568 0.068332404
-0.034996916 -0.06578406 -0.0022674927 0.097356334 0.008690208 -0.0567464 0.011471195 0.013884308
0.06796108 0.0021131306 -0.046440836 0.008170966 0.045404337 -0.028368039 0.018774148 0.05875575
0.098236434 0.059249293 0.09780586 0.0056281546 0.052965 -0.06459002 -0.07442041 0.015942097
-0.086510226 0.097544916 -0.12650423 0.046418685 0.07111023 -0.09340994 -0.02214866 0.0034327658
0.051934976 0.0187428 0.11156513 0.09802284 0.084917784 0.045634743 0.06696265 -0.018313026
00000000: 623e ba3d 5877 753c be8e a7bd 4773 95bc
00000010: 26a1 b33d 426b 81bd 397e 863d 5818 0d3e
00000020: 9206 a23d 1f14 bbbd 79fc 173d 9632 8a3d
00000030: 6d82 843a 5e92 b33d 4a6e c53d 5f9b b83c
00000040: 5fb6 c2bd 5614 f03d 1aaf 753d a64a ac3d
00000050: 0fa0 6dbc 5e5c 3c3c 42f1 f3bb 5b9d 88bd
00000060: ac18 26bd d91f b83d ee9e 84bc 8df2 99bb
00000070: bd9f 7dbd 9f2a 083c 71bb aa3d 9955 acbd
00000080: 6cfd 9bbd 53dc ee3c eb21 fb3d 7030 8fbd
00000090: 6b76 17bd 47c4 d1bd 5a47 6d3c be7f 39bd
000000a0: d3f5 ddbd 1f15 28bd a307 f6bd f5af 99bc
000000b0: d22a 3fbc db51 0a3d 291b 943d d12b 05bd
000000c0: c306 213e 3910 f9bc 7483 bfbd a600 f53d
000000d0: 0c5e 563c de6c cbbd fa5a c73d 7e7d 853c
000000e0: 5b7b 45bd 615e 713d f150 e63c 0bfd aebc
000000f0: 0c34 4b3d a96d 2ebb b228 113d fc7d c83d
00000100: 88f4 86bc 8de4 32bd ff8d 773d 9aa8 5c3d
00000110: 99c0 2ebd 2ffb 71bd 9f6d 5d3d 33ef cc3c
00000120: c607 d5bc ba98 ee3d 59f8 bc3c 2d5f 883c
00000130: 5454 11bd d048 8b3d b2ea f13d f1fd b73c
00000140: 3992 8bbc 942c 73bc 5e16 d63d d91a 8a3d
00000150: 680d 403d 7fa7 1fbd 6ee4 b73d bd63 543d
00000160: abce 5d3d 7e9d 09bd 8781 aebd f336 15bd
00000170: f8ec d4bd 7b18 d93d 1686 b8bd 9856 bbbc
00000180: 7a27 8e3d caed a2bc 4ae4 bcbd 1243 1fbd
00000190: 0207 833d af25 ac3d ac1b 74bd 9e6c 07be
000001a0: e8cf d0bd 10be ddbd 8492 56bd 0646 123c
000001b0: e5e7 5dbd 90fa b0bd b7ea 933d b6b1 423d
000001c0: 0dff 84bc 5fa4 9b3d e3a5 f6bb c721 99bc
000001d0: ec86 6e3d 3bbc e23d e98b 023d 3bbf 973d
000001e0: f86d d73d e35d debd 787c 92bc 75b0 3f3b
000001f0: 9aaa 003d 1ae2 99bc 5b2e 083d 3110 873c
00000200: 1eee 0b3e 1f47 403b a8c9 b43c c7fb 5ebd
00000210: e7b1 023d d257 b2bd 3a3e d03c 9cf8 9fbd
00000220: ff04 61bd 6b54 463d b1d6 5ebd c2cb 533d
00000230: 2379 70bb ce06 503d 3287 bbbd 1d0b 6a3d
00000240: 401c 39bd da4d 9fbd 0d9f de3d 2831 d93d
00000250: 279f f7bc 18f7 f73c e774 1abd c80f b63d
00000260: e66c 77bd 86af 1bbd 42f0 0a3b b627 0abe
00000270: 37c7 cbbd a34a 8ebd a47d 113d 83a5 cd3c
00000280: dbdb d7bc cbeb 4cbd 145e af3d 0348 3d3c
00000290: 587a a23d 830b 9b3b 5d8f 0fbd e42c 35bd
000002a0: f8fd 073d 6ac9 bd3d 4269 dbbd 9853 d13c
000002b0: 937b d73c b17a 153d dceb 2bbd ac16 cbbd
000002c0: 1144 a43b 3f17 833d ae93 11bd 3b4d 8a3d
000002d0: 9d4c a6bd 7ef7 cc3d e4c4 7f3d b7eb 963d
000002e0: 989f c93c 38cc b4bd 92da ae3c ff79 023d
000002f0: 81b5 633d 6ae8 91bd 4a93 74bd 5e84 9f3d
00000300: a1b3 213d 4a74 293d 576b 41bd a993 cd3a
00000310: 02b1 c63d 7bc7 7cba 9a51 eb3c c04e 903d
00000320: 7f40 123d 8919 1d3d 2318 8dbd 8c45 2c3d
00000330: 9bf9 5d3d 5081 3dbd 0f71 8fbd 3ab7 9dbd
00000340: 68b7 9e3c 3658 aabd a3c6 543d c98a 153d
00000350: 50f4 8bbc ecf2 9b3d 0015 cfbc dcf1 8b3d
00000360: ed58 0fbd cbb9 86bd 379a 14bb c262 c73d
00000370: 6061 0e3c ea6e 68bd aef1 3b3c 027b 633c
00000380: 2e2f 8b3d 737c 0a3b bf38 3ebd 84df 053c
00000390: e6f9 393d 1764 e8bc 3ecc 993c dfa9 703d
000003a0: 2f30 c93d 63af 723d 704e c83d 626c b83b
000003b0: d4f1 583d c647 84bd ba69 98bd 0099 823c
000003c0: 462c b1bd a1c5 c73d 538a 01be 8521 3e3d
000003d0: 3ea2 913d b64d bfbd 1b71 b5bc 41f8 603b
000003e0: c5b9 543d 808a 993c 427c e43d 33c0 c83d
000003f0: 60e9 ad3d 7feb 3a3d b723 893d 3305 96bc

bias f4 [7]
-0.01970716 0.029276889 -0.058303356 -0.028632628 -0.014719193 0.036478594 0.027476486
00000000: e970 a1bc 16d6 ef3c 80cf 6ebd f98e eabc
00000010: c528 71bc 946a 153d 5e16 e13c

weight f4 [7]
1.4365324 1.2004215 1.0556532 1.3627043 1.0374936 1.5761564 1.5136929
00000000: 4be0 b73f 69a7 993f a51f 873f 186d ae3f
00000010: 97cc 843f 7ebf c93f b0c0 c13f

bias f4 [7]
-0.080903806 0.05903881 -0.050879534 0.0032150391 0.008422016 0.11118578 0.13476422
00000000: e5b0 a5bd aed2 713d 0f67 50bd 68b3 523b
00000010: 7ffc 093c 5fb5 e33d a2ff 093e

weight f4 [7]
0.95013946 1.1321524 1.0307277 0.9394389 1.0775453 1.3246152 1.3101238
00000000: 573c 733f 5fea 903f e3ee 833f 117f 703f
00000010: 01ed 893f fe8c a93f 23b2 a73f

bias f4 [7]
0.043738116 -0.03789737 -0.051206205 0.031371195 -0.05862137 0.08395357 -0.00040200062
00000000: bd26 333d 463a 1bbd 99bd 51bd 157f 003d
00000010: f61c 70bd d9ef ab3d 9cc3 d2b9
